ckpts/source/subject_01.ckpt (torch, 64269 bytes, 50 tensors)

model.input_block.temp_cov.weight f4 [40, 1, 1, 25]
00000000: 3585 a53e 51f5 053e 8876 96be 5ea3 a6be
00000010: 788e 8bbe a0df 9bbd 328d 743d e27f 8f3e
00000020: 5cdb d43d 31a8 cc3d 3b32 41be 969e 5bbe
00000030: 027f bfbe 56d2 9fbe 4508 70be e1fa 1e3c
00000040: f1be 8c3e 4735 bc3e 2df3 ff3d 8b80 243e
00000050: 7bd6 8e3e e745 9c3e 8d97 9e3c dff1 0e3e
00000060: bfc3 c9bd 8b15 8cbe 148b 843e 4efc 073e
00000070: b93d 943e f69f bb3e 0a77 893e 8368 883e
00000080: 712a 8fbe 9dc7 99be c975 b2be cb05 b5be
00000090: 47f0 53bd 8f1d f53e 9b6f c83e 5867 c73e
000000a0: 5bf6 8d3e 2d20 cdbd 2ee8 4abe 4403 e8be
000000b0: 3920 d4be 18f3 a1be 69ea 6d3e f431 d33e
000000c0: 1a28 823e 55ed ad3e 6fb8 023f 80e4 103f
000000d0: f216 dd3e 2d48 ba3e e6f0 cf3e 0572 1dbe
000000e0: b255 21be 5520 c6be 1231 c0be 4e3f a7be
000000f0: 5821 d1bd 6180 94bd ebc1 7abe f224 94bd
00000100: 8ff8 72bd acdf 6cbe bdfa 47be 5029 88bd
00000110: 3954 453e 797a dd3e bfba 523e deb3 b83e
00000120: 5cbc 0c3f 2ccb 223f 1b85 153f c9ff babd
00000130: 47f1 82be 167b d3be 6067 2cbe bf73 83be
00000140: 93a1 52be d360 a13e 161d 9c3e 3604 86bd
00000150: ee08 ff3d 1726 c9bd b303 4bbe 32a2 8ebe
00000160: ec2f ebbd bd4c 63be 7761 c93d e674 433e
00000170: aa84 8a3e db6b 6d3e 2b9b 1cbd 2fb5 0dbe
00000180: a3a3 58bd bcec 27be 76ee c6be fc94 b3be
00000190: db52 9a3e dca4 c73c b6f9 c0be b8fc bdbe
000001a0: b308 e9be 2ffa 5cbe 4986 a4be ba31 93be
000001b0: 2cf7 babd c88f 8e3d f464 c63c 11cd 663e
000001c0: c9e3 b6bc 7f65 893e 0f15 583e 9313 c2bd
000001d0: 9978 253d a732 fa3d 1771 223e 73b2 363e
000001e0: b95e 313e 90b4 bfbc e25a a0be 904d 80be
000001f0: 99a3 28bf a059 b3be 565d b7be fd94 d1be
00000200: 215a b9be fff5 dabe c067 88be 0919 dcbd
00000210: 1d9b 04be 950a 2e3e 9ab1 b53e 037c 1d3e
00000220: 8385 073e 8ea8 8c3d 93a8 cc3d a97b 363e
00000230: 1d37 7f3e b49b 563e da5b 9d3e a0da 0d3e
00000240: ff07 a7bd fffc 2abe 1024 38bd a9f7 8abe
00000250: 09a9 ebbe 925c 19bf 2eb2 083e fcb6 843e
00000260: 1aa1 d83e 242d 0a3f af5e f93e 82e4 173e
00000270: 8ed6 e33e 6273 113e b2cc 153e 4c41 d2bd
00000280: 47ed 42be a8b8 8abe 5df7 efbe f42d 00bf
00000290: 16a2 c2be e960 b4be 0852 e0be 554a 75be
000002a0: 1bc4 c7be 2af1 fbbb 1310 aa3e fddf 203e
000002b0: 969e fc3e 0a2c f13e 1a46 9d3e 5ab9 463e
000002c0: f2aa aabc 9602 0dbe e2dc a13d fcde 89be
000002d0: eca9 b5bd 9a4b a6bd 6b1b 1d3e 4277 bc3d
000002e0: 4a47 1a3e 741a 103e 5e30 d33c ed58 0b3d
000002f0: e8bb a1bd 8ed2 463e 70d7 743e b3b3 573e
00000300: 17e0 d1bd e0f4 11bd b6f9 5cbe 147c 4dbe
00000310: cbaa 66be 4901 8bbd 2ed6 96be 2110 44be
00000320: 39fb 163f 40d4 d73e 5ff9 a4be 9793 ecbe
00000330: 0bd2 eebe 7adc 41be a783 89be 7c89 943e
00000340: 8612 943e 0246 7e3e a93a 573e 6b26 f03d
00000350: 8ca9 4fbd e033 69be 7e46 4dbe b220 2fbe
00000360: f20e a6be 0105 e0bd d043 c73e a3c2 e93d
00000370: c6db 823e 9c16 d13e ff2c 963d 2303 c2be
00000380: b890 44bf 4e32 b2be c615 17bf 6b69 eabe
00000390: 92ee d3be c2f0 a0be e0df 0bbe a6d8 973e
000003a0: 2ab6 823e 0562 bd3e f4cc 5c3e d15e 21be
000003b0: dc55 85bc a870 82be fada 0abe 4d77 e53d
000003c0: 1434 393e 2777 943e 8e1a a43d ba34 d13d
000003d0: 49c4 dfbb 3be1 05bf 80fc 74be e6e3 14bf
000003e0: 6737 debe bad2 e9be c041 2cbf 106e 1fbf
000003f0: 88d6 f5be ae46 21bf 2069 0dbf 4de4 a3be
0.3232819 0.13081862 -0.29387307 -0.32546514 -0.27257133 -0.076110125 0.059704967 0.28027254
0.10393402 0.099930175 -0.18866818 -0.21447214 -0.37401587 -0.3121516 -0.23440655 0.009703369
0.27489427 0.36759397 0.12497554 0.1606466 0.2789801 0.3052208 0.019359374 0.13959454
-0.09851789 -0.27360186 0.25887358 0.1327984 0.2895334 0.36645478 0.26848632 0.26642236
-0.27962068 -0.30035105 -0.34855488 -0.35355982 -0.05174282 0.47874114 0.39147648 0.38946033
0.27727017 -0.10015903 -0.19815132 -0.4531499 -0.41430834 -0.31630778 0.23233952 0.4124905
0.2542122 0.33970132 0.51062673 0.56598663 0.43181568 0.3638319 0.40613478 -0.15375526
-0.15755346 -0.38696542 -0.37537438 -0.32665485 -0.10211438 -0.07251049 -0.24488036 -0.07233609
-0.059319075 -0.23132199 -0.19529243 -0.06648505 0.1927041 0.43257502 0.2057905 0.36074728
0.54974914 0.63591266 0.5840623 -0.091308184 -0.25574705 -0.41304845 -0.1683631 -0.25674245
-0.20569448 0.31519184 0.3049094 -0.06543772 0.12452875 -0.09821718 -0.1982563 -0.2785812
-0.1148375 -0.22197242 0.09833043 0.19087562 0.2705434 0.23185675 -0.038233917 -0.13838647
-0.05289043 -0.16398901 -0.38853806 -0.35074604 0.3014134 0.024370603 -0.37690514 -0.37106872
-0.4551445 -0.21579812 -0.321337 -0.28748876 -0.091291755 0.06961018 0.02421806 0.22539164
-0.022325413 0.26835248 0.21101783 -0.0947639 0.040398214 0.122166924 0.15863453 0.1784151
0.1732129 -0.023401529 -0.31319338 -0.25059175 -0.6587463 -0.35029316 -0.35813397 -0.40933982
-0.36201575 -0.42765805 -0.26641655 -0.107469626 -0.12949796 0.16996224 0.35487062 0.15379338
0.13234524 0.06868087 0.099930905 0.1782061 0.24923368 0.20957834 0.3073414 0.1385293
-0.08155822 -0.16698073 -0.044956267 -0.27142075 -0.460274 -0.59906876 0.1334922 0.25920856
0.4231041 0.5397513 0.4870505 0.14833263 0.4449963 0.14204171 0.14628866 -0.10266361
-0.19035827 -0.27094007 -0.4686841 -0.5007012 -0.38014287 -0.35230187 -0.43812585 -0.23954137
-0.39016804 -0.007688661 0.3321539 0.15710445 0.4933974 0.47103912 0.30717546 0.19406644
-0.020833466 -0.13770518 0.07903458 -0.26927936 -0.08870301 -0.081198886 0.1534249 0.09202434
0.15066257 0.14072591 0.0257799 0.034020353 -0.078971684 0.19416258 0.23910308 0.21064644
-0.1024782 -0.03563392 -0.21579632 -0.20066863 -0.2252609 -0.067873545 -0.2946028 -0.19146778
0.58977085 0.4215412 -0.32221505 -0.46206352 -0.46644625 -0.18931761 -0.26858255 0.29011142
0.28920382 0.24831393 0.21018471 0.11726078 -0.050698802 -0.22773695 -0.20046422 -0.17102316
-0.32433277 -0.109384544 0.38918924 0.11414077 0.255583 0.40837562 0.07332801 -0.37893018
-0.76783323 -0.34804004 -0.590176 -0.45783553 -0.41392952 -0.31433684 -0.1365962 0.29657477
0.25529605 0.36988845 0.21562558 -0.15758826 -0.016276293 -0.25476575 -0.13560095 0.112043954
0.18086272 0.28997156 0.080128774 0.10215135 -0.006828819 -0.522968 -0.23924446 -0.58160245
-0.43401644 -0.45668584 -0.67287827 -0.6227732 -0.48015237 -0.62998474 -0.55238533 -0.32010117

model.input_block.bn1.weight f4 [40]
00000000: 4c52 9f3f f231 ac3f c4e2 b63f f2ea 9c3f
00000010: 5cb7 a33f ff78 a43f 34c7 b63f 2f2a 933f
00000020: 1f10 b33f 5f81 b13f 1531 cd3f d5c7 d43f
00000030: 61fd 9f3f caf8 763f f722 973f b1d1 bc3f
00000040: 4681 a43f 4456 9f3f 5452 aa3f 845c a03f
00000050: c65c a53f b2af af3f 0129 ac3f 62ed 953f
00000060: 535c a23f 586b 9b3f 96b5 a83f 82c4 a43f
00000070: e793 a43f 2581 c03f ce0f a43f bbb8 b23f
00000080: 02ba 253c 1115 b03f da3a 933f 3641 9b3f
00000090: b37b aa3f ae06 9f3f f0c5 9b3f 5c41 b33f
1.244699 1.3452742 1.4287953 1.22592 1.2790332 1.2849425 1.4279542 1.1497248
1.3989295 1.3867606 1.6030604 1.6623484 1.24992 0.9647337 1.1807545 1.4751493
1.2851951 1.2448201 1.3306375 1.2528234 1.2918937 1.3725493 1.3450013 1.1713068
1.2684425 1.2142134 1.3180416 1.287247 1.2857636 1.5039412 1.2817323 1.3962625
0.0101151485 1.3756429 1.1502335 1.2129276 1.3319 1.2423913 1.2169781 1.4004321

model.input_block.bn1.bias f4 [40]
00000000: a94d 6fbe b4ca 34bd cc2d 4c3b ab8f 3ebd
00000010: 78c0 1f3d 1922 1e3e b2b6 7fbe 8400 a6bf
00000020: 6c9f 71bd a498 86bd 30f5 6d3d b1b5 793e
00000030: 90c5 993e 9eb2 06c0 d5a1 a73f fe14 eebd
00000040: 7f62 9f3f a0c8 22bf 3dba 19bd bfa8 bdbc
00000050: 157e 80bc f0a9 f13c 1ee7 d53c 1a82 e1bf
00000060: e8bb 13bd 32a0 123d bab3 0c3d 8793 8abc
00000070: c7c5 91bd c114 bc3e 9372 30bb 0fdc 13be
00000080: bea3 2a40 41fe b23e 780a c0bf a900 03be
00000090: 7b5c 4d3d 4658 573b 0a64 a13c 9730 94be
-0.23369469 -0.044138625 0.0031155227 -0.04652373 0.039001912 0.15442695 -0.24972036 -1.2968907
-0.058989927 -0.06572083 0.058095157 0.24385716 0.3003354 -2.104652 1.3096262 -0.11625098
1.2451934 -0.6358738 -0.037531126 -0.023151753 -0.01568512 0.029499978 0.026111182 -1.7617829
-0.036067873 0.035797305 0.034351088 -0.01691605 -0.07117801 0.36734584 -0.002692376 -0.14439414
2.666244 0.34959605 -1.5003195 -0.1279322 0.050137024 0.0032859012 0.019701023 -0.2894332

model.input_block.bn1.running_mean f4 [40]
00000000: 3f68 a6b5 bd22 3837 e4b8 a737 e165 73b7
00000010: 9418 6ab7 1ab9 a1b7 ab27 8b37 de53 36b6
00000020: dc6a 48b6 6edd c1b7 7484 03b8 a251 6ab7
00000030: 387d b4b6 8a2a 3037 c2c8 8f36 1ae6 1538
00000040: 7f66 8237 da64 7db7 0b3b 9a37 0fe1 1637
00000050: e9b1 c9b6 5176 b437 1eed a9b7 3de9 1237
00000060: 92ff aeb7 4e54 adb7 0bd6 bfb7 0cd7 24b7
00000070: 5226 a0b7 ba30 d237 3138 9c37 c6a1 e3b7
00000080: 19d6 9b34 a892 1bb7 5b70 18b7 175f 0d37
00000090: 0b47 a537 53df 79b7 dae5 9db7 a4a9 a935
-1.2398303e-06 1.0975343e-05 1.9994048e-05 -1.4507649e-05 -1.3953209e-05 -1.927889e-05 1.6588563e-05 -2.716893e-06
-2.9864523e-06 -2.3110504e-05 -3.135619e-05 -1.39664935e-05 -5.3789954e-06 1.0500322e-05 4.2851034e-06 3.5738667e-05
1.5544936e-05 -1.51034565e-05 1.8385725e-05 8.993097e-06 -6.0109783e-06 2.1512767e-05 -2.0256786e-05 8.756583e-06
-2.0861426e-05 -2.0662465e-05 -2.2868646e-05 -9.825231e-06 -1.909133e-05 2.505664e-05 1.8622815e-05 -2.713584e-05
2.9026776e-07 -9.272866e-06 -9.086066e-06 8.426395e-06 1.9702615e-05 -1.4893553e-05 -1.8822891e-05 1.2640853e-06

model.input_block.bn1.running_var f4 [40]
00000000: 959c 873c 17a1 073d ba69 623d 809b 7b3c
00000010: 601e b53c 6923 0f3d 842b 743d b12a ef3b
00000020: a7fc d43c 770a 273d 65b3 a63d f9ae 123d
00000030: d459 313c 19e6 813a c904 843c 3422 8b3d
00000040: de63 9b3c 86cd 753c a253 103d 72bd 8f3c
00000050: 66d6 993c 161b 513d 6187 f93c 27b9 383b
00000060: 7ada f93c 7a51 2f3c 6dda 9e3c 5ff2 823c
00000070: 4a17 eb3c d238 923d 06c6 733c 4947 3f3d
00000080: 5170 c335 30d6 fb3c fbc3 0a3c 4a0f 5f3c
00000090: 1427 0e3d b0af 673c 6a03 853c 4c95 343d
0.016554156 0.03311261 0.05527661 0.015356898 0.02210921 0.03494588 0.059611812 0.0072987904
0.02599938 0.040781464 0.081396855 0.0358114 0.010824639 0.0009910493 0.016115563 0.06793633
0.018968519 0.015002614 0.03523601 0.01754639 0.018778991 0.05105122 0.030460062 0.0028186531
0.030499686 0.010700578 0.019391263 0.015984712 0.028697629 0.07139744 0.014878755 0.046698842
1.456132e-06 0.030741781 0.008469577 0.013614485 0.034705237 0.014141008 0.01623698 0.044087693

model.input_block.spat_conv.weight f4 [40, 1, 24, 1]
00000000: 7b01 45be 332e 37be bfec 4abd c694 7bbd
00000010: a846 e9bd 1da0 c73d 1088 aebe 1aa5 90be
00000020: 0a8a 0fbc 6c24 513b 9dd1 f53b 0506 a03d
00000030: 1534 c1bd 494e f8be 29c2 11bf 1ef6 f23d
00000040: c440 9dbd 8f31 06be 0094 6dbe b2c9 8dbc
00000050: 58da 613e 8bb9 84be e338 dabe 440c 3a3d
00000060: 9b48 f43d 62da a93d 0a48 903d f2ac ab3d
00000070: 90a7 523d 2606 7d3d 8215 283d 724b 803e
00000080: ade8 b63d 4943 71bd 42c3 31bc 4216 2a3d
00000090: 2789 efbc 332a 20bf b1a2 35bf 11bc 7c3e
000000a0: 30b4 bc3d 19e0 453e d595 073d 2e9e e13d
000000b0: 9919 353e c3ac 1abd adb7 153e ea66 543e
000000c0: c237 b43c f571 ac3d 7ca0 86bd 9260 9cbd
000000d0: 39dd db3d f3b7 3f3e 4c59 253a 59d5 97bd
000000e0: 62aa 383e 7971 57be 0e01 9abe 53aa 8f3c
000000f0: cd5b a4bd 6a09 233f 0c55 483f 928d 2f3c
00000100: 00cc 30be a28b d6be 0f77 f3be b6da 7bbe
00000110: d239 c3bd 3fb8 7d3e d065 843e 9888 0ebd
00000120: e720 483b 7589 acbd e3ae 6b3e 6863 3dbe
00000130: 77e3 81bd 960c 913d ecc7 f33c 4c3d a93d
00000140: 22f3 253e b04c 79be 4223 febe fc24 4cbc
00000150: 5dfb 253e 4a3e bebd 8992 52bd be53 0ebd
00000160: f58b 323d 62ff 9abd 6942 1bbf a5bc 853e
00000170: 1ef8 84bd 19b3 683d 55b7 643d 4769 24be
00000180: b627 5f3e 3ccf 76bd 3f11 df3d a3eb 5d3e
00000190: 8ad4 ce3d c55f de3b b4ca 04be d59d 1abe
000001a0: 4fab 463d 83fc b6bc ced2 2ebf 3ea1 90be
000001b0: 5e28 253e 3c0f 05bd b3e7 5cbd 13e1 48bd
000001c0: 0bbe b93c 7969 523e b351 1abf 2ff4 78be
000001d0: 30b7 633e e37a 3cbd 25d8 4f3e 2dd1 98bd
000001e0: 8947 18be 3cd2 39be b654 f2bc 77ce 10be
000001f0: 3090 4abd ec8a 363e 7335 073e ee2a 063d
00000200: ecce 563d f107 c7bd ca4f dc3d 6331 45bd
00000210: 114b 04bd 6f0f 143e fd78 29bf 95a5 f5bd
00000220: 433f 1d3e 9027 af3d 2301 b43e bbf8 5bbd
00000230: 2814 81bd aba1 04be b999 4dbf 18ba 6fbb
00000240: 05f8 d23c e506 a9bd 26df b4bd 4f2d c4be
00000250: 1cb9 20be 1a7f 713d 17cb b23e bfa3 7fbe
00000260: f62a 90be 1aa0 093e 1781 b03c 4b27 04bf
00000270: fa0a 64bd 7f49 923e 7548 20bf 54ac c8bd
00000280: ed8c 41be dbd5 7a3d 0e35 a23e 477d 213e
00000290: 53ca 393d d128 9fbe 0043 2dbf 09d1 16be
000002a0: 31a4 5dbf a1f4 6dbf f7d3 82bf 4511 31bf
000002b0: 6d99 70bf 109b 6ebf 6df9 61bf 4ab2 60bf
000002c0: 8202 3bbf cbde 81bf 195d a1bf b1ac 87bf
000002d0: 81d3 4ebf 4790 79bf 8a8e 1abf d84d 66bf
000002e0: 1021 8abf 51cf 60bf 0985 91bf 092f 33bf
000002f0: 6a46 febe 8722 82bf 8538 35bf 7721 67bf
00000300: 02a9 ae3d d519 cb3d ed0b 0a3e 96a2 e53d
00000310: 5f20 1f3e 398e 773e dd7e 063e 955f 8c3e
00000320: 3b65 9c3d df7d 283d 64f5 243e 882d 933d
00000330: 6b1a ae3d 8a9f d4be 1e9a 68bf 6c17 183e
00000340: a738 1d3c 8afd 7a3d 07df a03d ae83 f03d
00000350: 3588 473d ab4c 09be 77a9 26bf b5a8 943e
00000360: ddca 693d 9bfd 0a3c 68d9 373d 8e83 1bbd
00000370: f070 0abe 1569 b3be 2a7f 63be 7a90 913d
00000380: d050 703d 6fd4 103e f038 313e f878 c43d
00000390: ac5d f3bd c883 efbe 04db 1e3f 6a1e 8c3e
000003a0: 5023 103d b88d 8fbd da6c 4f3e 4a16 b73d
000003b0: ffa1 22bd c45c 853d d6f6 3e3f a4ce 9bbd
000003c0: 1e6d 24be 85b0 023b d432 603c 6b07 a4bc
000003d0: 34ac 64be c820 03bf e5b2 bfbe 0abd 0dbe
000003e0: af4e 8b3c bfe4 113d c2c1 1c3f ceba 663d
000003f0: 7730 39be 9660 97be ad6c 453f 2d1f 6d3e
-0.19238846 -0.17888717 -0.049542185 -0.06142118 -0.1139043 0.09747336 -0.34088182 -0.28250962
-0.008760938 0.0031912578 0.0075017945 0.07813648 -0.09433762 -0.48497227 -0.5693689 0.118633494
-0.07678369 -0.13104843 -0.23200989 -0.01730809 0.22055948 -0.25922808 -0.42621526 0.045421854
0.11927911 0.08293606 0.0704499 0.08382596 0.05142933 0.06177344 0.041036136 0.2505756
0.08931098 -0.05890206 -0.010849776 0.041525133 -0.029240204 -0.6256439 -0.7095137 0.24681117
0.092140555 0.19323768 0.033101875 0.110164985 0.17685546 -0.037762415 0.14620848 0.20742384
0.021999244 0.08420173 -0.06573579 -0.07635607 0.10735554 0.18722515 0.0006307557 -0.0741374
0.18033746 -0.2103938 -0.3007893 0.017537272 -0.08025322 0.6368624 0.7825477 0.010714905
-0.1726532 -0.41903406 -0.47551772 -0.2459515 -0.09532513 0.24777316 0.25858927 -0.034798235
0.003053719 -0.08424655 0.23015933 -0.18494952 -0.063422136 0.07082479 0.029758416 0.082636446
0.16206029 -0.2434566 -0.49636275 -0.01245999 0.16209169 -0.092892244 -0.051409278 -0.03474783
0.043590505 -0.07568242 -0.6064821 0.26120487 -0.06492637 0.056811426 0.0558389 -0.16055785
0.21792492 -0.060256228 0.10891961 0.2167192 0.10099132 0.006786319 -0.1296795 -0.1509927
0.048503216 -0.022337204 -0.6829041 -0.28248018 0.1612868 -0.03248523 -0.053931903 -0.049042773
0.022673627 0.20548047 -0.60280913 -0.24311899 0.22237849 -0.04601563 0.20297296 -0.07461772
-0.14871038 -0.18146604 -0.029581409 -0.1414126 -0.049453914 0.17826432 0.13203983 0.032755785
0.05244343 -0.097183116 0.10757406 -0.048142802 -0.03229815 0.14459012 -0.6620024 -0.11994473
0.15356164 0.08552468 0.35157117 -0.053704005 -0.063026726 -0.12952296 -0.8031269 -0.0036579426
0.02575303 -0.08253268 -0.08831625 -0.38315818 -0.15695614 0.058959104 0.3492057 -0.24964808
-0.28157777 0.1343998 0.02154593 -0.51622456 -0.05567453 0.28571698 -0.6261056 -0.09798494
-0.18901415 0.061239105 0.31681103 0.15770446 0.045358967 -0.31085828 -0.6768036 -0.14728178
-0.8657866 -0.929514 -1.0220937 -0.69166976 -0.9398411 -0.93205357 -0.8827122 -0.8777205
-0.730507 -1.0146116 -1.2606536 -1.0599576 -0.8079148 -0.97485775 -0.6037375 -0.8996253
-1.079134 -0.8781634 -1.1368724 -0.69993645 -0.49663097 -1.0166787 -0.70789367 -0.9028544
0.085283294 0.099170364 0.13481112 0.112126514 0.15539692 0.24175347 0.13134332 0.27416673
0.07636496 0.041135665 0.16109234 0.07186419 0.085011326 -0.4152797 -0.90860164 0.14852685
0.0095960265 0.06127695 0.07855039 0.11743866 0.04871388 -0.13408153 -0.6510233 0.29034963
0.05707823 0.008483316 0.04488507 -0.037967257 -0.13519645 -0.3504111 -0.22216478 0.07107635
0.05867082 0.14143537 0.17306876 0.095933855 -0.11883101 -0.4678023 0.6205294 0.27366954
0.035189927 -0.070094526 0.20256367 0.08939798 -0.039705273 0.06511834 0.7459539 -0.07607773
-0.1605725 0.001994164 0.013683993 -0.020023068 -0.22331315 -0.51221895 -0.37441173 -0.13841644
0.017005293 0.03561854 0.6123315 0.056330495 -0.18084894 -0.29565877 0.7711895 0.23156424

model.input_block.bn2.weight f4 [40]
00000000: 8cda 9e3f 3c1e ac3f 2cc5 b63f 5bcc 9c3f
00000010: 3ead a33f 9342 a43f 1d90 b63f 0f41 9a3f
00000020: 5b3b b33f 9e82 b13f 05fa cc3f 2e8e d43f
00000030: dbab 9f3f 4708 8f3f ed3e 9f3f 48b6 bc3f
00000040: 0917 a83f 837d 9f3f b27f aa3f e245 a03f
00000050: 3e45 a53f c7b3 af3f e51c ac3f ebdb ae3f
00000060: 2046 a23f 1f5e 9b3f 5db9 a83f bbbf a43f
00000070: 3dab a43f 62b6 bf3f d11d a43f c48a b23f
00000080: 1e95 e83f a818 b03f 28e6 9b3f f2ca 9a3f
00000090: 4c81 aa3f 1210 9f3f 13d3 9b3f eabe b23f
1.2410445 1.3446727 1.4278922 1.2249864 1.2787244 1.2832817 1.426273 1.2051104
1.4002489 1.3867986 1.60138 1.660589 1.2474321 1.1174401 1.2441078 1.4743128
1.313203 1.2460178 1.332022 1.2521327 1.2911756 1.3726739 1.3446318 1.3660864
1.267765 1.2138098 1.3181568 1.2871011 1.2864758 1.4977534 1.2821599 1.3948598
1.8170507 1.3757524 1.2179613 1.2093184 1.3320708 1.2426779 1.217379 1.3964512

model.input_block.bn2.bias f4 [40]
00000000: 3f0d 4f3e da3c f4bc b46c 263c 9ed3 503d
00000010: 816a 36bd ca2b 3fbe 23e6 633e 59d0 6a3f
00000020: e96c 14be b766 8bbd 8970 bf3d b355 9f3e
00000030: a674 893e 8c36 e03f 5e1b 7f3f 439d 0c3e
00000040: 4e44 713f a1c7 043f 4bcb 193d d0e2 f23c
00000050: c4ee b1bc 9005 1cbd c0b4 d33d dbb5 d23f
00000060: c966 e3bd e060 24bd 9adc 143d e9ba 6bbd
00000070: 0ba0 8dbd f1c3 9c3e 46e2 14bd 2c5f 4a3e
00000080: 4433 8cbf c46b 963e ba3e 853f 9cba 16be
00000090: 6ec1 e63d 1d03 283d 8ce1 92bc cbde 6f3e
0.20219897 -0.029814173 0.010157753 0.050983064 -0.044535164 -0.18669048 0.22255759 0.91724163
-0.14494671 -0.06806701 0.09347636 0.3112007 0.26846808 1.7516646 0.99651134 0.13731866
0.9424485 0.5186711 0.03754739 0.029649168 -0.021720298 -0.038091242 0.1033721 1.6461748
-0.11103589 -0.04013145 0.036343195 -0.0575513 -0.069152914 0.3061824 -0.036348604 0.19762868
-1.0953145 0.29379094 1.0409768 -0.14719623 0.112673625 0.041018594 -0.017929815 0.23424833

model.input_block.bn2.running_mean f4 [40]
00000000: f266 303f e80e e1bc 9371 653a 26c1 403d
00000010: 6e43 12bd 7422 51be deae 193f 6826 de41
00000020: 7d23 99bc 43bb 9dbd 6b4b 5d3d 171f 203f
00000030: 8655 7b3f 6469 8c42 2768 0042 ed4e c43d
00000040: e1ba bc41 c277 dd40 253a c6bc 6e98 293c
00000050: 3259 39bc 5095 e5bc 949d d63b 470a 7142
00000060: 220f 443b d442 28bc 9701 2abc 9704 d5b9
00000070: 69bb 2ebd a5c4 c63f 8caa d7b9 9dfc b53d
00000080: e717 02c3 c54e 8b3f ded8 1042 756a 98be
00000090: 2efd 643d 3c04 153a 17c3 0dbc c302 3c3f
0.6890708 -0.027472928 0.00087525806 0.0470592 -0.035708837 -0.20423299 0.6003245 27.768753
-0.01869368 -0.07701733 0.054027002 0.6254744 0.98177373 70.20584 32.10171 0.095853664
23.59125 6.920869 -0.024197647 0.0103512835 -0.01131277 -0.0280253 0.0065495465 60.260036
0.0029916246 -0.010269839 -0.010376356 -0.00040629946 -0.042659197 1.5528761 -0.00041135063 0.08886073
-130.09337 1.0883414 36.211784 -0.2976872 0.055905513 0.000568453 -0.00865247 0.73441714

model.input_block.bn2.running_var f4 [40]
00000000: 8036 f33f c638 0a40 cccc 8840 fc6a b63f
00000010: 329b 0d40 5793 2b40 4345 8b40 2c1a e541
00000020: 4838 5340 c048 4940 c99f dd40 b65c 0141
00000030: 7f12 0d40 3924 1c42 d6bd eb41 5a99 8b40
00000040: e07e f241 2d89 e140 80db 2640 6954 f63f
00000050: 5d04 1840 3251 4a40 c3be 4040 3b67 a342
00000060: 66ae e33f f86d 933f bf58 3e40 6ea8 fc3f
00000070: 5094 1040 4b25 a840 6670 f83f 7526 5f40
00000080: 0503 8e3a 44f9 8240 dca8 0b42 88d2 ed3f
00000090: c625 1840 49ed da3f 9e8e b53f 2b09 6e40
1.9001007 2.1597152 4.2749996 1.4251399 2.2125974 2.680868 4.352205 28.63778
3.3003101 3.1450653 6.925755 8.0851345 2.204254 39.035374 29.467693 4.3624697
30.31195 7.047995 2.6071472 1.924451 2.3752663 3.1612058 3.0116432 81.70162
1.7787597 1.1517935 2.9741666 1.9738901 2.2590523 5.2545524 1.9409301 3.4867222
0.001083464 4.092928 34.9149 1.8579874 2.3773055 1.7103664 1.4184148 3.7193096

model.channel_expansion.conv.weight f4 [16, 40, 1, 1]
00000000: 2a00 833e 7f40 ff3d a025 69bd 132d 2f3e
00000010: cdb6 c13d aa33 5b3e b8d6 56be 8a5d 353d
00000020: 8078 193e ac23 c5be 1057 48bf a5a8 163e
00000030: 5db9 083e abf6 a63d abc6 053e ad84 c5be
00000040: 2d00 673e f99e 693e 8778 513e a695 f4bc
00000050: bffb 7a3d 4d17 10bf 8a4c 653e b8f4 1d3e
00000060: d415 0cbc 4111 173b dbe7 1a3e 2cac 1dbe
00000070: de8e 10bd 9e26 c93e c839 cebd 0562 513c
00000080: e1a6 fabd d730 b23d 9c78 9e3d 50ca 8e3d
00000090: 4adf 363e de42 113e 277c 4a3d af28 9f3e
000000a0: 86b5 21bd 5fcc 4fbe 4480 ca3d 968f 4c3e
000000b0: 0a25 6d3e e929 b0bd 25ff 7abd 3696 8c3d
000000c0: 87ca 4abe d1ef 7ebe 0a2e 50bf 09c4 05bd
000000d0: ed14 bebd db13 fc39 d13c 7b3d a49f 8cbe
000000e0: 9f43 febb 4364 d73d 51cc 81bd 0e0f 0e3e
000000f0: b453 78bd f40f c1be 35a5 fd3d 736d e3bd
00000100: 19ff d23e d276 9f3e d443 943e e2a1 11bd
00000110: 4c03 2c3e f402 323e 7755 553e 6c1b 7e3e
00000120: d2a7 39bd 4c0a b83b cde5 69bd e5ed a03e
00000130: 50ee 03be 78aa 33be 088b 5d3e 6ed9 00be
00000140: eef9 e33c 82d7 763e 87c6 9f3e 10a7 c43e
00000150: 0573 f93e 2c32 bcbe 0f75 253f 3c62 5a3e
00000160: 7608 4bbe cd0b 463e ad05 693d 7af1 e9bd
00000170: d9c3 5e3e 1082 bf3e d4fa 633e 371b 8d3e
00000180: a351 db3e 5877 913e 9767 03be 10d5 cd3e
00000190: adfe 4f3e 3116 b23e 7f42 4abe 6c7c c73e
000001a0: fd5a 99be 40e9 0d3e e0e6 1c3e 4ccb 563e
000001b0: c935 19be d779 123e 9b76 853e 0767 2e3f
000001c0: 23ef 38bf f57c 593f 0344 e13e c92a 893d
000001d0: ea68 2a3e 3490 bb3d da34 e53e 5b61 94be
000001e0: fc60 40bd 2268 31be 6677 73be 9c15 663e
000001f0: 5ff1 5a3d b165 9fbd 9f44 7bbd 2f5d ce3d
00000200: b045 7cbe c546 46be b516 4fbe 1e3f 3abe
00000210: c8df 113e e1bb 07be ba2c dcbc 7b32 aabd
00000220: e42f 4f3d adb3 743d 6a6b 33be d8a8 683e
00000230: 0d1f 85be 33a7 c6bd 0a3c acbd 373f 09bd
00000240: 8605 853e 9587 863e aa96 023e 9eac 4fba
00000250: 2367 8a3e 291b f43c 0308 1a3e f88d bb3c
00000260: 8a5d 953b 9797 303e 66ba 403d d6da 0a3e
00000270: b076 1dbe 9038 0abe daa9 2c3e 9480 44bc
00000280: 9172 f83d 226e b73e cd1b 54bf 830c 443d
00000290: 1ad8 483d 6c97 4d3e ee2f 7f3e 18bd 713e
000002a0: 82c8 eb3e f2c5 1d3d c612 053c 1204 b03d
000002b0: 8d56 9cbc 3c02 2a3e 9716 eb3c 7e6a 133e
000002c0: eaed 513e 4784 69bc 46b8 a23e 02f0 b33c
000002d0: 84f1 263b 04c6 a83e 2907 6b3d a96c 843c
000002e0: f38e 49be 6d9c 35bd 8e36 da3d ac02 babd
000002f0: 6144 3abe c30f 413d fda4 c43d 5891 403e
00000300: 4303 e2bd e2ca b63d f7d2 eb3d 7899 1cbe
00000310: 4a12 8f3e 5678 c5bb 41e2 883d 3ecc 1e3e
00000320: ed1e db3e ea5c 9f3e 7079 2b3d ae39 ea3e
00000330: 1436 6e3f 1796 64bf 6c5e 303f e2ee 143f
00000340: 799b 06bd 26f3 113f 789c b23e 1e58 06bf
00000350: 7634 dc3e 72f4 373f cdab e63e 3a53 143f
00000360: 7edc 363f 78fa e33e 29af efbe d269 a83e
00000370: e021 7c3e 7b8e fc3e 3896 82bd 1526 0a3f
00000380: 2699 58be ae02 473e 68bb f83e 0bb7 a23e
00000390: e9db 063e d175 bbbd 8c9c d63e 935d 693f
000003a0: 36b3 44bf 06d5 6b3f bec5 123f e795 fe3d
000003b0: 6539 973e 1301 a33e e505 203f 9871 adbd
000003c0: c640 de3d 8862 09be 441e c93d 6334 363e
000003d0: 885c dabe 1fa7 bd3d e37e a0bd e833 963d
000003e0: 936a 82be 5df2 87bd 387b 293e 8983 3e3d
000003f0: da32 1f3e 60bc 3fbd ef9d 573e eacf 3c3e
0.25586063 0.124634735 -0.056920648 0.17107038 0.094586946 0.21406427 -0.20980346 0.04427866
0.14987373 -0.38503778 -0.78257847 0.1471277 0.1335196 0.08152517 0.13064067 -0.38577786
0.22558661 0.2281455 0.20456134 -0.029856514 0.06127524 -0.56285554 0.22392479 0.15425384
-0.008550126 0.0023051056 0.15127508 -0.1539771 -0.0352925 0.39287275 -0.10069615 0.012779717
-0.12238861 0.08700722 0.07737848 0.06972182 0.17858616 0.14185664 0.049434807 0.31085727
-0.039479755 -0.20292805 0.09887746 0.19976649 0.2315866 -0.08601744 -0.06127848 0.06864588
-0.1980382 -0.2489617 -0.8132025 -0.032657657 -0.09281335 0.0004807998 0.061337296 -0.27465546
-0.007759526 0.1051717 -0.063377984 0.1387293 -0.0606267 -0.37707484 0.12385026 -0.1110486
0.4121025 0.3114534 0.28958 -0.035554774 0.16798133 0.17383939 0.20833384 0.24815148
-0.04532606 0.005616462 -0.05710392 0.314315 -0.12883878 -0.17545497 0.21635067 -0.12582943
0.027829137 0.24105647 0.31206152 0.3840871 0.48720565 -0.36757028 0.6463174 0.21326536
-0.19827446 0.19340439 0.05689018 -0.11423011 0.21754397 0.37403917 0.22263652 0.27559826
0.4283572 0.28411365 -0.12832485 0.40201616 0.20311995 0.34782556 -0.19751929 0.38962114
-0.2995223 0.13858509 0.15322447 0.20975989 -0.14961924 0.1430429 0.2606705 0.6812596
-0.72239894 0.84956294 0.439972 0.06697614 0.16641584 0.09158364 0.44766885 -0.28980526
-0.04696749 -0.1732488 -0.23776016 0.22469181 0.053452846 -0.07783068 -0.06134474 0.10076367
-0.24635959 -0.19362934 -0.20223506 -0.1818814 0.14245522 -0.13255264 -0.026876796 -0.0831041
0.05058278 0.059741665 -0.17521444 0.22720659 -0.26000252 -0.096998595 -0.08409889 -0.033507552
0.25980777 0.26275316 0.12752786 -0.00079221453 0.27031812 0.029798107 0.15042119 0.022894844
0.00455827 0.17245327 0.047052763 0.13560042 -0.15377307 -0.1349814 0.16861668 -0.011993546
0.12131227 0.35826212 -0.8285492 0.047863495 0.049034216 0.20077294 0.24920627 0.2360729
0.46051413 0.038518853 0.008122152 0.08594526 -0.01908424 0.16602415 0.028697295 0.14396092
0.20500913 -0.014252729 0.31781214 0.02196503 0.0025473544 0.32963574 0.057379875 0.016165094
-0.19683437 -0.044338632 0.10654937 -0.09082541 -0.18190147 0.047134172 0.096017815 0.18805444
-0.110357784 0.089254156 0.11514848 -0.15292919 0.2794364 -0.006026308 0.066837795 0.155076
0.42797032 0.31125575 0.04186386 0.4574713 0.93051267 -0.8929152 0.68894076 0.58177006
-0.032863114 0.5701164 0.34885 -0.52478206 0.43008775 0.7185737 0.4505295 0.57939494
0.71430194 0.4452703 -0.46813324 0.32893234 0.24622297 0.49327454 -0.06376308 0.5396436
-0.21152171 0.19434616 0.4858048 0.31780276 0.13169827 -0.09153331 0.4191631 0.9115841
-0.76835954 0.9212192 0.5733298 0.12430935 0.29535976 0.31836757 0.62508994 -0.08468932
0.10852198 -0.13416493 0.09820226 0.17793421 -0.4264872 0.092603914 -0.07836702 0.07334119
-0.25471935 -0.06638024 0.1655091 0.04651216 0.15546742 -0.046810508 0.2105634 0.18438688

model.channel_expansion.bn.weight f4 [16]
00000000: 68f2 a43f 0df3 a53f 46eb e83f 06bc 983f
00000010: 1d14 9f3f 8f45 c03f 4b99 8a3f 9a74 923f
00000020: df1e 793d ce7a a13f cdc8 963f 076a c63f
00000030: b913 bf3f 0022 993f c4e6 a13f 7815 963f
1.2886477 1.2964798 1.81968 1.193238 1.2428013 1.5021228 1.0828031 1.1441834
0.060820457 1.2615602 1.178003 1.5501107 1.4927894 1.1963501 1.2648549 1.1725302

model.channel_expansion.bn.bias f4 [16]
00000000: bcee 353e 5a8b 35bd 71b0 f23e a962 1e39
00000010: f73a 1b3e 639f 503f 77ea d23d 59fe a23c
00000020: 9b93 723f ce2b c53e 5b4f 493e 1a6b 833f
00000030: d190 053f ea96 273e d45a 053e 86ad 2dbd
0.17766851 -0.04432235 0.4740024 0.00015104808 0.15159212 0.81493205 0.10298627 0.019896673
0.9475648 0.38509983 0.19659178 1.026706 0.521741 0.16366163 0.1302293 -0.042401813

model.channel_expansion.bn.running_mean f4 [16]
00000000: 7f26 a63f c649 6bbe 4de1 9a40 55d4 73be
00000010: a970 cd3f f8c0 f340 ca54 6d3f 3459 1a3f
00000020: ef16 2041 4e59 3e40 41f5 0d40 3f97 ce40
00000030: 1e37 9140 7b27 1240 2ad2 b73f 52b6 66be
1.2980498 -0.22977361 4.8400025 -0.23811467 1.6050006 7.6173058 0.927075 0.60292363
10.005599 2.9742007 2.218094 6.4559627 4.537978 2.2836597 1.4361012 -0.22530487

model.channel_expansion.bn.running_var f4 [16]
00000000: 317b 1641 f88b d740 525f 6741 c30e 1740
00000010: 40e3 5540 ffb9 1542 fc0d 953f 2b7a ac3f
00000020: 35f2 c241 b660 1941 6535 1b40 f823 f741
00000030: 8bb4 a141 f9d3 4b40 407e 3e40 4153 ea3f
9.405076 6.735836 14.460772 2.360276 3.3419952 37.431637 1.1644893 1.3474783
24.368265 9.586111 2.425134 30.892563 20.213156 3.1848128 2.9764557 1.8306657

model.fe.conv1.weight f4 [16, 1, 1, 15]
00000000: 4bf8 103e 53ea a9be a847 d4be 39f0 f3be
00000010: 17d8 98bd dbbf f0bd f49a 5cbe 67e9 f0be
00000020: bf32 f4bd 15fd 9abe 873a e2be 826b 61be
00000030: 4fd6 adbe b8ec 90bd e118 08bf 7730 f2be
00000040: a903 acbe 32f3 b2bd e93b f93e 16ec e93c
00000050: b6c1 b7be 9e87 f73d c03e 003f fa3a 143d
00000060: c183 6fbe a90b 6dbe 35fa e73e a698 61be
00000070: ba94 8ebe e3cd 61bd 38d0 583e f662 ecbd
00000080: 969e 11bf 2a47 7ebd 815f 883e 97c0 7c3e
00000090: 2784 01bf 826b e13c a2a8 843e fbe4 b33d
000000a0: 2582 ccbe 1fa9 abbe 40fe 103e 492c 443e
000000b0: 2dd6 f5bd 37d8 053f 87e8 b03e 0b32 873e
000000c0: 612a a43e 2879 8a3e f806 9b3e a2f3 753e
000000d0: bc9a aa3e 8b65 73bb 69ee 883e f313 f43d
000000e0: 01cb 283d 10be f73d 4733 d13e c4d6 d83e
000000f0: 213f 4a3c 240c d53e 5936 d93e 2e72 163e
00000100: 779a c23d 9a30 c13e 0012 943e 46a5 a63d
00000110: 2e6c bf3b d15f 263e caad 9f3e 390d 6d3e
00000120: 293f 2a3e d02e ff3d b77f 98bc 520c 253e
00000130: 0d25 a43d 420b e7be 1f61 f1be e38e 663e
00000140: 37c5 87be 0d3d 2cbf f1a8 12bf 94c7 613e
00000150: eed3 adbd 69e5 00bf c533 54bf 912f 1bbe
00000160: ee96 a43e 989a e7be f1b3 b53e 133f 163e
00000170: e81c c33c e5b7 253e 3353 5d3e 6e8d c33d
00000180: 09b3 8c3e 882b 2fbd 616b 603e cee1 6d3e
00000190: a79c 473e 5c6e b03d 4e3a 433e 6e33 d1bc
000001a0: cfed 4ebd 5655 cdbe efcd dbbe 57c4 e8bd
000001b0: f634 03bc 0742 c9bd 45c8 90be 5cb3 99be
000001c0: a6dc 94be 665d 3dbe 0802 b4be ed94 93be
000001d0: 7309 2bbe 2694 c8be 732f c4be 00e2 97be
000001e0: 047e ffbe 5885 6cbe 4084 1dbf e441 85be
000001f0: e7c7 a9be c690 d8be 4fe8 26bf ee0b 49bf
00000200: 5fc9 1abf d199 f6bd f7b2 11bf c05b 64bf
00000210: 20b3 78be 2c32 b4be 7f7e 23bf 79a7 b13e
00000220: c048 e73d 0e2b 61be afac b23e 1e5f 163f
00000230: b8ab b13e b9ee 66be b927 b43c c783 473e
00000240: c77b c53e 501b 34bd a88e 5d3c a5a0 b43e
00000250: cdb4 f63e 4fe3 1c3e 9057 10be 14da 53be
00000260: 0148 5ebe 1ede 32be 8481 99be 5028 fc3d
00000270: 8ac6 3ebe 2698 0a3d 9256 96be acb7 f9bd
00000280: 93eb 753b 5602 84be 2496 b0bc b815 aebe
00000290: b738 eebd 854b 7fbf 3ef0 4abf beb1 da3e
000002a0: 8e2f d83d 8691 43bf 0869 83bf e9c5 65bc
000002b0: 9968 0a3e dad5 fabe 9d5a 57bf 684a 13be
000002c0: 7a1b 143e e157 11bf 966e 35bf 9dcc 6bbd
000002d0: 7e5d 3ebf 6260 97be 6a83 2cbd c6a0 d9bc
000002e0: 3030 f0be b347 f2be 9223 81bd 9dc2 d13d
000002f0: 7de3 19bf dd39 03bf 667f a03d 7977 f43d
00000300: 21ef 13bf 2754 56bf bf4b a2be 77c3 5cbd
00000310: f502 d7be dc13 bbbd 35a5 24bd 7f70 8ebe
00000320: 91f0 87be a64e b5be 5d51 41be d8a1 6dbe
00000330: 274c e9bd 23c2 cdbc 6f97 d5bd b744 9cbe
00000340: 710f 48be d41d e1bd 2aa3 9b3e 44ff 963e
00000350: 816b ca3d 91ed d53e 0e03 3a3e cc6a 043e
00000360: dfdd adbd 68f4 c03c dc48 603e 145d b83d
00000370: 76cd b9bc 2b35 9a3e ef99 563e a06e 923e
00000380: fa56 b33e 369e fbbe 593a 05bf 1fbd 96be
00000390: f1d0 f7bd 0d9f a7be 1eb5 95be 47b4 2ebe
000003a0: 21f5 223c 3936 1d3d 0acd c4bc af2e f9bd
000003b0: 412d dcbd e83d fabd f8f7 93be 1220 8fbe
0.14157216 -0.33186588 -0.4146092 -0.47644213 -0.07463091 -0.117553435 -0.21543485 -0.47053072
-0.119237415 -0.3027121 -0.44185278 -0.22013667 -0.33952567 -0.070764005 -0.5316296 -0.473026
-0.33596542 -0.08737792 0.4867852 0.028554957 -0.35889977 0.12086414 0.5009575 0.036189057
-0.23390104 -0.23148979 0.4530808 -0.22030887 -0.27847844 -0.05512799 0.21173179 -0.11542313
-0.5688261 -0.062079586 0.26635364 0.24682842 -0.50592273 0.027517084 0.25909907 0.08783909
-0.39943042 -0.33527467 0.14159489 0.19157518 -0.120037414 0.5228304 0.34552404 0.26405367
0.32063583 0.2704556 0.30278754 0.2401872 0.33321178 -0.0037139382 0.26744393 0.119178675
0.041209225 0.120967984 0.40859434 0.42351353 0.012344153 0.41610825 0.42424276 0.14691994
0.09502118 0.37732393 0.28919983 0.08136992 0.0058417534 0.16247489 0.31187278 0.23149575
0.16625656 0.12460101 -0.018615587 0.16117981 0.080148794 -0.45125777 -0.4714441 0.22515444
-0.2651765 -0.67280656 -0.57289034 0.2204879 -0.08487688 -0.5035005 -0.82891494 -0.15154864
0.321464 -0.45235133 0.35488847 0.14672498 0.023817495 0.16183431 0.21613769 0.0954846
0.27480343 -0.042766124 0.21915962 0.23230669 0.19493352 0.086147994 0.1906521 -0.025537219
-0.05051976 -0.4010417 -0.42930552 -0.11365574 -0.008008232 -0.09827047 -0.28277794 -0.30019653
-0.2907459 -0.1849266 -0.351578 -0.2882456 -0.16702823 -0.39175528 -0.3831745 -0.29664612
-0.4990083 -0.23097742 -0.6152992 -0.26026833 -0.33160326 -0.42297953 -0.65198225 -0.7853383
-0.6046352 -0.12041057 -0.56913704 -0.892025 -0.24287081 -0.35194528 -0.6386489 0.34698084
0.11293173 -0.2198908 0.34897372 0.5873889 0.34701324 -0.22552003 0.021991597 0.19483863
0.38570997 -0.04397136 0.013522781 0.35278812 0.48184815 0.15321086 -0.14095902 -0.20688659
-0.21707155 -0.17467543 -0.29981625 0.123123765 -0.18630424 0.033836506 -0.29362923 -0.12193236
0.0037524446 -0.25783032 -0.021555968 -0.34000945 -0.11631911 -0.9972461 -0.7927283 0.42713732
0.10555945 -0.76393926 -1.0266428 -0.014024236 0.13516463 -0.4899128 -0.8412264 -0.14383852
0.14463606 -0.5677472 -0.70871866 -0.05756818 -0.7436141 -0.29565722 -0.042117514 -0.02656592
-0.46911764 -0.47320327 -0.063056126 0.10242198 -0.60112745 -0.5126017 0.07836799 0.1193685
-0.57786757 -0.83722156 -0.31698415 -0.053897347 -0.41994444 -0.09134647 -0.040196616 -0.27820203
-0.26550725 -0.35411566 -0.18878694 -0.2320627 -0.11391478 -0.025116986 -0.10429274 -0.30521175
-0.1953714 -0.109920174 0.30397922 0.29491627 0.09883786 0.4178281 0.18165228 0.12931365
-0.08489584 0.023554042 0.21902794 0.09002128 -0.02268098 0.3011869 0.20957159 0.28600025
0.35027295 -0.49144143 -0.52042156 -0.29441163 -0.12100399 -0.32738534 -0.29239744 -0.17060958
0.009946139 0.03838179 -0.024023551 -0.12167107 -0.10750819 -0.12218839 -0.28900123 -0.27954155

model.fe.conv2.weight f4 [16, 16, 1, 1]
00000000: 391a 823e 873f 82be 7cc6 5ebe 8d0b b9be
00000010: 97c1 90bd 8011 77be a5d6 ccbe e4e7 e43e
00000020: 6f23 7a3e b87e cfbe b4b6 06be a798 2b3f
00000030: 717d 76be 0acc 6b3e 4f0c aebe decc e73e
00000040: 8cc7 c93e 7935 edbe a06d f63e 2801 973e
00000050: 2ddc 47be 768c f63e 7d08 b5bd 15f8 17be
00000060: 5e40 5d3e e509 cfbe e9ab 983e 1a16 1a3e
00000070: 4bee 633e 5637 85be 60c8 41bc 07ad acbe
00000080: 5e92 6ebe 915a 093f 0c6e af3e 0a4f 22bf
00000090: 658c 173e 5a73 0e3f b43e 0cbe 42f7 3d3d
000000a0: df53 343e d960 9c3d 88b2 84bd 0eaf c3bc
000000b0: 0a43 cf3e 27f4 cf3e 12df c8be e3dd 183f
000000c0: 9eaf e83e 0983 e1be 2a4d d83e 7079 833e
000000d0: 5bbf 7dbe a5d9 f23e c1cf 0e3d 4fd1 87bd
000000e0: ab43 003e 14c6 a8be 4b6b a63e fe5d c53e
000000f0: 4cf7 0b3f d296 49bd 1694 603e 5144 7abe
00000100: dffb 3e3e 21bf debd ab2b 3bbd 0b72 03bf
00000110: 54cf 363d 5280 60be 540b 2dbe ad3a c53c
00000120: 7d8c b33e d01d b6be adcf 50bd afcd 173f
00000130: acc5 99be a8b3 c43e a638 06bf bf79 bd3e
00000140: 008a c03d 5395 8d3e 40de 1f3f 03a5 13bf
00000150: fcf8 cf3d d5fe 513e 7c5e ccbe 3424 243f
00000160: 0b80 cb3e 4043 28bb 7a18 11be 0f75 12be
00000170: be6c 9a3e 3926 753e 042a edbe b820 c03e
00000180: e641 f23e 7352 07be 292b 093f 834a 673e
00000190: 3c35 cbbe 4ade 1d3f fd31 8c3d 4f2d 37be
000001a0: 5102 b23c 2a06 8ebe ee66 cb3e 0760 be3e
000001b0: c1ab 7b3e 1b0b 60bd 3a3f 923d 1e68 86be
000001c0: bf00 e23e 224d 0ebf c8b3 323f fe98 8b3e
000001d0: 66ad 8abe 15b7 953e 7afb 313c aba2 a5be
000001e0: 2d42 aa3e 0466 08bf 6c33 3e3e 373f 513e
000001f0: 4256 003f 2c6b d63c 17d5 8f3e da09 7ebe
00000200: 6fd4 b63e fc52 88be 5614 0f3f 18e7 703e
00000210: d751 e4be 13e0 c43e 9e34 86bd 5876 8cbe
00000220: 99e2 813e e451 55be acb2 293e a531 d13e
00000230: 86e5 f93e e808 93ba 8683 ba3d 8e22 debe
00000240: db99 76be 46d6 593f 509b c63e e3aa 1ebf
00000250: b4df 703e dc7d 673f 10ed dcbd 1640 913e
00000260: 0735 913e e446 8dbd cff9 d3bd 0d59 62be
00000270: b597 1e3f e5dd 403e 3521 f0be 1c09 b83e
00000280: a5a6 5a3d 62a2 61be d09d 9cbd 2c63 02be
00000290: 625d 223e 7ffa 60be 022d 7bbe 4bd0 af3e
000002a0: 480b dd3e a367 66be da43 fdbc c65a c73e
000002b0: d6bf 21be bb14 b53e 25f5 01bf 0e48 073f
000002c0: 0283 ff3e 1f31 cabe 0ee5 f63e 24e2 973e
000002d0: ef68 dcbd e36a ed3e c612 993d ed10 5fbe
000002e0: f5f6 4f3e d161 a7be 8b87 983e 9fcf 723e
000002f0: 840b a83e 9e62 0ebe 1cc2 2f3e 170c 6abe
00000300: 50ff af3e f49b a0be 99b0 a93e 9eb1 1b3e
00000310: 7200 b0be 1cf2 673e 243d 493d 9a0b 5abe
00000320: e1df ec3d 4bf9 82be f665 593e 0a3d 1a3e
00000330: b0e5 933e 0204 44bd ed52 343e 3574 89bd
00000340: 3427 0e3e 8ad6 c4be e342 cc3e 30bf 373e
00000350: a378 63be cbe3 c43e 0e89 393e 147a f1bd
00000360: 3a18 7b3e 963a 59be 8527 5a3d 1875 ca3e
00000370: 60f8 ef3e 8861 53be 946d fb3d 398a a2be
00000380: bfc8 40be d971 533f 439d ea3e d885 fcbe
00000390: a5b0 363e f681 493f 49de dbbd 4c40 c23e
000003a0: 7018 da3e b39e 313e a110 8fbe 9a4d f9bd
000003b0: 55e8 f83e 15e5 e23d 88cd 89be 8e90 d53e
000003c0: b3f4 763c 4fa9 5b3f 0208 e23e 18ce 50be
000003d0: dca3 163e 9cea 3c3f bb32 07be f1a6 663e
000003e0: b4a4 b73d 923b 753e ff4f 40be b066 833d
000003f0: d4f5 0d3f 03ba 873e cf24 13bf cfdf 2d3f
0.2541063 -0.25439093 -0.21755403 -0.36141625 -0.07068174 -0.2412777 -0.4000751 0.44708169
0.2442758 -0.40526366 -0.13155633 0.67029804 -0.2407129 0.23027053 -0.33993766 0.4527349
0.39410055 -0.4632986 0.48130512 0.2949307 -0.19517584 0.48154038 -0.0883951 -0.1484073
0.21606585 -0.40437236 0.29818657 0.15047494 0.2225887 -0.2601878 -0.011827558 -0.3372576
-0.23298022 0.5365382 0.34263647 -0.63401854 0.1479965 0.5564476 -0.13695794 0.04637838
0.1761012 0.0763566 -0.06479365 -0.023887184 0.40480834 0.4061596 -0.3923269 0.5971357
0.45446485 -0.44045284 0.42246372 0.25678587 -0.24780028 0.47431675 0.0348661 -0.06631719
0.12525813 -0.32963622 0.32503733 0.38548273 0.5467422 -0.0492161 0.2193149 -0.24440123
0.18650769 -0.10876299 -0.045695942 -0.5134589 0.044631317 -0.2192395 -0.16898853 0.02407583
0.35068122 -0.3556962 -0.050979305 0.59298223 -0.30033624 0.38418317 -0.5243019 0.37006947
0.094013214 0.27652988 0.624485 -0.5767366 0.10154912 0.20507367 -0.39915836 0.6411774
0.39746127 -0.002567485 -0.14169493 -0.14302467 0.3016109 0.23940362 -0.46321118 0.37524962
0.47315902 -0.13215046 0.5358148 0.22587018 -0.39689052 0.6166731 0.06845472 -0.17888378
0.02172962 -0.27739078 0.39726967 0.37182638 0.24577238 -0.05469809 0.07140966 -0.2625131
0.44141194 -0.55586445 0.69805574 0.2726516 -0.27085418 0.29241243 0.010863179 -0.32350668
0.33253613 -0.53280663 0.18574303 0.20434271 0.5013162 0.02617415 0.28092262 -0.24808446
0.3570895 -0.26625812 0.55890405 0.23525655 -0.4459369 0.38452205 -0.06553005 -0.2743404
0.25368193 -0.2083202 0.16572064 0.40858188 0.48807925 -0.0011217864 0.09107117 -0.43385738
-0.24082129 0.8509258 0.3879037 -0.619795 0.23522836 0.9042642 -0.107874036 0.28369206
0.2836077 -0.06898287 -0.103503816 -0.22104283 0.61950237 0.18834646 -0.46900335 0.3594445
0.05338158 -0.220346 -0.07647288 -0.12733144 0.15855935 -0.21970557 -0.24528888 0.34338602
0.4317267 -0.22500472 -0.030916143 0.38936442 -0.15795836 0.3536738 -0.50764686 0.5284432
0.4990464 -0.394906 0.4822163 0.2966472 -0.10762202 0.4637061 0.07474284 -0.217838
0.2030905 -0.32691815 0.2979091 0.23712014 0.32821286 -0.13904807 0.1716389 -0.22856174
0.34374475 -0.31368983 0.33142546 0.15204474 -0.3437534 0.22650951 0.049130574 -0.21293488
0.11566139 -0.2558082 0.21230301 0.15062347 0.28886175 -0.047855385 0.17609759 -0.06711618
0.13882142 -0.3844493 0.3989478 0.17944026 -0.22213988 0.38455042 0.18118688 -0.11790863
0.2452096 -0.21213755 0.053260345 0.3954246 0.46869183 -0.20642674 0.1227676 -0.3174608
-0.18826579 0.8259559 0.45823106 -0.49320865 0.17840822 0.7871393 -0.10735757 0.3793968
0.4259677 0.17345695 -0.27942374 -0.121730044 0.48614755 0.1107885 -0.2691462 0.4171185
0.015072989 0.8580522 0.44146734 -0.20391119 0.14710945 0.73795485 -0.13202946 0.2252462
0.089669615 0.23948506 -0.18780516 0.064160705 0.5545323 0.26509103 -0.5747804 0.6791963

model.fe.bn.weight f4 [16]
00000000: 3675 933f acbd 933f f7ee 8e3f 8acb 843f
00000010: bad1 8b3f 5c32 8b3f d72b 8f3f 85c8 9a3f
00000020: 7e6e 853f 2161 973f 131f 873f a5b1 8a3f
00000030: 5021 8c3f 535d 8b3f 25e8 8e3f 531c 8a3f
1.1520145 1.1542258 1.1166676 1.0374615 1.0923378 1.0874743 1.1185254 1.2092444
1.0424345 1.1826516 1.0556358 1.0835463 1.0947666 1.0887855 1.1164595 1.0789894

model.fe.bn.bias f4 [16]
00000000: 2ac1 87be 84a0 6ebe cdb6 7cbe e722 42be
00000010: 2356 6cbe da0e 5abe 351d 50be 7b17 7abe
00000020: d83c 36be f94a 90be 6bc0 4cbe 7bd7 53be
00000030: 5577 43be 3c13 57be bb65 7dbe 0a10 71be
-0.2651456 -0.2330342 -0.24679108 -0.18958627 -0.23079734 -0.21294728 -0.20323642 -0.2442302
-0.17796648 -0.281822 -0.19995277 -0.20687668 -0.1908849 -0.21003431 -0.24745838 -0.23541275

model.fe.bn.running_mean f4 [16]
00000000: ae23 d2c0 1863 b4c0 8ca3 a7c0 1e1c f1c0
00000010: ec80 d0c0 c87d b3c0 62fb d0c0 99ba e7c0
00000020: 205e fcc0 02e8 d2c0 daaf b8c0 c80e c6c0
00000030: 8cfa 87c0 9f1e dcc0 5f35 dac0 8373 c7c0
-6.5668554 -5.6370964 -5.238714 -7.5346823 -6.5157375 -5.609104 -6.5306864 -7.241528
-7.88649 -6.5908213 -5.7714663 -6.1893044 -4.2493343 -6.878738 -6.819015 -6.2328506

model.fe.bn.running_var f4 [16]
00000000: eed0 a141 068c 2d41 427e 4941 723e 8141
00000010: 344d 6d41 6109 2841 f451 7141 2d86 7541
00000020: 4332 7d41 838c dc41 2245 0241 1944 3e41
00000030: 88c6 b840 44e9 3b41 ed94 b541 8afb 9a41
20.227016 10.846685 12.593325 16.15549 14.831348 10.50229 15.082508 15.345258
15.824771 27.56861 8.141878 11.891625 5.774235 11.74445 22.697718 19.372822

model.classifier.weight f4 [1, 16]
00000000: 408e b7be c515 613e f412 84be 8af4 2d3e
00000010: 802c bbbe 4d14 49be dd3d 253e d6c5 593e
00000020: 5f39 383e f886 99be c798 90be 6393 643e
00000030: 2d1c 423e efe6 5d3e 9b3f a5be e544 7fbe
-0.35850716 0.2198096 -0.2579571 0.16987815 -0.36557388 -0.1963665 0.1613688 0.21266875
0.17990635 -0.29985785 -0.2824156 0.22321849 0.1895606 0.21670125 -0.3227509 -0.24928625

exp_avg f4 [40, 1, 1, 25]
00000000: 5d27 9a39 2282 5539 d9b3 db38 6c6c 9f37
00000010: 0286 34b8 4eb2 afb8 ee7b ebb8 3164 0eb9
00000020: 3fcb 21b9 de7e 29b9 730c 1eb9 6df4 fbb8
00000030: fdc5 a1b8 8175 11b8 094b afb6 356e c236
00000040: 41d9 b535 b4ee 2fb7 cd5e beb7 ac70 0ab8
00000050: 0aef 37b8 ea40 70b8 8b95 92b8 94ea 95b8
00000060: 2d0f 52b8 2522 a9b9 4200 c8b9 71eb b7b9
00000070: 0f3b 82b9 e5d4 efb8 28bf 1537 27d1 c638
00000080: 4326 1339 bcbe 2839 9c54 3939 c0e5 4f39
00000090: 748b 6539 d872 6639 aa47 3f39 b2b7 da38
000000a0: 0535 af36 31f3 a3b8 b350 e4b8 bf88 91b8
000000b0: 20e6 dc37 aaf2 0d39 09b2 5539 1c98 4939
000000c0: 96df ca38 0db3 46b8 aa37 01b9 a907 e4b8
000000d0: 3cba aeb8 4537 5db8 4131 b2b7 d99f e736
000000e0: fe7c e437 75fc 1b38 21e8 2238 f127 2538
000000f0: 7020 4b38 74ef 9738 0411 e538 b4ac 1939
00000100: 496b 2f39 ac8b 2539 97e4 f338 e042 6438
00000110: c18e f6b6 5c15 55b8 78cd 91b8 b632 96b8
00000120: 4d61 9bb8 89ff bfb8 06ec 03b9 62e8 c738
00000130: c494 2439 d128 4739 d2e2 3439 2a71 cd38
00000140: 13f3 92b7 4b13 10b9 ff24 65b9 d545 71b9
00000150: f544 2eb9 f023 57b8 951c 9438 640d 2239
00000160: 9aa6 3539 75db 0539 eb83 3b38 4283 14b8
00000170: a426 a1b8 03fd 81b8 8266 4036 33c2 c038
00000180: 2f78 3339 c684 5d39 a755 4e39 a389 0839
00000190: ac8e 4ab8 47db c2b7 1490 acb7 c14b 08b8
000001a0: 8a6a 56b8 5587 94b8 4512 b8b8 979f cbb8
000001b0: fa8a bfb8 bfff 80b8 d853 64b6 9fca a138
000001c0: 180c 2b39 a88d 7239 bc85 8939 681f 8339
000001d0: 60b2 5739 4a52 1f39 47b5 ea38 1673 cd38
000001e0: 4405 de38 4072 f838 1931 f338 c8f9 b438
000001f0: 137c 0038 f844 51b7 054a 9037 4e09 4f38
00000200: bb35 9938 5d3e a538 39e3 8338 d2ce f537
00000210: 243b 3db7 022a 3fb8 f5a0 84b8 0a41 80b8
00000220: 7a13 3ab8 55f3 c2b7 4cb3 0bb7 bc6b aeb6
00000230: 8f8a 59b7 8336 dab7 2bc7 20b8 97e2 45b8
00000240: e662 62b8 6ab9 80b8 4e2e 91b8 443c 97b8
00000250: 7b67 80b8 a91c fbb7 0c8a cc37 8b40 a637
00000260: 545f 2a37 bd1c 01b7 bc58 06b8 24d0 6cb8
00000270: 1b52 98b8 53d2 9bb8 4ac8 7eb8 6691 1bb8
00000280: 6474 4bb7 d995 ba36 4088 3b37 d1a2 b536
00000290: 92f4 f1b6 b8a2 abb7 7d21 f4b7 76fd ffb7
000002a0: 4a7e cfb7 ecc2 5eb7 349f e935 5ac8 9837
000002b0: ef50 0e38 fb1f 4238 a6ed 5b38 0593 8eb7
000002c0: 5156 52b5 8872 4237 f4d2 bf37 8e3d 0d38
000002d0: 1bbc 3338 b2c5 4b38 3660 5238 c5bf 4b38
000002e0: 4238 4238 68dc 3d38 90f1 3d38 ba24 3638
000002f0: 7971 1338 fca2 8c37 1765 4ab7 a388 45b8
00000300: 2030 a8b8 a833 d6b8 be34 ddb8 cc21 b8b8
00000310: 2a45 5bb8 e677 e2b6 8f78 2338 5966 9e38
00000320: 48b4 c8b9 33fa 00ba b3cd 13ba c94a 15ba
00000330: 5c8d 02ba d51d beb9 35ca 4db9 7695 23b8
00000340: d1b6 9e38 f5c1 0a39 693f 0f39 3d43 e838
00000350: bacf af38 254d ab38 bc14 f638 3f27 4539
00000360: 6236 9039 19e4 b739 5572 cb39 6382 c339
00000370: 4a24 a239 c75b 6639 d418 0f39 1e4d b938
00000380: 037f b338 8f6e 8c38 585f 0738 72a0 f9b5
00000390: 4984 b3b7 de38 bab7 1499 26b7 bcda 9636
000003a0: 0e57 4037 4b2c 0337 f6bc 88b5 d0ac a6b6
000003b0: 38ca 9636 a298 f137 1e78 7b38 840c af38
000003c0: 03db b138 06ca 6e38 d34a a636 98cb 64b8
000003d0: 04c7 d0b8 f529 e9b8 90ab abb8 e373 9cb7
000003e0: a71b 7938 8bd3 0639 0e03 8bb6 a89d 3238
000003f0: 61b6 aa38 7867 cf38 4f9c b938 1fa6 6538
0.00029402497 0.00020361741 0.00010476233 1.9004765e-05 -4.304015e-05 -8.377862e-05 -0.00011228757 -0.000135795
-0.00015429872 -0.00016164358 -0.00015072692 -0.000120141405 -7.7139564e-05 -3.4680128e-05 -5.2241417e-06 5.7944803e-06
1.354878e-06 -1.048639e-05 -2.269391e-05 -3.3006698e-05 -4.3853222e-05 -5.7280915e-05 -6.989677e-05 -7.148567e-05
-5.0082035e-05 -0.00032259632 -0.00038147165 -0.00035079897 -0.00024839534 -0.00011436063 8.925599e-06 9.4803334e-05
0.00014033266 0.00016092783 0.00017674494 0.00019826647 0.00021891092 0.00021977292 0.00018241876 0.00010429266
5.2215787e-06 -7.8177436e-05 -0.000108869186 -6.93961e-05 2.6333204e-05 0.00013537207 0.00020379586 0.00019225519
9.673757e-05 -4.7373633e-05 -0.00012323135 -0.00010873314 -8.3316554e-05 -5.274198e-05 -2.124219e-05 6.902945e-06
2.7237922e-05 3.719e-05 3.8839997e-05 3.9376264e-05 4.842918e-05 7.244843e-05 0.0001092274 0.00014655554
0.00016729267 0.00015787658 0.00011629721 5.442172e-05 -7.34799e-06 -5.080305e-05 -6.95241e-05 -7.162003e-05
-7.4090996e-05 -9.155187e-05 -0.00012581059 9.532344e-05 0.00015695678 0.00018993324 0.00017250635 9.79624e-05
-1.7517747e-05 -0.00013740097 -0.00021852924 -0.00023009565 -0.00016619622 -5.1293464e-05 7.062514e-05 0.00015454512
0.00017323569 0.00012765623 4.4707132e-05 -3.5408193e-05 -7.6842756e-05 -6.1983264e-05 2.8669897e-06 9.191446e-05
0.00017115542 0.00021125664 0.00019677599 0.00013021244 -4.8293427e-05 -2.3228711e-05 -2.057109e-05 -3.2495478e-05
-5.1120798e-05 -7.0823975e-05 -8.777207e-05 -9.70952e-05 -9.133476e-05 -6.151152e-05 -3.402345e-06 7.7148194e-05
0.00016312336 0.0002313169 0.00026230316 0.00025009667 0.00020570448 0.00015194077 0.00011191755 9.796598e-05
0.00010586766 0.00011846842 0.00011596288 8.629594e-05 3.063313e-05 -1.2473429e-05 1.7200606e-05 4.936131e-05
7.3056166e-05 7.879429e-05 6.28889e-05 2.9302584e-05 -1.1279048e-05 -4.557707e-05 -6.324231e-05 -6.11563e-05
-4.4363995e-05 -2.3239912e-05 -8.326791e-06 -5.198146e-06 -1.2966469e-05 -2.601301e-05 -3.8332462e-05 -4.717949e-05
-5.3974705e-05 -6.138052e-05 -6.922764e-05 -7.2114664e-05 -6.1227904e-05 -2.9934878e-05 2.4382978e-05 1.9818797e-05
1.0154985e-05 -7.69569e-06 -3.203073e-05 -5.646063e-05 -7.263218e-05 -7.430152e-05 -6.0744853e-05 -3.7090293e-05
-1.2126842e-05 5.5606765e-06 1.1177792e-05 5.4131747e-06 -7.2108314e-06 -2.046056e-05 -2.910266e-05 -3.0516396e-05
-2.473513e-05 -1.3277615e-05 1.7406187e-06 1.8213108e-05 3.3930814e-05 4.628299e-05 5.2434996e-05 -1.699618e-05
-7.8356703e-07 1.15899675e-05 2.2867207e-05 3.3674347e-05 4.2852113e-05 4.858309e-05 5.0157505e-05 4.857757e-05
4.63056e-05 4.526638e-05 4.5286084e-05 4.3426386e-05 3.515321e-05 1.6765196e-05 -1.2063675e-05 -4.7095713e-05
-8.019828e-05 -0.00010213937 -0.00010547925 -8.780099e-05 -5.2278083e-05 -6.749283e-06 3.8974507e-05 7.553091e-05
-0.00038281293 -0.0004920095 -0.00056382566 -0.0005695043 -0.00049801706 -0.0003626185 -0.00019625651 -3.9001425e-05
7.568079e-05 0.0001323296 0.00013661165 0.00011075146 8.383342e-05 8.168285e-05 0.00011734056 0.00018802004
0.0002750634 0.00035074426 0.0003880436 0.00037290444 0.00030926085 0.00021968699 0.00013646792 8.8358516e-05
8.559043e-05 6.696313e-05 3.2275304e-05 -1.8598641e-06 -2.1400063e-05 -2.2199409e-05 -9.930012e-06 4.4958124e-06
1.1464361e-05 7.818521e-06 -1.0187784e-06 -4.9673035e-06 4.4938897e-06 2.8800514e-05 5.995493e-05 8.3469815e-05
8.480812e-05 5.693177e-05 4.955896e-06 -5.4549047e-05 -9.9552824e-05 -0.00011118121 -8.1858714e-05 -1.8650613e-05
5.939198e-05 0.00012858042 -4.1428784e-06 4.2585336e-05 8.1402024e-05 9.889802e-05 8.850602e-05 5.4752567e-05
