ckpts/finetuning/subject_01-session_03.ckpt (torch, 63949 bytes, 50 tensors)

model.input_block.temp_cov.weight f4 [40, 1, 1, 25]
000000 12 07 ad 3e a9 fd 91 3d 31 23 ba be 5f 4a c4 be
       0.33794457 0.0712846 -0.36354974 -0.3833799
000010 cf cf a1 be 12 eb ab bd ca 0f e0 3d 76 f2 ac 3e
       -0.31603858 -0.083944455 0.109405115 0.33778733
000020 cb 0d 28 3e 19 3a 2c 3e 33 bc 0c be 58 ef 5e be
       0.16411512 0.16819037 -0.13743667 -0.2177099
000030 77 b0 c9 be 09 32 ae be 24 cf 88 be 5b f7 75 bc
       -0.39392444 -0.3402255 -0.26720536 -0.015012587
000040 98 6f 9b 3e f5 50 d0 3e b7 fc 2a 3e 12 39 47 3e
       0.30358577 0.40686765 0.16697966 0.19455364
000050 75 dc 8b 3e 05 d1 60 3e d6 bc d6 bd 55 9d 34 3a
       0.27316633 0.21954735 -0.10485236 0.00068898994
000060 72 99 65 be 54 20 d0 be fb 2b 31 3e 62 a7 40 3e
       -0.22421816 -0.40649664 0.17301933 0.18813851
000070 39 12 c6 3e 2b d1 eb 3e 38 80 b5 3e 72 67 a3 3e
       0.38685778 0.4605802 0.35449386 0.3191486
000080 be 45 b5 be f0 3f c3 be 5c e9 d9 be 3b 27 d9 be
       -0.35404772 -0.38134718 -0.42560852 -0.42412743
000090 be 8f 9f bd 9f ea 0d 3f a5 3a f2 3e 59 a3 f3 3e
       -0.077910885 0.5543613 0.47310367 0.47585562
0000a0 ce f4 be 3e 0f 76 a2 bd 2a 4d 80 be f7 93 05 bf
       0.37296146 -0.07932674 -0.25058872 -0.521789
0000b0 62 e7 fb be 6a 73 c9 be 45 6b 8c 3e fc 41 fd 3e
       -0.4919997 -0.39345866 0.2742559 0.49464405
0000c0 1b 2f b2 3e f0 e6 de 3e 3c 30 04 3f 40 47 16 3f
       0.34801564 0.43535566 0.516361 0.5870247
0000d0 c1 5b eb 3e a0 6d c9 3e aa 90 da 3e 73 cf 41 be
       0.4596844 0.3934145 0.42688495 -0.18926792
0000e0 9c ef 46 be 04 8b d6 be 34 8d cb be d2 c5 a7 be
       -0.19427341 -0.41902936 -0.39756167 -0.32768112
0000f0 90 f4 76 bd 7d a9 e8 3b 10 86 1c be e1 f0 49 3b
       -0.060291827 0.0071002827 -0.15285516 0.003081374
000100 b7 02 01 bd 5d 9d 7e be 7a f2 7e be 7b 39 12 be
       -0.03149673 -0.24864717 -0.24897185 -0.1427974
000110 f0 1c 1e 3e b4 17 e1 3e 78 81 6d 3e d2 9f c9 3e
       0.15440726 0.43963397 0.2319392 0.39379746
000120 06 4d 14 3f 81 04 25 3f cd 12 09 3f e9 85 b9 bd
       0.5793003 0.6446 0.5354431 -0.090587445
000130 5b b9 88 be b8 a6 de be 03 3f 4d be 1f 2c 9a be
       -0.26703915 -0.4348657 -0.20043568 -0.30111787
000140 d9 aa 8a be 8b 8e 81 3e e4 61 95 3e 9d 31 67 bd
       -0.2708347 0.25304064 0.29176247 -0.0564438
000150 40 b7 15 3e 72 90 82 bd b1 b0 17 be 2b 08 61 be
       0.14620686 -0.06375207 -0.14813496 -0.21975772
000160 83 31 4e bd 25 e6 28 be 4a 3f 0c 3e 53 eb 55 3e
       -0.050340187 -0.16494043 0.13696018 0.2089055
000170 9e b9 85 3e 10 e6 2d 3e ae e9 36 be 4e 45 80 be
       0.26118177 0.16982293 -0.17862579 -0.25052875
000180 d9 dc fa bd 80 c7 53 be e5 65 d1 be 57 6f b2 be
       -0.122491546 -0.20681572 -0.40898052 -0.3485057
000190 60 8e 9f 3e f5 51 2f 3d d1 61 bb be 4a a1 bd be
       0.3116331 0.04280277 -0.36598065 -0.37037116
0001a0 a6 24 ed be 96 a5 6a be 9d 4c ab be 88 d7 93 be
       -0.46317023 -0.22914729 -0.3345689 -0.28875375
0001b0 08 9a 7d bd c5 d6 d1 3d 6b 8e 2f 3d 45 a6 67 3e
       -0.061914474 0.10246042 0.04286043 0.2262202
0001c0 32 b9 23 bd e7 5a 72 3e 3a 60 33 3e 4b 93 fa bd
       -0.039971538 0.23667489 0.17517176 -0.12235125
0001d0 d2 e3 01 3d b6 c3 0c 3e 5d 8c 4b 3e 63 84 7d 3e
       0.031711407 0.13746533 0.19877763 0.24757533
0001e0 9e 2e 59 3e da f8 c1 bc 1a ce a6 be 17 42 88 be
       0.2120919 -0.023678232 -0.32579118 -0.26612923
0001f0 9c 42 2c bf d8 2b 9e be c9 d8 bc be c0 d9 e5 be
       -0.6728914 -0.30892825 -0.36884144 -0.44892693
000200 cd 62 d3 be 42 8d f4 be 54 66 99 be 96 e4 aa bd
       -0.41286317 -0.4776402 -0.29960883 -0.083443806
000210 f4 b0 f1 bc 87 ed 85 3e 7b ba d2 3e 1c 1b 2a 3e
       -0.029503323 0.2615778 0.41157898 0.16611904
000220 7a bf d4 3d df d2 29 3c ef 2d 1d 3d eb 0d 0c 3e
       0.10388084 0.010365217 0.038373884 0.13677184
000230 e7 f8 71 3e 6f cb 63 3e 84 55 ac 3e 85 97 2a 3e
       0.23630105 0.22245573 0.33658993 0.16659363
000240 71 35 c6 bd 7f 2a 66 be 4f a4 d7 bd 56 07 a6 be
       -0.09678162 -0.22477148 -0.10529386 -0.32427472
000250 d0 f9 fd be 34 f7 1b bf b5 db d4 3d 30 ca 88 3e
       -0.49604654 -0.6092408 0.10393468 0.26716757
000260 e4 3d e9 3e b3 5f 16 3f 88 ea 0a 3f f1 9e 54 3e
       0.4555503 0.58739775 0.54264116 0.20763756
000270 f7 db 01 3f 2d 8a 42 3e 6d ee 25 3e 16 7f cf bd
       0.50726265 0.18998022 0.16204233 -0.101316616
000280 30 b0 4a be 9f 96 8e be 0c f9 f2 be fd 81 01 bf
       -0.19793773 -0.2784929 -0.47455633 -0.5058897
000290 45 3c c6 be 5c dd ba be 8a 0f ec be a6 22 85 be
       -0.38717857 -0.3649701 -0.46105605 -0.26002997
0002a0 2a 47 d4 be bf c8 66 bc d1 1e b0 3e 90 26 38 3e
       -0.41460544 -0.014085948 0.3439851 0.1798346
0002b0 b2 93 05 3f bb 3b 00 3f aa 4e ab 3e a8 1b 8a 3e
       0.5217849 0.5009114 0.33458453 0.26974225
0002c0 98 16 78 3d 2d ab 78 bd cf a2 13 3e b2 64 63 be
       0.060568422 -0.06071012 0.14417575 -0.22206381
0002d0 3f 81 83 bd 43 3e af bd 2a 6a f6 3d fe 76 25 3d
       -0.06421136 -0.08556797 0.12031968 0.040396683
0002e0 dc 8e ae 3d 3e 70 89 3d 84 87 5e bd 07 54 69 bd
       0.08523342 0.067108616 -0.054328457 -0.0569649
0002f0 45 1a 35 be c8 83 c7 3d e6 d0 21 3e 3c d0 1e 3e
       -0.17685802 0.09741932 0.15802345 0.15509123
000300 90 d5 08 be a3 eb 38 bd bc 2c 53 be 98 a7 2b be
       -0.13362718 -0.045146596 -0.20622534 -0.1676315
000310 86 04 2a be db 6b 90 3c 5d 4d 3d be 9d bb 83 bd
       -0.16603288 0.017629554 -0.18486543 -0.06432269
000320 c3 8d 3b 3f ab 8e 13 3f 4a d5 39 be 0e d5 f3 be
       0.73263186 0.5763957 -0.1814777 -0.47623485
000330 7a af 06 bf 28 26 86 be 3f 72 ad be 7e d4 8b 3e
       -0.52611506 -0.26200986 -0.33876225 0.27310556
000340 8b 39 b7 3e 42 1f a5 3e dc e9 8e 3e 6b 7f 25 3e
       0.3578609 0.3225041 0.27912796 0.16161887
000350 03 16 16 be d4 6e ae be 27 e4 9d be 5b 3f 8d be
       -0.14656834 -0.3406893 -0.3083813 -0.275874
000360 81 b2 d3 be 6e c9 72 bd a0 fe ef 3e 07 af 46 3e
       -0.41347125 -0.05927413 0.4687395 0.19402705
000370 ec 9a a3 3e 34 29 ca 3e 7d 8e 48 bd 6d 13 00 bf
       0.31954134 0.3948456 -0.048964012 -0.5002964
000380 b1 c5 5e bf 8a 75 a4 be 4c fc 1c bf 37 a0 02 bf
       -0.87020403 -0.32120925 -0.61322474 -0.5102572
000390 37 cd f6 be 64 41 c8 be 71 8d 53 be bc 89 9f 3e
       -0.48203442 -0.3911239 -0.20659424 0.3115977
0003a0 71 0e 9b 3e 79 36 d6 3e c1 8f 7e 3e 26 fc 23 be
       0.30284455 0.41838434 0.24859525 -0.16014156
0003b0 f3 be 86 bd 36 e8 a6 be db fb 47 be ea 02 be 3d
       -0.065793894 -0.32599038 -0.19529669 0.092778996
0003c0 5a fe 49 3e f6 42 a6 3e b9 91 e8 3d 49 00 d7 3d
       0.19725934 0.32472962 0.113559194 0.10498101
0003d0 fb 58 95 bd 0c 9b 1a bf ca 17 9e be f3 d8 21 bf
       -0.07292362 -0.6039283 -0.30877525 -0.63221663
0003e0 83 36 e8 be 12 43 dc be ed 90 24 bf cd 4b 20 bf
       -0.4535409 -0.4301992 -0.6428364 -0.6261566
0003f0 02 6e 03 bf b5 3b 30 bf a8 e6 21 bf 3b da d4 be
       -0.51339734 -0.68841106 -0.6324258 -0.41572747

model.input_block.bn1.weight f4 [40]
000000 ca 57 a4 3f 92 a8 b7 3f 8f fc b8 3f fe 3d 9f 3f
       1.2839291 1.4348319 1.4452075 1.2440794
000010 70 bd a4 3f 90 de a7 3f f2 58 ba 3f 07 4e 88 3f
       1.2870312 1.3114796 1.4558394 1.0648812
000020 5f bc bf 3f 9a 66 b7 3f fe a6 d2 3f c7 38 d9 3f
       1.4979361 1.4328187 1.6457212 1.6970452
000030 51 24 9e 3f 69 93 62 3f aa c7 90 3f 2a b1 be 3f
       1.2354833 0.8850618 1.1310933 1.4897816
000040 78 03 98 3f 44 c0 9c 3f ff 50 af 3f 5e 1d a3 3f
       1.1876059 1.2246175 1.3696593 1.2743337
000050 ee 10 ad 3f ad 5a b2 3f 95 0f b1 3f 33 7b 89 3f
       1.3520792 1.3933922 1.383288 1.0740722
000060 0d 8f a2 3f c8 71 9f 3f e4 63 ac 3f d1 21 a7 3f
       1.2699906 1.2456598 1.3467984 1.3057195
000070 53 18 a7 3f 8c 73 c3 3f 8c b9 a7 3f 58 08 b3 3f
       1.3054298 1.5269637 1.31035 1.3986921
000080 10 a1 0f 3c cd 3b b1 3f 39 00 86 3f b4 6f 99 3f
       0.008766428 1.3846375 1.0468818 1.1987214
000090 53 a3 b1 3f cd 3f a2 3f b1 fe a0 3f 05 d6 b2 3f
       1.3877968 1.267572 1.2577726 1.3971564

model.input_block.bn1.bias f4 [40]
000000 ad ee 81 be 8e 3f 26 bd 17 6f b4 3c af 50 81 bc
       -0.25377408 -0.040587954 0.022025628 -0.015785543
000010 04 36 86 3d 4d 88 0c 3e c9 44 94 be 13 a7 ad bf
       0.065532714 0.1372387 -0.2895873 -1.3566612
000020 bc 9d 80 bd b7 a1 6c bd b2 01 a3 3d 4d 1e 8c 3e
       -0.062800854 -0.05777141 0.07959308 0.27366868
000030 b1 43 90 3e bb 0a 08 c0 09 b5 ac 3f 3b 37 15 be
       0.28176644 -2.125655 1.3492748 -0.1457185
000040 1e 2d a4 3f 8d 64 25 bf ae 0b cb bc 9b d6 1f 3c
       1.2826269 -0.64606553 -0.024785843 0.009755756
000050 c2 0a e0 bb bf 29 5b 3c 38 31 29 3d 4d 7b e4 bf
       -0.00683722 0.013376652 0.041306704 -1.7850128
000060 7a 43 1e bc ea 7d 93 3d 5c 16 93 3d 50 86 6f bd
       -0.009659642 0.072017506 0.07181999 -0.0584777
000070 c0 a1 e3 bd 95 0c c5 3e 84 0a 28 bd 36 14 04 be
       -0.11114836 0.38486162 -0.041025653 -0.12898335
000080 f9 54 2d 40 c4 bc c8 3e d2 de c3 bf 56 4d 24 be
       2.7083113 0.39206517 -1.5302374 -0.16045126
000090 fd 28 88 3d de c6 b4 3c e5 6d 50 3d 77 ec a1 be
       0.06648443 0.022067484 0.050886054 -0.3162572

model.input_block.bn1.running_mean f4 [40]
000000 35 78 82 36 16 33 e7 b5 93 a9 68 37 95 b2 8b b6
       3.888296e-06 -1.7225709e-06 1.386776e-05 -4.1633125e-06
000010 ed 3a 83 b6 bb 8c 34 b7 7a 28 7f 37 f8 55 2b b6
       -3.910964e-06 -1.0761602e-05 1.5208609e-05 -2.5531026e-06
000020 31 a7 34 36 fe 2e 26 b7 6a 87 a3 b7 0d 01 76 b7
       2.6919408e-06 -9.905312e-06 -1.9494171e-05 -1.4662987e-05
000030 89 f9 00 b6 90 53 8b 33 ac a2 4f b5 4f 8f 27 37
       -1.9218735e-06 6.487892e-08 -7.735023e-07 9.987342e-06
000040 3c 65 29 36 e1 e0 9b 36 6c 85 9b 36 64 a9 bd b5
       2.5241889e-06 4.6455393e-06 4.6348923e-06 -1.4130896e-06
000050 5e 7d de 35 9f a9 8b 37 0e b7 4a b6 dc 21 98 b4
       1.6576776e-06 1.6649077e-05 -3.0206897e-06 -2.8336842e-07
000060 54 87 f1 b6 1f a8 d2 b6 dc 88 75 b6 20 1a 6e b6
       -7.198114e-06 -6.2780596e-06 -3.6587508e-06 -3.547997e-06
000070 40 f9 17 b4 65 5c 9a 37 00 24 b1 30 d8 0e 38 b7
       -1.4153647e-07 1.8401255e-05 1.2888677e-09 -1.0970711e-05
000080 ce 25 77 34 d0 2a ae b4 8e 84 06 b6 ae ec 37 36
       2.3017421e-07 -3.2441176e-07 -2.0044713e-06 2.740689e-06
000090 58 1d 9f 35 06 eb 1b 36 11 6a 1d b7 d0 65 36 37
       1.1854963e-06 2.3233601e-06 -9.382625e-06 1.087175e-05

model.input_block.bn1.running_var f4 [40]
000000 76 7e a9 3c 9c b7 54 3d 2b 13 7e 3d bc e0 8f 3c
       0.020690184 0.051932916 0.06203 0.017563216
000010 21 d8 d2 3c 78 58 33 3d 51 a4 96 3d b0 97 1f 3b
       0.025737824 0.043785542 0.073555596 0.0024351887
000020 4e 3a 2e 3d 19 28 5a 3d 80 ae d5 3d 7e 18 39 3d
       0.042536072 0.053260896 0.10433674 0.045189373
000030 24 5f 1c 3c 77 0e 06 3a db 00 4e 3c 3d 6e a0 3d
       0.009544168 0.000511385 0.012573446 0.07833526
000040 6c 9b 11 3c 84 2e 5c 3c 4a 0c 33 3d c2 40 a0 3c
       0.008887153 0.013438825 0.04371289 0.019562129
000050 88 58 e5 3c 67 e9 80 3d e0 2f 16 3d a7 78 94 39
       0.027996317 0.06294518 0.03666675 0.00028318653
000060 8e cc 06 3d be 0e 89 3c 8c da be 3c 65 70 99 3c
       0.032909922 0.016730662 0.02329757 0.018730352
000070 b8 a7 02 3d 54 a4 b0 3d b0 72 9a 3c 38 3b 54 3d
       0.03189823 0.08625093 0.018853515 0.051814288
000080 d1 1d 9b 38 96 1d 09 3d 6c f2 1e 3b 03 4f 44 3c
       7.39653e-05 0.03347548 0.0024253381 0.0119817285
000090 ce 63 3a 3d 99 02 91 3c 25 99 d4 3c b9 fa 3a 3d
       0.045505337 0.017701434 0.025951931 0.045649264

model.input_block.spat_conv.weight f4 [40, 1, 24, 1]
000000 fa 1a 4e be d2 7d 39 be a3 03 a6 bc cb 32 89 bd
       -0.20127478 -0.18114403 -0.020265406 -0.06699141
000010 e0 47 4d bd 7e 6b 3f 3e ba 79 c8 be ac ad 8b be
       -0.050117373 0.18693349 -0.3915537 -0.2728094
000020 24 4a fd bc a8 4a e0 bc 0d 87 37 bc ca ba e6 3d
       -0.030919142 -0.027379349 -0.011201632 0.11266096
000030 ed e1 9e bd 15 c5 f4 be 58 90 26 bf c0 8b 03 3d
       -0.07757936 -0.47806612 -0.65064 0.032115698
000040 9a f6 c9 bd 30 e7 1c be ca 60 8d be 39 02 03 bd
       -0.09861489 -0.15322566 -0.27612907 -0.03198454
000050 da 85 19 3e 17 16 8d be f2 8d d5 be b9 8e 49 3d
       0.14992467 -0.27555916 -0.41709858 0.049208377
000060 66 34 1c 3e c5 43 a2 3d 18 44 c0 3d 81 c0 56 3d
       0.15254363 0.07923082 0.09387988 0.05242968
000070 38 79 50 3e ac 12 2a 3e 74 34 3e 3d 16 b7 b9 3e
       0.20358741 0.16608685 0.046436742 0.36272496
000080 d9 ce a3 3d d8 e3 5b 3d f5 c2 4b bd 64 e1 e5 3d
       0.079984374 0.053684086 -0.049746472 0.112246305
000090 82 77 f7 bb 2a 06 2c bf 7c ff 50 bf 68 6a 3c 3e
       -0.0075520882 -0.67196906 -0.8163984 0.18399966
0000a0 88 71 d0 3d f4 ee 61 3e 77 ab bd 3b fe 10 3b 3d
       0.10177904 0.2206381 0.0057882625 0.045670502
0000b0 20 8a 88 3d fc 17 41 3d 68 d8 4f 3e d1 9c 77 3e
       0.0666697 0.047142014 0.20297396 0.24180914
0000c0 3a c2 fe 3d 8b 53 2a 3e 06 77 5f bd 54 d3 9f bd
       0.124393895 0.16633432 -0.05455687 -0.078039795
0000d0 ce ab 40 3d eb 96 f7 3d 70 73 2a 3d 35 8a 55 bd
       0.047038846 0.12089332 0.041613996 -0.052133758
0000e0 1c b3 3d 3e c3 89 32 be 4c 88 a4 be 48 35 77 3c
       0.18525356 -0.17435364 -0.32135236 0.015088387
0000f0 ca af b7 bc 73 e0 1f 3f c3 b4 57 3f 5b e5 4e bb
       -0.02242269 0.6245186 0.84260195 -0.0031569812
000100 30 81 0f be 6c dd d1 be e3 4a e1 be be 27 a8 be
       -0.14014125 -0.40989244 -0.44002447 -0.3284282
000110 04 1a c0 bc 51 e2 4f 3e e8 31 28 3e 5e 90 f9 3b
       -0.023449905 0.20301177 0.16425288 0.007616087
000120 84 21 14 3d e1 9f d3 3c aa 2a ac 3e fe 84 37 bd
       0.036164775 0.025833072 0.336263 -0.044804566
000130 3c 6f 35 bd 24 b9 24 bd 20 ba 83 3c 2c bb 22 3e
       -0.044295534 -0.040215626 0.016079962 0.15891713
000140 f5 41 32 3e b9 a9 95 be aa 2f 0b bf d5 04 c8 3d
       0.17407973 -0.2923105 -0.54369605 0.09766547
000150 89 19 0f 3e 67 5a 76 bd f6 26 5f bc 30 cf 85 3d
       0.13974585 -0.06014481 -0.013620129 0.065336585
000160 74 d8 3f 3d bb ed 46 be 0a 0a 0f bf 10 ab 8d 3e
       0.046837285 -0.19426624 -0.55874693 0.27669573
000170 90 11 1b be af fe bb 3c 10 e8 d8 bc 39 33 23 be
       -0.15143418 0.022948591 -0.026477844 -0.15937509
000180 c6 6b 56 3e 19 a5 2d 3d bf 35 6d 3e 39 aa 93 3e
       0.2093955 0.042393778 0.23165034 0.28840807
000190 d2 85 00 3e 79 4c 8d bd 51 60 1c be 6f d8 18 bd
       0.12551048 -0.068993516 -0.15271117 -0.037315782
0001a0 ea ef 50 bb a7 d0 af bd 1e cb 45 bf 18 de e3 bd
       -0.0031881281 -0.08584719 -0.7726306 -0.111263454
0001b0 66 43 1f 3e 50 23 9d bd 12 97 24 bc 9d fb c6 bc
       0.15553054 -0.07672751 -0.010045784 -0.0242899
0001c0 45 07 61 3d 08 bb ea 3d 76 f0 0c bf c7 64 22 be
       0.054938573 0.11461455 -0.55054414 -0.15858756
0001d0 51 df ea 3d b0 a1 2f be cb c3 1d 3e 29 09 9b bd
       0.114683755 -0.17151523 0.1540672 -0.075701065
0001e0 1f d3 53 be c2 29 42 be a8 e6 f3 bc d1 d2 d4 bd
       -0.20686005 -0.18961242 -0.029773071 -0.103917725
0001f0 73 40 1a 3d d4 33 95 3e 7b d0 cf 3d b1 12 21 bd
       0.03765912 0.29141104 0.10147186 -0.039324466
000200 e5 62 69 3d c5 29 03 be f4 bb 1e 3e 5b d9 8a bd
       0.05697908 -0.12808903 0.15501386 -0.067797385
000210 7a 8f 0f 3b bd c4 76 3e c0 92 43 bf b2 ce 26 be
       0.0021905587 0.24098487 -0.763958 -0.16289786
000220 a2 0b 06 3e fb 92 81 3d c2 33 bd 3e ad 91 02 bd
       0.13090375 0.063268624 0.3695355 -0.03187721
000230 c7 30 bd bd 1a f2 19 be a3 e6 37 bf 84 18 b2 3c
       -0.09237819 -0.1503376 -0.718363 0.021740206
000240 d9 27 ae 3c 86 8b ef bd 76 34 3d be 11 57 ef be
       0.021259235 -0.11696534 -0.18477044 -0.46746114
000250 0d 9f ba bd 3e f1 26 3e 5c 1a 9a 3e dc 08 9e be
       -0.09112368 0.16302964 0.30098236 -0.30866134
000260 15 0a 9a be c9 4f fc 3d 42 57 96 bb f9 d1 0e bf
       -0.30085817 0.12319905 -0.0045880387 -0.5578914
000270 1a d8 b9 bd aa d9 c8 3e e1 c7 2f bf 98 00 1f be
       -0.09074421 0.39228565 -0.68664366 -0.1552757
000280 6d 7a 78 be fc 3f e0 bc bb dd 98 3e 07 7b de 3d
       -0.24265452 -0.02737426 0.29856667 0.10863309
000290 90 00 2a bd 31 4a b0 be a8 0a 21 bf 51 42 1d be
       -0.041504443 -0.34431604 -0.62906885 -0.15357329
0002a0 aa e0 6c bf 95 13 7c bf 99 9f 88 bf c2 a2 3c bf
       -0.9253031 -0.9846738 -1.0673705 -0.7368585
0002b0 a9 26 7f bf 3d e3 80 bf 17 7f 6d bf 4d 94 6b bf
       -0.99668366 -1.0069348 -0.9277205 -0.92023164
0002c0 68 ab 4a bf f4 5f 87 bf e8 66 aa bf 50 1d 8e bf
       -0.79167795 -1.0576158 -1.3312654 -1.1102695
0002d0 84 ac 5b bf 9d ae 86 bf 5e 96 21 bf e9 34 6e bf
       -0.8581011 -1.0522038 -0.6312007 -0.93049484
0002e0 4d cd 8f bf c0 8c 6a bf 4f 36 98 bf 58 09 3d bf
       -1.1234528 -0.9162102 -1.1891574 -0.7384238
0002f0 0a 96 0b bf 6a 53 8a bf 36 88 45 bf 3a 47 76 bf
       -0.54525816 -1.0806706 -0.77160966 -0.96202433
000300 02 20 c7 3d 3b ee f3 3d 19 a1 16 3e 28 78 82 3d
       0.09722902 0.11910673 0.14709891 0.06370574
000310 73 01 a7 3e 71 ff c4 3e 21 16 f9 3c 25 89 b5 3e
       0.32618293 0.38476136 0.03040606 0.35456195
000320 da ca 10 3e de 42 f5 3d be 38 fe 3d 08 bb ae 3d
       0.14139882 0.119756445 0.124131665 0.08531767
000330 29 5a 0a 3e 6b 27 dc be fa 83 85 bf 75 aa 25 3d
       0.13510956 -0.42998824 -1.0430901 0.040445764
000340 e8 23 07 bd 09 22 1b 3d ed 2e a5 3d 3d 63 13 3d
       -0.032993227 0.037874255 0.08065591 0.035983313
000350 f0 23 c6 b9 2d 40 56 bd 8f 26 0f bf cf 89 83 3e
       -0.00037792278 -0.052307297 -0.5591821 0.25691077
000360 ba b0 41 3d b9 53 71 bc c3 8a 2e bc 42 56 9a bd
       0.04728768 -0.014729434 -0.010653201 -0.075359836
000370 f5 01 5d be d3 aa ee be d7 28 05 be 0a b1 c4 3d
       -0.21582778 -0.46614704 -0.1300386 0.0960408
000380 c7 8d b5 3d d7 0c 47 3e 7a 5f 4a 3e e3 6f d4 3c
       0.088649325 0.19438492 0.19762984 0.025932258
000390 b5 9e 00 be cd c0 04 bf 02 91 3f 3f 3f 77 83 3e
       -0.12560542 -0.5185669 0.7483064 0.25676915
0003a0 18 0a 5f 3d 0c a5 63 3d 4f e7 2a 3e e8 c3 91 3d
       0.054452986 0.055577323 0.166898 0.07117444
0003b0 2c d8 02 3d 02 80 f0 3d bd ab 2e 3f f2 ad af bd
       0.03194444 0.117431656 0.682308 -0.08578099
0003c0 e6 f3 62 be 40 21 8e bd f7 ec 84 bd 3e f0 9d bd
       -0.22163352 -0.06939936 -0.0649051 -0.07711838
0003d0 b6 85 ab be 0b 44 1a bf b4 25 a1 be d6 e3 f5 bd
       -0.3350045 -0.60260075 -0.31474078 -0.12006347
0003e0 15 cd 3e 3d d2 d8 03 3e c1 61 34 3f 0c f6 98 bd
       0.0465823 0.12875679 0.7046166 -0.07468805
0003f0 61 d1 5f be e6 f8 c2 be fb 23 52 3f 8d f1 72 3e
       -0.21857215 -0.3808052 0.8208615 0.23724957

model.input_block.bn2.weight f4 [40]
000000 1f c7 a3 3f 64 9e b7 3f 21 e1 b8 3f d4 27 9f 3f
       1.2795142 1.4345212 1.4443704 1.243403
000010 d7 b6 a4 3f 62 e5 a7 3f ee 23 ba 3f d5 19 90 3f
       1.2868298 1.3116877 1.4542215 1.1257883
000020 a0 f1 bf 3f 0f 70 b7 3f 2e 70 d2 3f ff 01 d9 3f
       1.4995613 1.4331073 1.6440485 1.6953734
000030 d9 c9 9d 3f 4e 04 85 3f 38 85 99 3f 96 99 be 3f
       1.2327224 1.0391939 1.199378 1.4890621
000040 1c d3 9b 3f 41 d4 9c 3f a2 84 af 3f b4 0d a3 3f
       1.21738 1.2252275 1.3712351 1.2738557
000050 24 02 ad 3f 2f 63 b2 3f e6 03 b1 3f 36 b3 a2 3f
       1.3516278 1.3936518 1.3829315 1.2710941
000060 24 7b a2 3f 37 70 9f 3f b9 70 ac 3f 91 23 a7 3f
       1.269383 1.245612 1.34719 1.3057729
000070 41 40 a7 3f 46 a8 c2 3f c3 d2 a7 3f 62 d9 b2 3f
       1.3066484 1.5207603 1.3111194 1.397259
000080 69 08 eb 3f 7b 4d b1 3f f1 f1 8e 3f 96 f8 98 3f
       1.8361942 1.385177 1.1167585 1.1950862
000090 e9 aa b1 3f 8f 46 a2 3f 27 14 a1 3f a8 51 b2 3f
       1.3880283 1.2677783 1.2584275 1.393117

model.input_block.bn2.bias f4 [40]
000000 4f ab 63 3e 46 3e db bc 0c 84 df 3c f6 c1 9c 3c
       0.22233318 -0.026763093 0.027284645 0.019135457
000010 d5 86 92 bd d5 6b 2d be 18 27 86 3e a7 d1 79 3f
       -0.071546234 -0.16935666 0.262017 0.9758553
000020 e6 95 18 be ca 2d 76 bd 81 ca ec 3d e2 a5 ae 3e
       -0.14900932 -0.06010226 0.11562062 0.34110934
000030 21 d9 7f 3e 7f e4 e2 3f e3 96 84 3f 67 8a 2a 3e
       0.24985172 1.7725981 1.0358547 0.16654359
000040 80 cb 7a 3f 26 63 07 3f 02 8a 4c 3d a7 fe 92 bb
       0.97966766 0.52885664 0.049936302 -0.0044859233
000050 c4 a5 56 bc 19 7b b3 bc 26 f3 f5 3d 3c 86 d5 3f
       -0.013101045 -0.021909283 0.120092675 1.668159
000060 26 24 0d be 6c b6 a0 bd 1e 47 ad ba b2 b2 bd bd
       -0.13783321 -0.07847294 -0.0013220047 -0.09262599
000070 2a 70 db bd cb c9 a5 3e d8 37 9d bd 4d 83 39 3e
       -0.10714753 0.32380518 -0.07676667 0.18116494
000080 01 0d 92 bf b3 df ab 3e df 05 89 3f 60 8d 37 be
       -1.1410218 0.33569106 1.0704917 -0.17925024
000090 bb f7 03 3e 54 29 74 3d 89 76 4f bd c4 b1 85 3e
       0.1288747 0.059609726 -0.050650153 0.26112187

model.input_block.bn2.running_mean f4 [40]
000000 11 9e 4e 3f da 6a 21 bd e6 c3 2c 3c 3e f5 40 3c
       0.8070994 -0.039408542 0.010544753 0.01177722
000010 8b b8 59 bd aa f1 2a be cf 05 5e 3f 2d dc f5 41
       -0.05315451 -0.1669375 0.86727613 30.732508
000020 9c 53 f0 bc e8 b1 8c bd 81 c1 7b 3d 10 00 34 3f
       -0.029336743 -0.068698704 0.061463837 0.70312595
000030 56 62 50 3f 8a cb 8f 42 c1 0b 09 42 10 c8 19 3e
       0.8140005 71.89754 34.26148 0.15017724
000040 2b c2 c9 41 94 28 e4 40 84 c2 b5 bc 0e 63 04 bb
       25.219809 7.1299534 -0.022187479 -0.0020200643
000050 19 b1 d1 bb fc 9f 4a bc 95 4d 12 3c 27 f3 77 42
       -0.0063992855 -0.012367245 0.00892963 61.987453
000060 5d e9 cd 3a 6b 42 82 bc 0f 83 de bc 31 0b bd bc
       0.0015709806 -0.015900811 -0.027162103 -0.023076626
000070 f5 c2 f5 bd 79 d5 d4 3f 77 06 99 bb a6 4a 7e 3c
       -0.12000076 1.6627647 -0.00466996 0.015520727
000080 93 de 06 c3 e2 55 a9 3f ec 21 17 42 ae e3 dc be
       -134.86943 1.3229334 37.783127 -0.43142456
000090 20 e2 ba 3d 9b 3f 05 3c fc 07 91 bc c0 bc 61 3f
       0.09125161 0.0081328405 -0.017704003 0.88178635

model.input_block.bn2.running_var f4 [40]
000000 8a 25 1a 40 ba 31 80 40 41 f5 8d 40 11 c8 d8 3f
       2.4085412 4.00607 4.436188 1.6936055
000010 29 53 14 40 ef d9 3f 40 0a 47 9b 40 a0 1e ad 41
       2.3175757 2.9976766 4.8524218 21.639954
000020 b3 46 b8 40 c0 1f 83 40 9a 7a 0c 41 2c e5 12 41
       5.7586303 4.0976257 8.779932 9.18095
000030 ef 04 06 40 71 9e 12 42 90 be e3 41 ab 6d 8b 40
       2.0940511 36.654728 28.468048 4.357137
000040 5f cb f0 41 34 1c da 40 ac 26 60 40 3c 42 2d 40
       30.099302 6.815943 3.5023603 2.7071676
000050 6f ae 71 40 16 a3 6a 40 6a 7a 58 40 31 e8 4c 42
       3.7762716 3.666204 3.3824716 51.22675
000060 a2 21 e3 3f 91 f8 d5 3f 36 e3 67 40 ba fc 39 40
       1.7744639 1.6716481 3.6232429 2.9060502
000070 21 1e 43 40 4e 0f bd 40 8e 85 1f 40 80 4e 67 40
       3.048714 5.9081182 2.4925265 3.6141663
000080 04 a1 25 3c 2f 60 90 40 c6 6a e3 41 cd c0 12 40
       0.01010919 4.511741 28.427135 2.2930176
000090 76 da 5e 40 ae 18 ef 3f 34 27 00 40 65 94 57 40
       3.4820838 1.8679407 2.0023928 3.3684323

model.channel_expansion.conv.weight f4 [16, 40, 1, 1]
000000 9c 7e 93 3e a1 01 5e 3e e2 e8 54 bd 12 2a 46 3e
       0.28807533 0.21680309 -0.051979907 0.19351986
000010 8d c7 15 3e c2 20 76 3e 95 8a 56 be 92 5b 92 3d
       0.14626904 0.24035934 -0.20951302 0.07146372
000020 84 13 90 3e 54 a4 ba be a0 5d 64 bf e2 6d 2c 3e
       0.2813989 -0.36453497 -0.8920536 0.16838792
000030 43 00 27 3e bd 51 d4 3d fb 31 1c 3e de 95 d4 be
       0.16308694 0.10367153 0.15253441 -0.4152059
000040 74 4e 7f 3e 98 39 80 3e 1d d8 73 3e 1e 1f 41 bd
       0.24932271 0.2504394 0.2381291 -0.047148816
000050 d1 4f e2 3d 41 03 1e bf a8 1d 81 3e 3b 56 32 3e
       0.1105038 -0.61723715 0.25217938 0.17415707
000060 3f d9 4f bd 69 bf f7 3b ce 10 15 3e b5 f9 39 be
       -0.05074429 0.0075606597 0.14557192 -0.18161662
000070 fe 4a 93 bd 57 93 d7 3e b9 d0 15 be 45 f6 6c 3d
       -0.07192038 0.421046 -0.14630403 0.05785205
000080 eb 42 20 be d6 d5 f0 3d 6e 88 ce 3d bb dc d5 3d
       -0.15650527 0.11759536 0.10084616 0.104424916
000090 5b fc 53 3e da 80 2c 3e 66 e9 87 3d df 27 a2 3e
       0.20701735 0.16846028 0.06636314 0.31671044
0000a0 37 b7 87 bd c6 94 98 be 5d d7 e9 3c 47 0d 80 3e
       -0.06626742 -0.29801005 0.028545076 0.2501013
0000b0 c7 f0 74 3e 42 40 11 be ce 5a 1f bd 37 71 3e 3d
       0.23919974 -0.14184669 -0.038904957 0.04649469
0000c0 7f 6b 93 be a1 bd 87 be 96 6d 5f bf 35 9f cc bd
       -0.2879295 -0.26511863 -0.8727659 -0.09991304
0000d0 d1 06 f6 bd 65 fb f2 bb 14 9b 39 3d 4c c6 96 be
       -0.12013019 -0.0074152225 0.04531391 -0.29448164
0000e0 7b c3 4c bc d5 72 ab 3d 5b 32 38 be bd cb 44 3e
       -0.012497778 0.08371512 -0.17987959 0.19218345
0000f0 e4 47 b4 bd b0 1e bf be 1b ef a8 3c b8 3d eb bd
       -0.088027745 -0.373281 0.020621827 -0.11486381
000100 62 f0 c2 3e 9c 6c c0 3e 64 70 9e 3e 38 80 15 3d
       0.38074023 0.37582862 0.30945122 0.036499232
000110 ab 16 52 3e d2 bd 2d 3e b0 83 72 3e ce a1 7e 3e
       0.2051646 0.16966942 0.23683047 0.24866411
000120 2e b3 6b bc eb 77 ed bb b0 6c 82 bd c0 65 cc 3e
       -0.0143859815 -0.0072469614 -0.06368387 0.3992138
000130 ac 81 49 be b7 5e 2b be b8 c2 92 3e 93 2d cc bd
       -0.19678372 -0.1673535 0.28664184 -0.0996963
000140 dc 2b 3c 3d 86 d9 9e 3e 4e 15 bd 3e fb ff f8 3e
       0.045940265 0.31025332 0.36930317 0.48632798
000150 83 63 07 3f 61 5d c9 be 58 6a 41 3f 52 89 88 3e
       0.5288622 -0.39329055 0.7555289 0.26667267
000160 e7 f7 f8 bd 10 d6 58 3e 5c 7a 69 3d bb ec c8 bd
       -0.121566586 0.21175408 0.057001457 -0.09810778
000170 83 80 93 3e 88 69 d3 3e e6 b6 85 3e 79 d1 93 3e
       0.28808984 0.4129145 0.26116103 0.28870752
000180 74 83 e6 3e da de 9d 3e aa 49 c5 bd 45 b7 c4 3e
       0.45022166 0.30834085 -0.09633191 0.38421074
000190 63 c8 96 3e b4 16 b4 3e 47 c4 b3 bd 40 92 d9 3e
       0.29449758 0.3517357 -0.08777671 0.42494392
0001a0 f3 56 ad be 80 28 6c 3e c0 85 31 3e bc fb c4 3e
       -0.338554 0.23062325 0.17336178 0.38473308
0001b0 64 6d 64 be b5 5f 35 3e d3 ae 81 3e e0 10 40 3f
       -0.22307354 0.1771229 0.25328693 0.7502575
0001c0 c3 b5 45 bf f4 f2 6c 3f a4 25 ed 3e b9 78 f9 3d
       -0.7723047 0.9255822 0.4631778 0.12181229
0001d0 6d af 82 3e ec a4 06 3e a7 1a 0d 3f d9 a4 ab be
       0.25524464 0.1314885 0.55118793 -0.33524206
0001e0 90 86 8f bd 04 fb 86 be fa 10 70 be da 37 64 3e
       -0.07008088 -0.26363385 -0.23443976 0.2228693
0001f0 e0 6c 38 3d 4e a7 b7 bd 8e 20 45 bd b7 98 9d 3d
       0.045025706 -0.08967458 -0.04812675 0.07695144
000200 49 29 c3 be 77 8f 61 be a1 9b 60 be 6e cf 51 be
       -0.38117436 -0.22027384 -0.21934368 -0.20489284
000210 0d 72 ef 3d ba 6a 1b be c9 b4 4b bd 35 ab ac bd
       0.11691675 -0.15177432 -0.049732957 -0.08431093
000220 55 fb 01 3d 87 2e 12 3d 74 be 5c be f4 c6 7a 3e
       0.03173383 0.035688903 -0.21557027 0.24489957
000230 ad b9 95 be da 7a ca bd 23 77 fe bd 78 d4 55 bd
       -0.29243222 -0.09886713 -0.12425067 -0.05220458
000240 15 95 82 3e 79 b3 95 3e f7 06 14 3e 5c 3f e8 3c
       0.25504366 0.2923849 0.14455782 0.028350525
000250 12 53 99 3e 51 be 34 3c 67 eb 36 3e 93 c2 36 3b
       0.2994619 0.011031703 0.17863236 0.0027886971
000260 63 13 17 3d dd 82 1c 3e f9 97 e0 3c 03 04 0a 3e
       0.036883723 0.15284295 0.027416216 0.13478093
000270 74 a5 45 be a7 be 12 be c2 d8 49 3e b8 43 4b bc
       -0.19301397 -0.1433054 0.19711593 -0.012406282
000280 03 e9 18 3e 84 3b e3 3e b8 13 59 bf 86 87 3d 3d
       0.14932637 0.44381344 -0.84795713 0.046271823
000290 c8 d8 72 3d b3 39 61 3e 18 41 84 3e 8b 83 86 3e
       0.05928877 0.21994667 0.25830913 0.26272234
0002a0 e4 95 17 3f 65 80 e9 3d a6 be 01 3d 40 c8 e1 3d
       0.5921309 0.114014424 0.031675957 0.11024523
0002b0 65 e7 79 3c e5 c4 46 3e 29 17 6f 3d 41 88 1b 3e
       0.015252923 0.19411047 0.058371697 0.15188695
0002c0 d8 68 65 3e 0c ee 66 3c b6 91 b2 3e 37 ad 33 3c
       0.22403276 0.014094841 0.34876794 0.010966591
0002d0 d8 84 b3 3d bf 46 b1 3e ed dd da 3d ef 9a 2b 3d
       0.08765572 0.34624287 0.1068686 0.041895803
0002e0 26 05 63 be a4 d9 74 bd 4b 34 c2 3d 5b e4 ea bd
       -0.22169933 -0.05977787 0.0948263 -0.114693366
0002f0 dd 76 56 be 94 eb 8b 3d 1d 2a 65 3d c2 00 5d 3e
       -0.2094378 0.06832042 0.055948365 0.2158232
000300 58 bd 15 be 1e b0 e9 3d d6 79 0c 3e 0e 4d f4 bd
       -0.1462301 0.11410545 0.13718352 -0.119287595
000310 5a 62 a2 3e 1b 42 a2 3b be cc 52 3d 85 1c 20 3e
       0.3171566 0.004951728 0.05146479 0.1563588
000320 01 47 e7 3e 04 5b b9 3e da 83 dc 3d 34 d8 0f 3f
       0.4517136 0.36202252 0.10767336 0.56189275
000330 84 0b 7b 3f d6 23 6a bf 06 be 3e 3f 88 fe 1b 3f
       0.98064446 -0.9146093 0.745087 0.6093526
000340 d5 bf 6c 3d 73 59 18 3f dd e3 b8 3e 74 b7 08 bf
       0.057800133 0.5951149 0.36111346 -0.5340493
000350 7e 19 ef 3e 9d 00 3c 3f 31 fe f2 3e 7f 7f 18 3f
       0.46699136 0.73438436 0.47459558 0.59569544
000360 ad 2b 39 3f 18 7e ef 3e f7 2a ea be 85 7a b6 3e
       0.7233227 0.4677589 -0.45735905 0.3564035
000370 9b 6c ac 3e de 63 00 3f 37 c7 69 3a 91 4d 0e 3f
       0.3367661 0.50152385 0.000891793 0.55587107
000380 cc ac 40 be a2 53 8e 3e 9b e3 02 3f 7d c8 cc 3e
       -0.18815917 0.27798182 0.5112855 0.3999671
000390 d2 38 10 3e 3a db b0 bd d8 be e0 3e bb c8 79 3f
       0.14084175 -0.08635564 0.43895602 0.97571915
0003a0 49 d0 4e bf 2a 44 75 3f e7 9c 14 3f df f2 3f 3e
       -0.8078657 0.95807135 0.58051914 0.18744992
0003b0 1d 08 ac 3e 33 44 b1 3e 94 99 36 3f 27 46 10 be
       0.3359994 0.34622344 0.7132809 -0.14089261
0003c0 d3 47 b7 3d 03 aa 5f be 08 bc ac 3d a8 f3 37 3e
       0.08949246 -0.21842198 0.084343016 0.17964041
0003d0 78 5b c8 be e4 36 ad 3d 4d e9 ac bd 93 61 56 3d
       -0.39132285 0.08457735 -0.08442936 0.052339148
0003e0 bd 96 c0 be 4f e2 e0 bd 2c 59 12 3e d7 e3 17 3d
       -0.37615004 -0.10980665 0.14291829 0.03708252
0003f0 f6 ea 03 3e c2 79 80 bd 20 66 3f 3e e1 92 2c 3e
       0.12882599 -0.062732235 0.18691301 0.16852905

model.channel_expansion.bn.weight f4 [16]
000000 af 8f aa 3f d8 3b ad 3f 7f 5a f7 3f a8 04 9c 3f
       1.3325099 1.3533888 1.9324492 1.2188921
000010 a0 86 a4 3f 58 cc c1 3f ac 5a 8f 3f 22 87 98 3f
       1.2853584 1.5140486 1.1199546 1.1916239
000020 e3 2a c6 3d 11 bf a3 3f 61 8d 9c 3f 78 ac c7 3f
       0.09676149 1.2792684 1.2230645 1.5599508
000030 d3 77 c0 3f 08 2d 9f 3f c1 47 a6 3f 9f 9a 9a 3f
       1.5036567 1.2435617 1.2990648 1.2078437

model.channel_expansion.bn.bias f4 [16]
000000 eb d6 52 3e d2 25 7e bd 0e 22 0d 3f 0e 7b c2 bc
       0.20589797 -0.062047787 0.5513009 -0.023740318
000010 21 e4 3b 3e c1 fe 5b 3f 73 15 aa 3d 8b 28 3d bb
       0.18348743 0.859356 0.08304872 -0.0028863277
000020 9b 38 6f 3f fb e1 d5 3e e6 a7 66 3e f6 12 8c 3f
       0.9344575 0.41773972 0.22524986 1.0943286
000030 46 bf 0d 3f 7d 13 10 3e 9a 7b d9 3d cd 87 83 bd
       0.55369985 0.14069934 0.10619278 -0.06422386

model.channel_expansion.bn.running_mean f4 [16]
000000 8a d7 d3 3f 31 18 1c bf 31 70 b8 40 40 e5 27 bf
       1.6550152 -0.60974413 5.7636952 -0.6558418
000010 dd 90 09 40 f8 80 05 41 8a 65 27 3f 64 ee 6a 3e
       2.1494668 8.3439865 0.6538931 0.22942501
000020 24 19 22 41 fe 0b 61 40 0c 4b 33 40 2f f7 e5 40
       10.131138 3.516357 2.8014555 7.186424
000030 23 ed a2 40 43 a9 f7 3f 8d e3 89 3f 3e 27 1f bf
       5.0914474 1.934853 1.0772568 -0.62169254

model.channel_expansion.bn.running_var f4 [16]
000000 0d f1 35 41 4c 37 fe 40 f4 97 a0 41 98 88 33 40
       11.37135 7.94425 20.074196 2.805212
000010 cc 53 69 40 82 6c 2c 42 c9 d6 94 3f d2 29 cc 3f
       3.6457396 43.105965 1.1628047 1.5950263
000020 e4 23 c9 41 e8 20 34 41 ea 6f 4c 40 94 fa 0f 42
       25.142525 11.258034 3.1943307 35.994705
000030 9f 4f aa 41 c8 09 65 40 1d cb 6f 40 24 ef 0f 40
       21.288877 3.578722 3.746772 2.248971

model.fe.conv1.weight f4 [16, 1, 1, 15]
000000 34 07 cf 3d 60 28 ae be 62 e1 e1 be 46 56 08 bf
       0.10108796 -0.3401518 -0.44117266 -0.5325664
000010 2d 1d ea bd 17 2e 0e be 80 9d 7b be 06 77 02 bf
       -0.11431346 -0.1388477 -0.245718 -0.50962865
000020 af af 16 be 97 e8 ab be 9b 58 f9 be e8 30 80 be
       -0.14715455 -0.3357589 -0.48700413 -0.25037313
000030 6b b7 b2 be 8c 93 dd bd 01 a2 18 bf 65 4a 04 bf
       -0.34905562 -0.10819158 -0.596222 -0.5167602
000040 5d 72 d4 be 4c 54 f0 bd c0 45 01 3f fd 49 de 3b
       -0.41493502 -0.11734828 0.50497055 0.0067837224
000050 13 98 d1 be bd 2c cc 3d c0 d9 01 3f 56 d6 e0 3b
       -0.40936336 0.09969471 0.50722885 0.0068614883
000060 c8 19 8b be de 89 68 be b0 61 e9 3e 5e 0d 8c be
       -0.27168107 -0.22708842 0.45582342 -0.27353948
000070 d9 95 a6 be 9a 4e 0c bd d2 51 7b 3e e0 33 8e bd
       -0.325362 -0.034254648 0.2454293 -0.06943488
000080 0c 51 1d bf 72 86 b0 bd 2a 40 91 3e 9d 59 8a 3e
       -0.6145179 -0.086193934 0.28369266 0.27021495
000090 e3 14 0d bf 31 8d 77 3c b2 38 90 3e 2b 86 cd 3d
       -0.55109996 0.015109346 0.28168255 0.10035356
0000a0 4d 97 ea be ba a0 ad be 7a 81 3b 3e 9f 85 51 3e
       -0.45818558 -0.33911687 0.1831111 0.20461129
0000b0 cc 4c 37 be 3d 7a 18 3f 1b 67 d6 3e 97 1a a8 3e
       -0.1790039 0.5956152 0.41875538 0.32832786
0000c0 6f 8f bb 3e 6e 41 a2 3e 46 9d b3 3e 83 f6 98 3e
       0.3663287 0.31690544 0.35080928 0.29875574
0000d0 37 7c c3 3e 13 d3 13 3d 88 ef 9d 3e 64 6a 26 3e
       0.38180706 0.036089968 0.3084681 0.16251522
0000e0 3b 78 b6 3d 6d 9f 2e 3e 8a 68 ec 3e 88 7a ec 3e
       0.08909651 0.17053004 0.46173507 0.46187234
0000f0 ba 87 50 3d 2b 72 ee 3e 90 12 fb 3e 85 57 41 3e
       0.05091069 0.46571478 0.490376 0.18881042
000100 c7 cf 00 3e 69 51 d7 3e 17 e3 b6 3e 4c e9 01 3e
       0.12579261 0.420543 0.3572013 0.12686652
000110 88 b8 02 3d 31 9e 4d 3e 83 66 c1 3e 9b ce 92 3e
       0.031914264 0.20079876 0.37773523 0.28673252
000120 a1 bf 46 3e d8 a7 25 3e 60 a0 40 3d 6f 22 1a 3e
       0.19409038 0.16177309 0.047027946 0.15052198
000130 85 81 16 3e 92 0a ea be ce 52 04 bf aa f6 4c 3e
       0.14697845 -0.4571119 -0.5168885 0.2001597
000140 1a 7e 82 be d7 36 34 bf 39 dc 14 bf fc ef 74 3e
       -0.25486833 -0.7039618 -0.58148533 0.23919672
000150 49 09 e6 bd 34 40 13 bf aa c8 51 bf 11 55 ac bd
       -0.1123224 -0.5751984 -0.81946814 -0.08414663
000160 57 7b 91 3e 10 64 0b bf 48 7a d4 3e d2 0d 55 3e
       0.28414413 -0.5444956 0.41499543 0.20806053
000170 14 dd 92 3d 81 1d 56 3e e1 50 8b 3e c4 65 1a 3e
       0.071710736 0.20909692 0.27210143 0.15077883
000180 a6 01 a3 3e 73 15 d4 ba 7b d7 8a 3e 2a ce 92 3e
       0.31837195 -0.0016180709 0.27117524 0.28672916
000190 a3 d5 70 3e ea 3f 01 3e 4d 8e 74 3e de 6a d0 3c
       0.23518996 0.12622038 0.23882408 0.025441583
0001a0 b5 3f ff bb b4 2a 01 bf 72 52 08 bf ec 16 5f be
       -0.007789577 -0.50455785 -0.532508 -0.21786088
0001b0 90 44 bd bd 48 df 34 be 07 4b b9 be 0d d2 cc be
       -0.09241593 -0.176633 -0.36190054 -0.40004006
0001c0 2b 04 c1 be a8 e4 81 be a7 0b d8 be b4 e5 bd be
       -0.37698492 -0.25369763 -0.4219639 -0.37089312
0001d0 3a 4d 81 be d9 21 f0 be cd 26 ee be e9 5f be be
       -0.25254232 -0.46900824 -0.46513978 -0.3718255
0001e0 f7 63 f8 be fc c1 5e be 8e 57 1a bf 5c c7 7d be
       -0.48513767 -0.21753687 -0.6028985 -0.24783081
0001f0 41 e9 a2 be db b2 d1 be cc c4 23 bf fa f0 45 bf
       -0.31818584 -0.40956768 -0.63972163 -0.77320826
000200 39 69 17 bf e7 d0 da bd 35 87 0e bf 50 34 61 bf
       -0.5914493 -0.10684376 -0.5567506 -0.8797045
000210 f5 ea 6a be 2e 18 ad be 86 36 20 bf b8 49 ba 3e
       -0.22941191 -0.3380751 -0.62583196 0.36384368
000220 81 05 33 3e 24 12 2e be f5 2f b3 3e 46 c7 1a 3f
       0.17482568 -0.16999108 0.34997526 0.6046032
000230 be c3 c2 3e df 64 4c be 6d 79 5d 3d 53 9c 6d 3e
       0.38039964 -0.19960354 0.05407088 0.23204164
000240 22 2b ce 3e b4 d9 51 bd 64 cc 84 3d 32 4a d3 3e
       0.40267283 -0.05123301 0.06484297 0.41267544
000250 59 18 00 3f 15 55 02 3e 0e d5 3c be 6b 23 86 be
       0.5003715 0.12727769 -0.18440649 -0.26198897
000260 d6 f6 8b be 5c 6e 5c be 68 31 aa be 8f 94 9f 3d
       -0.27336758 -0.21526474 -0.3324082 0.07792007
000270 fb b0 75 be ac 91 10 bc b5 79 a6 be 50 cf 26 be
       -0.23993294 -0.008823793 -0.3251473 -0.16290021
000280 c3 3e 50 bd 69 17 9b be 12 86 67 bd f0 42 c4 be
       -0.050841104 -0.30291298 -0.056524344 -0.3833232
000290 41 6a 36 be f6 7e 80 bf be 4d 69 bf 9c 3a be 3e
       -0.1781397 -1.0038745 -0.9113425 0.3715409
0002a0 df 0a 30 3e f2 e2 46 bf 52 c0 8a bf 25 ae 19 bd
       0.17191647 -0.7769004 -1.0839942 -0.037519593
0002b0 15 30 06 3e cb 5d 0a bf f6 8a 5d bf c1 7a da bd
       0.1310428 -0.54049367 -0.8654016 -0.10667945
0002c0 97 5d e8 3d 1e d0 28 bf d5 19 3c bf db a2 f7 3c
       0.11345976 -0.6594256 -0.73476917 0.030229023
0002d0 6f 72 3f bf 6c 83 b8 be 7d 6d c0 bd a7 91 bc bc
       -0.74783987 -0.36037767 -0.09395883 -0.023018671
0002e0 f7 f5 f4 be 45 ac fe be 59 d7 9b bd 1e f5 75 3d
       -0.47843906 -0.49740806 -0.07609434 0.060048215
0002f0 6a 44 23 bf 00 a3 04 bf 34 b6 d8 3d 14 c5 96 3d
       -0.63776267 -0.5181122 0.105816275 0.073618084
000300 02 b7 23 bf 13 05 58 bf 6d 3f 8b be f7 6e e0 bd
       -0.6395112 -0.8438274 -0.27196828 -0.10958665
000310 77 ed ef be b4 6b 07 be d6 4b a9 bd ea c2 a4 be
       -0.4686086 -0.13224679 -0.08266418 -0.32179958
000320 de 0d 9b be 29 78 c9 be fa b4 6c be 3d d6 8b be
       -0.30284017 -0.39349487 -0.23115912 -0.27311888
000330 76 25 16 be ae b6 62 bd 81 b1 13 be ac 4d b3 be
       -0.14662728 -0.05535 -0.14423181 -0.35020196
000340 8b 86 6b be 99 8c 09 be 7b 48 b4 3e 12 b3 ab 3e
       -0.23000543 -0.1343254 0.35211548 0.33535057
000350 20 d5 05 3e 79 77 e7 3e b3 b8 5c 3e 51 28 1f 3e
       0.13069582 0.45208338 0.21554832 0.15542723
000360 4f aa 63 bd 05 5b 6e 3d cb ce 7f 3e 1c 0a e6 3d
       -0.05558234 0.05819227 0.24981229 0.11232397
000370 0f e7 a1 bb d4 4a aa 3e 3c ac 7b 3e 11 cd a0 3e
       -0.0049408744 0.33260214 0.24577421 0.31406453
000380 47 f5 b9 3e b4 5e 19 bf 9a 1d 20 bf 17 a2 c9 be
       0.36319944 -0.5991013 -0.6254517 -0.39381477
000390 6e 94 55 be 56 16 d2 be 23 04 bd be 61 2f 84 be
       -0.20857403 -0.41032666 -0.3691722 -0.25817397
0003a0 1d 4f a4 bd 91 ff 1a bd 59 57 c3 bd 24 8a 47 be
       -0.08022902 -0.037841383 -0.095381446 -0.1948629
0003b0 da 73 42 be d8 c0 53 be cb 25 c1 be c9 a9 b8 be
       -0.18989506 -0.20679033 -0.37724146 -0.36067036

model.fe.conv2.weight f4 [16, 16, 1, 1]
000000 97 65 69 3e 51 0f 87 be a9 c0 59 be 2b 0c d7 be
       0.2279266 -0.26378873 -0.212649 -0.4200147
000010 a9 aa c2 bc 69 ae 80 be b9 9d e9 be 50 ad 08 3f
       -0.023763018 -0.25133064 -0.45628145 0.53389454
000020 c6 06 66 3e 70 f4 ba be 4e ea 39 be fa 5f 24 3f
       0.22463521 -0.36514616 -0.18155786 0.6420895
000030 56 7c 85 be c4 11 8a 3e fd 91 be be bc 2a 0c 3f
       -0.26071423 0.2696668 -0.37220755 0.5475271
000040 a6 cb db 3e 29 00 05 bf e0 08 16 3f cc 64 ae 3e
       0.4292881 -0.5195337 0.5860729 0.34061277
000050 60 d6 7b be a1 f9 04 3f 65 8e 22 bd 0c e4 64 be
       -0.24593496 0.51943403 -0.03968658 -0.22352618
000060 56 09 79 3e f0 fb de be 44 d5 ab 3e 54 f7 40 3e
       0.24319968 -0.43551588 0.33561146 0.18844348
000070 5d 89 82 3e a3 f4 9d be 86 25 bc 3c 52 ac d0 be
       0.25495425 -0.30850706 0.022967111 -0.4075647
000080 79 13 8a be 06 e3 10 3f 95 f1 8a 3e 28 a6 2f bf
       -0.2696798 0.5659641 0.27137437 -0.6861291
000090 a4 10 4f 3e 25 b4 06 3f 5a cf 36 be 9b 87 07 3e
       0.20221192 0.5261863 -0.17852536 0.13235323
0000a0 c3 99 18 3e 0c 06 ce 3d f4 54 e9 bd 50 c1 4f bd
       0.14902405 0.10059747 -0.11393157 -0.050721467
0000b0 5a 40 bb 3e f4 fb e0 3e 69 4f d6 be 43 5f 33 3f
       0.36572534 0.43942225 -0.4185746 0.7006723
0000c0 8e ff fa 3e 83 92 00 bf ab bd 0f 3f c4 3b 9f 3e
       0.49023098 -0.5022356 0.56148785 0.31100285
0000d0 10 7d 99 be d9 1f 03 3f 4f cb b9 3d 5a 85 1d be
       -0.29978228 0.5122047 0.09071981 -0.15382901
0000e0 a1 e7 1c 3e 8e 26 b8 be 39 9a bb 3e c4 1f d8 3e
       0.15322734 -0.35966915 0.366411 0.42211735
0000f0 ae 7e 14 3f 8b 06 d6 bd 2f c2 84 3e 9c 7e a7 be
       0.580058 -0.10450467 0.259294 -0.32713783
000100 11 2d 26 3e 00 a9 ef bd 6a cb 2b bd 7f ee 11 bf
       0.16228129 -0.11702156 -0.041942038 -0.5700454
000110 fc be b7 3d 64 2d 6a be d6 a8 68 be 83 ed e1 3d
       0.08971974 -0.22868878 -0.22720656 0.1103163
000120 93 e9 a9 3e 7c 51 a2 be 5a 0c c7 bd 97 de 10 3f
       0.33186015 -0.31702793 -0.09719153 0.56589645
000130 57 88 a2 be a4 fb d8 3e 95 71 0e bf 8c 6a ed 3e
       -0.31744644 0.42379487 -0.5564206 0.4637035
000140 ef 65 75 3d e9 29 85 3e 04 a0 05 3f 04 65 21 bf
       0.059911665 0.26008537 0.5219729 -0.6304476
000150 ee 64 1b 3e 66 16 34 3e 73 c8 e3 be bb 4d 3c 3f
       0.1517522 0.1758667 -0.44488868 0.7355611
000160 b3 34 be 3e fa bf 8d 3c b5 42 40 be d0 0e 28 be
       0.3714958 0.017303456 -0.18775447 -0.164119
000170 94 8e 86 3e 05 92 8c 3e 57 00 fc be a5 96 f8 3e
       0.26280653 0.27455154 -0.4921901 0.48552433
000180 75 2b 03 3f d7 01 47 be 45 de 26 3f 9c eb 8d 3e
       0.51238185 -0.19434296 0.65182906 0.27718818
000190 e7 76 e7 be 8a 1f 28 3f 6c 79 f4 3d 1f 46 86 be
       -0.45207903 0.65673125 0.11937222 -0.26225373
0001a0 20 09 56 3d 70 e3 9f be 1f 0d e2 3e aa b6 d3 3e
       0.052254796 -0.3122821 0.44150636 0.413503
0001b0 d1 8e 90 3e 88 02 d8 bd 61 62 de 3d cc 41 af be
       0.2823396 -0.10547358 0.10858608 -0.34229887
0001c0 4a 07 f6 3e 0d d7 1c bf a8 50 4e 3f 6c 84 a1 3e
       0.48052436 -0.6126564 0.8059182 0.31546342
0001d0 c9 ca a5 be 3a bf ac 3e b3 f2 6b 3d 88 7c cb be
       -0.32381275 0.33739644 0.057604503 -0.39743447
0001e0 24 00 ba 3e f3 6a 11 bf 76 3e 6b 3e 8d df 7b 3e
       0.36328232 -0.56803817 0.22973046 0.24596997
0001f0 68 59 09 3f 7d c0 b3 bc ad bf 9f 3e 2d b1 a2 be
       0.5365205 -0.021942372 0.31200925 -0.317758
000200 49 ef c9 3e 6b 0f a7 be 39 4a 30 3f 5b 19 91 3e
       0.39440373 -0.3262895 0.68863255 0.28339657
000210 4e 23 00 bf 8d a1 d8 3e 4f 4d 6b bc d7 e6 b5 be
       -0.5005387 0.42310753 -0.0143616935 -0.3552768
000220 c2 02 91 3e 56 72 78 be 61 dc 58 3e c4 a8 e5 3e
       0.28322417 -0.24262366 0.21177818 0.4485532
000230 cf 95 05 3f d4 4a 55 bd 43 09 02 3e fe 1a 02 bf
       0.52181715 -0.052073315 0.12698846 -0.50822437
000240 57 2b 8a be 71 68 66 3f 1f 99 ac 3e 3a 17 2f bf
       -0.2698619 0.90003115 0.33710572 -0.68394816
000250 ba 77 90 3e 52 fd 61 3f 94 64 21 be 2f 55 c2 3e
       0.28216344 0.8827716 -0.15761024 0.37955615
000260 37 a1 87 3e 8f 50 4e bd 4e 15 1c be 10 af 74 be
       0.26490185 -0.050369795 -0.15242502 -0.23894906
000270 74 a3 16 3f 3d 14 6d 3e 76 5d 01 bf 08 f5 f0 3e
       0.5884316 0.23152252 -0.50533235 0.47061944
000280 ec 0e dd 3c 87 99 7b be 04 f0 5d bd d2 3e 3c be
       0.026984654 -0.24570285 -0.054183975 -0.18383339
000290 42 72 4c 3e 2d bd 66 be 30 71 98 be 68 6d da 3e
       0.19965461 -0.22533102 -0.29773855 0.42661595
0002a0 ff b4 d2 3e 7d 42 3c be 6e c2 9a bd c4 e0 b8 3e
       0.41153714 -0.18384738 -0.07556616 0.36108983
0002b0 a3 57 32 be 1e 29 c7 3e 8e f1 08 bf 1f b9 1e 3f
       -0.17416243 0.38898557 -0.53493583 0.6200122
0002c0 63 a2 08 3f eb 29 e8 be 00 da 18 3f 4d 6a b0 3e
       0.5337278 -0.4534448 0.5970764 0.344561
0002d0 58 98 1f be a1 0f 00 3f 48 54 01 3e a7 c5 97 be
       -0.15585458 0.5002385 0.12629807 -0.29642984
0002e0 4d c9 6b 3e 80 25 b6 be b2 0f ac 3e 8a 93 8b 3e
       0.23026009 -0.35575485 0.33605725 0.27261
0002f0 7f 19 b8 3e c1 f6 41 be 0d af 54 3e f1 05 9b be
       0.35956952 -0.18941785 0.20769902 -0.3027797
000300 2a ce c1 3e 18 fb bc be 37 5b e7 3e ab cb 4b 3e
       0.37852603 -0.3691032 0.4518678 0.19901912
000310 59 0f c9 be e3 d0 86 3e 13 78 ce 3d d0 9c 94 be
       -0.39269522 0.26331243 0.10081496 -0.29025888
000320 0e f3 12 3e d5 b7 93 be 8e d1 81 3e b5 f1 40 3e
       0.1435053 -0.2885119 0.2535519 0.18842204
000330 d6 49 a4 3e 8a d7 c7 bd c8 22 58 3e 89 b5 10 be
       0.32087582 -0.09757908 0.21107018 -0.1413175
000340 99 e9 32 3e df 54 e1 be 1e 24 06 3f 00 50 68 3e
       0.17471923 -0.44010064 0.5239886 0.22686768
000350 c5 c5 8b be 95 2e d8 3e 65 06 6d 3e 77 89 47 be
       -0.27299324 0.4222304 0.2314697 -0.19486032
000360 3f 0c 8b 3e 6c 0e 77 be e3 22 c6 3d ce d8 db 3e
       0.2715778 -0.24126595 0.09674623 0.42938846
000370 52 ff ff 3e 58 41 83 be c5 00 22 3e d9 c4 c7 be
       0.4999948 -0.2563579 0.15820606 -0.3901737
000380 e0 ac 5e be ba a9 62 3f 3b 65 c8 3e 87 96 0d bf
       -0.21745634 0.8854023 0.39139733 -0.5530781
000390 c4 fe 64 3e eb 98 43 3f b9 70 1f be cb ef f1 3e
       0.2236281 0.7640521 -0.15570344 0.4725326
0003a0 c0 51 d0 3e ba c8 43 3e f4 b5 a5 be 69 24 0f be
       0.4068737 0.1911954 -0.32365382 -0.13978733
0003b0 13 07 e9 3e b6 e6 1d 3e fb 9a 9b be 09 b1 06 3f
       0.4551321 0.1542004 -0.30391678 0.52613884
0003c0 0e 6e 92 bc d9 7d 6d 3f e5 81 b6 3e 66 62 8a be
       -0.017874744 0.92770153 0.35645977 -0.27028197
0003d0 40 12 4d 3e 80 f8 35 3f 20 8a 38 be 96 4f a6 3e
       0.20026493 0.71082306 -0.1802144 0.32482594
0003e0 72 f9 8d 3d 15 d8 85 3e 51 7a 75 be b0 9a 2c 3d
       0.069323435 0.2614142 -0.23972441 0.04213971
0003f0 ee bc 04 3f 8e e8 9d 3e f0 9b 1c bf b9 42 4b 3f
       0.51850784 0.30841488 -0.6117544 0.79398686

model.fe.bn.weight f4 [16]
000000 56 9d 9b 3f 4e 8d 9c 3f c5 67 9a 3f 65 c6 8c 3f
       1.215739 1.2230623 1.2062918 1.0998045
000010 84 16 94 3f 18 34 98 3f 18 81 96 3f 58 5c a3 3f
       1.1569371 1.1890898 1.1758146 1.2762556
000020 a4 27 8e 3f 5b 15 a0 3f 60 c9 91 3f 96 46 94 3f
       1.1105847 1.2506517 1.138958 1.1584041
000030 77 3b 95 3f 08 7e 94 3f a5 e5 97 3f 7b 20 94 3f
       1.1658772 1.1600962 1.1866957 1.1572412

model.fe.bn.bias f4 [16]
000000 03 db 7a be 7b 05 86 be 80 58 60 be 40 63 60 be
       -0.24497609 -0.26176056 -0.2190876 -0.21912861
000010 8c 82 58 be b1 bf 3e be a0 18 71 be cc 99 8d be
       -0.2114355 -0.18627812 -0.2354455 -0.276564
000020 ed 22 56 be 81 68 86 be 54 6c 37 be 63 3b 71 be
       -0.2091176 -0.26251605 -0.17912418 -0.2355781
000030 57 d4 61 be 53 7f 73 be c3 2c 69 be c1 bb 5b be
       -0.22053657 -0.23779039 -0.22770981 -0.21458341

model.fe.bn.running_mean f4 [16]
000000 f3 ef de c0 b5 f9 d8 c0 e9 ad a2 c0 08 93 0f c1
       -6.9667907 -6.780482 -5.0837293 -8.973396
000010 e3 bc d7 c0 32 ef af c0 6e ea 01 c1 15 0b 09 c1
       -6.7418075 -5.4979486 -8.119734 -8.565206
000020 81 67 14 c1 8e 92 d6 c0 55 e8 b9 c0 99 fe ea c0
       -9.2752695 -6.70539 -5.809611 -7.343579
000030 ee 28 ac c0 42 6c fe c0 f1 db d8 c0 20 38 ce c0
       -5.3799963 -7.950715 -6.7768483 -6.444351

model.fe.bn.running_var f4 [16]
000000 c1 87 ba 41 dd c5 ca 41 a2 81 81 41 63 66 09 42
       23.316286 25.346613 16.188297 34.349987
000010 33 31 87 41 4e 32 74 41 1a 9e 01 42 00 58 0a 42
       16.899023 15.262281 32.404396 34.585938
000020 64 3f 08 42 f0 81 05 42 c7 32 24 41 fa e8 d8 41
       34.061905 33.376892 10.262397 27.113758
000030 50 f8 6e 41 61 5d d3 41 8a fe df 41 cb 09 b9 41
       14.935623 26.420595 27.999287 23.129782

model.classifier.weight f4 [1, 16]
000000 2d f2 04 bf f5 97 b9 3e c8 76 d9 be 5f cf 92 3e
       -0.5193203 0.36248747 -0.42473435 0.28673837
000010 e3 90 06 bf 95 22 b9 be 0c fb 8c 3e 21 20 b7 3e
       -0.5256483 -0.36159196 0.27535284 0.357667
000020 55 71 9b 3e 2f 48 ec be 9c a5 e7 be ad 07 bb 3e
       0.30359903 -0.46148822 -0.45243537 0.36529294
000030 b9 08 a5 3e 73 0f b8 3e fd 1d fa be 5f e0 d2 be
       0.32233217 0.35949287 -0.48851004 -0.41186807
