ckpts/finetuning/subject_01-session_08.ckpt (torch, 64013 bytes, 50 tensors)

model.input_block.temp_cov.weight f4 [40, 1, 1, 25]
0.54671514 -0.031426664 -0.5825338 -0.6017754 -0.4907137 -0.10265385 0.2779955 0.5391448
0.37559378 0.39567387 0.049826756 -0.24594384 -0.52040315 -0.52263373 -0.5087875 -0.31632245
0.1650314 0.45522708 0.30031452 0.36470154 0.4045642 0.11329536 -0.40353787 -0.3693255
-0.58114636 -0.76926726 0.009849358 0.3120348 0.54796106 0.58378345 0.4191545 0.26027253
-0.5099712 -0.46766332 -0.46819282 -0.4217517 0.025337871 0.6547778 0.5389241 0.5364231
0.45530304 0.028553944 -0.22446163 -0.5209805 -0.4966956 -0.36674786 0.43734062 0.6664955
0.5173507 0.583923 0.66451997 0.69655955 0.53223854 0.4242741 0.38610727 -0.29929304
-0.29421255 -0.5248423 -0.522456 -0.47990373 -0.22531304 -0.13963158 -0.25262335 -0.03259273
-0.019203346 -0.22343846 -0.23240396 -0.14738587 0.15167609 0.4764901 0.31187636 0.5182216
0.7481906 0.8547461 0.759469 -0.025247268 -0.27621344 -0.48875776 -0.27808568 -0.38715637
-0.33132914 0.31978312 0.38517386 0.020873211 0.17565842 -0.13405617 -0.32002118 -0.401906
-0.16711766 -0.16757622 0.20224565 0.2925898 0.33015814 0.17426871 -0.37145343 -0.41773692
-0.23028031 -0.25870883 -0.3947632 -0.25975835 0.26573998 0.002720787 -0.42060643 -0.44811448
-0.56222427 -0.3474235 -0.46963495 -0.43433386 -0.17588496 0.11223664 0.0916343 0.2730243
-0.009751962 0.2542729 0.20048551 -0.06075058 0.13590491 0.284995 0.3867723 0.47808042
0.42174256 -0.009507749 -0.377514 -0.3384065 -0.7554919 0.121367425 -0.25891292 -0.5014322
-0.53690064 -0.6254591 -0.43121457 -0.09995735 0.12066702 0.40225384 0.47938865 0.09340688
-0.17439967 -0.38613206 -0.37575245 -0.21392933 0.048355658 0.18556032 0.38700378 0.26365837
-0.029048942 -0.29551762 -0.22511567 -0.4434505 -0.57668936 -0.59793764 0.16120033 0.47140497
0.7426022 0.90317976 0.84224683 0.45360133 0.6708397 0.26550028 0.17126557 -0.13229197
-0.2526861 -0.35838285 -0.5860015 -0.6541844 -0.5714291 -0.5739734 -0.66252416 -0.38409716
-0.42671567 0.08005744 0.51593864 0.3992978 0.768074 0.75610477 0.58223647 0.14189442
-0.04511193 -0.1205069 0.13503309 -0.19466893 -0.033102565 -0.07641104 0.103722274 0.010763935
0.0559933 0.04135112 -0.074723326 -0.07960874 -0.20223266 0.06313494 0.11817462 0.124089316
-0.14388794 -0.02511763 -0.1449132 -0.069105424 -0.04089273 0.15012924 -0.06933598 0.019224769
0.9839755 0.8010822 -0.09124742 -0.5412648 -0.60419196 -0.3262544 -0.3838218 0.2774523
0.3895312 0.3505054 0.31037137 0.20795979 -0.095654465 -0.33796605 -0.33800998 -0.3469928
-0.55995834 -0.17765081 0.465882 0.2464294 0.41444948 0.48637334 -0.12529704 -0.66984427
-1.0753535 -0.15493356 -0.66750926 -0.63589156 -0.6170223 -0.4829381 -0.10493458 0.48776197
0.428691 0.45781264 0.098776266 -0.6201065 -0.5173825 -0.73656654 -0.5800488 -0.17890349
0.19966361 0.43350005 0.2614536 0.2573924 -0.032783177 -0.71474355 -0.42574355 -0.7094018
-0.43165097 -0.19724141 -0.44017753 -0.6221916 -0.6291157 -0.8594461 -0.8255023 -0.6235241
00000000: 86f5 0b3f 3fb9 00bd ef20 15bf f40d 1abf
00000010: d33e fbbe 2f3c d2bd 6d55 8e3e 6505 0a3f
00000020: d44d c03e c495 ca3e 2417 4c3d b4d8 7bbe
00000030: 2439 05bf 53cb 05bf e63f 02bf 04f5 a1be
00000040: fefd 283e 8613 e93e d3c2 993e 29ba ba3e
00000050: 0a23 cf3e 6607 e83d 849c cebe 3b18 bdbe
00000060: 02c6 14bf b3ee 44bf 345f 213c 06c3 9f3e
00000070: 2d47 0c3f d572 153f 6b9b d63e 7142 853e
00000080: 798d 02bf 9171 efbe f8b6 efbe d7ef d7be
00000090: 5e91 cf3c 859f 273f eef6 093f 0653 093f
000000a0: 7b1d e93e f6e9 e93c 45d9 65be fa5e 05bf
000000b0: e34e febe 60c6 bbbe 1ceb df3e 739f 2a3f
000000c0: 1871 043f fa7b 153f fb1d 2a3f ba51 323f
000000d0: c940 083f 743a d93e daaf c53e f03c 99be
000000e0: 07a3 96be 115c 06bf adbf 05bf f1b5 f5be
000000f0: 76b8 66be 95fb 0ebe d957 81be f47f 05bd
00000100: 5650 9dbc 0dcd 64be 4efb 6dbe 52ec 16be
00000110: fa50 1b3e 83f6 f33e 42ae 9f3e 2caa 043f
00000120: 6b89 3f3f a4d0 5a3f 8f6c 423f 5cd3 cebc
00000130: d96b 8dbe 753e fabe 3f61 8ebe 5c39 c6be
00000140: f9a3 a9be 9dba a33e 8235 c53e 4cfe aa3c
00000150: cddf 333e 0546 09be d1d9 a3be a0c6 cdbe
00000160: e420 2bbe 1a99 2bbe 7c19 4f3e 55ce 953e
00000170: 7d0a a93e 7f73 323e 252f bebe 9de1 d5be
00000180: 9ace 6bbe 7c75 84be 671e cabe 0cff 84be
00000190: 120f 883e 3b4f 323b ba59 d7be 436f e5be
000001a0: eeed 0fbf 7ee1 b1be fe73 f0be 0261 debe
000001b0: 301b 34be 53dc e53d c4aa bb3d d7c9 8b3e
000001c0: b1c6 1fbc 0f30 823e 134c 4d3e 9ad5 78bd
000001d0: a82a 0b3e ddea 913e 0507 c63e f5c6 f43e
000001e0: a4ee d73e 64c6 1bbc 8449 c1be 9e43 adbe
000001f0: eb67 41bf 7c8f f83d 3c90 84be dc5d 00bf
00000200: 5272 09bf 161e 20bf 28c8 dcbe 70b6 ccbd
00000210: 4520 f73d 37f4 cd3e 6e72 f53e 1b4c bf3d
00000220: d495 32be 1ab3 c5be a062 c0be 4a10 5bbe
00000230: 9510 463d 8603 3e3e 5c25 c63e 3bfe 863e
00000240: 0cf8 edbc 164e 97be b984 66be f20b e3be
00000250: eaa1 13bf 7112 19bf b311 253e fe5b f13e
00000260: 2e1b 3e3f ca36 673f 7d9d 573f 6f3e e83e
00000270: 27bc 2b3f a7ef 873e 3e60 2f3e 8c77 07be
00000280: 1360 81be f57d b7be 3204 16bf a178 27bf
00000290: 2d49 12bf ecef 12bf 2f9b 29bf 62a8 c4be
000002a0: 7a7a dabe 28f5 a33d 8e14 043f c370 cc3e
000002b0: 7fa0 443f 1590 413f 730d 153f c54c 113e
000002c0: 4ac7 38bd 52cc f6bd 1d46 0a3e 4b57 47be
000002d0: 8e96 07bd 647d 9cbd 586c d43d 375b 303c
000002e0: 3b59 653d cb5f 293d 8b08 99bd e809 a3bd
000002f0: 1416 4fbe e44c 813d 8905 f23d 8a22 fe3d
00000300: 5c57 13be 7dc3 cdbc 2064 14be 2587 8dbd
00000310: 237f 27bd 7bbb 193e 0600 8ebd 437d 9d3c
00000320: d2e5 7b3f b913 4d3f eddf babd 5490 0abf
00000330: 53ac 1abf d10a a7be 4a84 c4be 3a0e 8e3e
00000340: a270 c73e 7275 b33e ffe8 9e3e 69f3 543e
00000350: 7de6 c3bd e309 adbe a50f adbe 0aa9 b1be
00000360: 6e59 0fbf 18ea 35be 1688 ee3e fd57 7c3e
00000370: b932 d43e ed05 f93e de4d 00be ea7a 2bbf
00000380: 2fa5 89bf e7a6 1ebe e3e1 2abf cac9 22bf
00000390: 2cf5 1dbf aa43 f7be f1e7 d6bd f0bb f93e
000003a0: 637d db3e 6b66 ea3e 364b ca3d 4dbf 1ebf
000003b0: 2e73 04bf a08f 3cbf 147e 14bf 7a32 37be
000003c0: 9e74 4c3e b8f3 dd3e 3fdd 853e f0c8 833e
000003d0: a747 06bd 6ff9 36bf 0ffb d9be 5b9b 35bf
000003e0: 5b01 ddbe a7f9 49be f35e e1be f347 1fbf
000003f0: ba0d 21bf a904 5cbf 1e54 53bf 479f 1fbf

model.input_block.bn1.weight f4 [40]
1.5038248 1.5382794 1.5775669 1.3186364 1.3934772 1.3910195 1.7206876 0.8088968
1.6168368 1.5691429 1.7569427 2.023073 1.3146216 0.66528916 0.8407981 1.6629891
1.1503254 1.2340063 1.5034153 1.3462036 1.4815352 1.4452171 1.4742311 0.7157111
1.3003774 1.2806613 1.4520366 1.3486657 1.345899 1.583981 1.3899479 1.535357
0.012678934 1.4866554 0.93019676 1.1928605 1.5461901 1.4752694 1.3110138 1.5832418
00000000: 557d c03f 57e6 c43f b6ed c93f 14c9 a83f
00000010: 765d b23f ed0c b23f 7e3f dc3f dc13 4f3f
00000020: 82f4 ce3f add9 c83f 80e3 e03f 077a 0140
00000030: 8545 a83f 6450 2a3f 8b3e 573f d4dc d43f
00000040: dd3d 933f ebf3 9d3f ea6f c03f 6650 ac3f
00000050: f2a2 bd3f e0fc b83f 9bb3 bc3f d838 373f
00000060: c472 a63f b6ec a33f 56dc b93f 14a1 ac3f
00000070: 6b46 ac3f e4bf ca3f d0e9 b13f 9486 c43f
00000080: 4ebb 4f3c b94a be3f 6021 6e3f a7af 983f
00000090: 8fe9 c53f a1d5 bc3f 4dcf a73f aba7 ca3f

model.input_block.bn1.bias f4 [40]
-0.24346551 -0.12539999 0.01058866 0.028799362 0.079558864 0.1976346 -0.53385234 -1.6459552
-0.18530588 -0.15461498 0.100276425 0.44305 0.3455308 -2.4943197 1.8070831 -0.26952064
1.6786228 -0.9752713 -0.10943161 0.0694396 -0.0777321 0.018159712 0.074981764 -2.1228144
0.020245159 0.14743139 0.17811267 -0.108193465 -0.17938755 0.41640344 -0.14580621 -0.254075
2.9222188 0.7504547 -1.7877241 -0.19090845 0.013254511 0.061971292 0.09896352 -0.45669717
00000000: 064f 79be db68 00be 0f7c 2d3c a4ec eb3c
00000010: c2ef a23d b960 4a3e 8caa 08bf a9ae d2bf
00000020: d3c0 3dbe 6453 1ebe ba5d cd3d 73d7 e23e
00000030: 6ae9 b03e efa2 1fc0 804e e73f 9cfe 89be
00000040: 1ddd d63f 61ab 79bf ae1d e0bd 5936 8e3d
00000050: 0232 9fbd adc3 943c 0a90 993d 31dc 07c0
00000060: 2dd9 a53c 41f8 163e 2b63 363e 8994 ddbd
00000070: 5fb1 37be d532 d53e 394e 15be 1e16 82be
00000080: a205 3b40 cd1d 403f 25d4 e4bf 817d 43be
00000090: 7329 593c 9cd5 7d3d 63ad ca3d 36d4 e9be

model.input_block.bn1.running_mean f4 [40]
8.689284e-07 -1.4488717e-06 8.363213e-06 -2.920674e-06 -3.9736046e-06 -3.207349e-06 1.3524415e-05 7.725252e-08
4.018768e-06 -3.4649918e-06 -1.0673733e-05 -1.1908192e-05 -1.9648396e-06 -2.7574202e-08 1.7073285e-07 9.755765e-06
-1.8139815e-07 1.2640878e-06 -3.9033768e-07 3.9112902e-07 3.491065e-06 7.566682e-06 -4.4370986e-06 -7.992975e-08
-5.9619106e-06 -3.6912638e-06 5.7015524e-07 -2.4052088e-07 -2.2303652e-07 1.0209231e-05 -2.3792234e-06 -1.0211115e-05
-5.036589e-07 -4.9486716e-06 3.355303e-07 8.2736983e-07 1.9862223e-06 -5.194526e-07 -6.24118e-06 2.8040276e-06
00000000: 4e40 6935 da76 c2b5 ba4f 0c37 cc00 44b6
00000010: 0155 85b6 d63d 57b6 ece6 6237 06e6 a533
00000020: f4d8 8636 1b88 68b6 5613 33b7 4cc9 47b7
00000030: b0db 03b6 50dc ecb2 b052 3734 b1ac 2337
00000040: 58c6 42b4 baa9 a935 9a8f d1b4 5dfc d134
00000050: 0a48 6a36 4ee5 fd36 63e2 94b6 d8a5 abb3
00000060: 6c0c c8b6 6eb7 77b6 c50c 1935 f020 81b4
00000070: d07b 6fb4 5048 2b37 bfaa 1fb6 6850 2bb7
00000080: 2d33 07b5 c40c a6b6 ef22 b434 6c18 5e35
00000090: 0a4b 0536 8370 0bb5 546b d1b6 d42c 3c36

model.input_block.bn1.running_var f4 [40]
0.056198675 0.07327732 0.10301198 0.027173713 0.05000978 0.049448565 0.16704449 0.0005846777
0.060989067 0.07403828 0.13775703 0.15486494 0.015750073 0.00014237427 0.0033524735 0.13425562
0.004589384 0.012645144 0.06436183 0.02770898 0.052396525 0.0780801 0.05004793 3.6557638e-05
0.03987639 0.02304697 0.033829495 0.023123438 0.03658983 0.103331216 0.030076234 0.10028179
0.00017365858 0.056137882 0.00031085534 0.012282892 0.07845857 0.05455521 0.038200956 0.09164014
00000000: 9530 663d 6b12 963d f2f7 d23d 689b de3c
00000010: 0ed7 4c3d 948a 4a3d b60d 2b3e 0e45 193a
00000020: accf 793d 62a1 973d 2e10 0d3e ea94 1e3e
00000030: 4c06 813c 4d4a 1539 2cb5 5b3b 4e7a 093e
00000040: 8b62 963b 942d 4f3c 23d0 833d f1fd e23c
00000050: bd9d 563d 76e8 9f3d 0fff 4c3d 7755 1938
00000060: 6d55 233d 00cd bc3c cc90 0a3d 5d6d bd3c
00000070: 38df 153d 519f d33d 6f62 f63c 8a60 cd3d
00000080: 1f18 3639 d6f0 653d 4cfa a239 2f3e 493c
00000090: e3ae a03d 4975 5f3d 9b78 1c3d d3ad bb3d

model.input_block.spat_conv.weight f4 [40, 1, 24, 1]
-0.16495936 -0.13720937 0.115754955 -0.08964647 0.15277092 0.71857375 -0.5409627 -0.30128422
-0.13080493 -0.0054457835 -0.0030593711 0.16231829 -0.024878226 -0.27437747 -0.8670061 0.029421847
-0.077548616 -0.13098894 -0.33119953 0.020828038 0.0068554613 -0.17550246 -0.32424304 0.10012757
0.150638 0.01880567 0.060137145 0.13686901 0.3437211 0.3804691 0.2607708 0.6738034
0.18267304 0.15281598 -0.04884941 0.08053251 -0.027721118 -0.5942425 -0.9605411 0.09864531
0.116416484 0.19501549 -0.06733177 -0.021575214 0.063412026 0.031348404 0.2276317 0.24405426
0.3841796 0.3155696 -0.107540146 -0.06701786 0.12480913 0.16400951 0.31969607 0.34263745
0.3653524 -0.048569575 -0.18857487 -0.20050438 0.11001298 0.42797405 0.8222218 0.1995031
-0.1443374 -0.5687678 -0.6371598 -0.6782293 0.27536002 0.1425065 0.14533794 0.2574793
0.07786585 0.027436256 0.41105592 0.2145203 0.09494448 -0.06650527 0.15570188 0.08614175
0.22295845 -0.4962056 -0.6871218 0.18179297 0.08815762 0.0338051 -0.11564922 0.0789977
0.07003921 -0.2757766 -0.38469064 0.21267818 -0.07132466 0.09626384 -0.18230514 -0.15248808
0.2935768 0.16390881 0.225851 0.43498394 0.29015696 -0.23441103 -0.26149178 0.1256182
0.017046291 -0.120634004 -0.90948933 0.2123988 0.25445676 -0.11468814 0.042833745 -0.039219283
0.18476985 0.082860366 -0.30605397 -0.09127342 0.014502391 -0.48385146 0.007473219 -0.12258586
-0.17938 -0.17349848 -0.058870398 -0.15911661 0.03186626 0.55009127 -0.22268729 -0.2623213
-0.06808314 -0.11076008 0.082507834 -0.12506469 -0.034062937 0.32321584 -1.0622731 -0.11810655
0.038228687 -0.034300312 0.24101542 0.05440704 -0.20820409 -0.122666456 -0.30894738 -0.010856094
0.034031052 -0.19093175 -0.53502125 -0.8831556 -0.03910155 0.5645704 0.16010627 -0.34094527
-0.11197382 0.26418272 0.055318754 -0.6235063 -0.01186627 0.34340376 -0.8813046 -0.23994265
-0.3816436 -0.15627144 0.25910738 -0.0035790426 -0.18292372 -0.5163909 -0.57462734 -0.23217955
-1.212072 -1.2648888 -1.3516396 -1.0032055 -1.2624605 -1.3019744 -1.172602 -1.2013216
-1.0811987 -1.3305513 -1.6338117 -1.3978976 -1.1339613 -1.3361025 -0.9020915 -1.2004002
-1.4127808 -1.1814394 -1.4773535 -1.0191426 -0.81796825 -1.3640887 -1.0615392 -1.2573122
0.18154684 0.09928387 0.19099475 0.12642604 0.3825211 0.7525224 -0.05974989 0.54154426
0.14292987 0.14471695 0.13424811 0.118408896 0.0494236 -0.16437547 -1.2150284 -0.0017613844
0.027999863 -0.04097208 -0.07417479 0.030728517 0.0037104157 0.007995783 -0.13582648 0.3202804
0.041844983 -0.075634144 -0.051131736 -0.07522023 -0.19559135 -0.7079471 0.38398406 0.31401792
0.13065316 0.16227828 0.20404035 0.006072689 0.007977598 -0.458119 1.0573775 0.122426935
0.08761188 0.26168725 0.14512137 -0.049455877 0.075689726 0.17486013 0.40399763 0.018854529
-0.33977354 -0.23777887 0.044998433 -0.031030064 -0.5872115 -0.81782544 -0.18553366 -0.10869938
-0.1520633 0.1776996 0.7367876 -0.21656936 -0.35459417 -0.35877803 0.97568 0.13269061
00000000: 1beb 28be 9d80 0cbe ef10 ed3d 9298 b7bd
00000010: fb6f 1c3e 73f4 373f 887c 0abf ed41 9abe
00000020: baf1 05be 8b72 b2bb bb7f 48bb c436 263e
00000030: 6ccd cbbc 347b 8cbe 1df4 5dbf 1606 f13c
00000040: cfd1 9ebd f721 06be fc92 a9be 909f aa3c
00000050: c7a3 e03b ebb6 33be 2f03 a6be af0f cd3d
00000060: d940 1a3e 590e 9a3c 5e52 763d 6427 0c3e
00000070: 36fc af3e d9cc c23e c083 853e 617e 2c3f
00000080: a40e 3b3e cb7b 1c3e 5216 48bd 3bee a43d
00000090: 6617 e3bc 4720 18bf 06e6 75bf 8d06 ca3d
000000a0: c46b ee3d 24b2 473e 3de5 89bd 81be b0bc
000000b0: 2ade 813d 2f67 003d 4918 693e 5ce9 793e
000000c0: 30b3 c43e 5792 a13e 023e dcbd a940 89bd
000000d0: ee9b ff3d 1cf2 273e 34af a33e 2d6e af3e
000000e0: 780f bb3e e4f0 46bd c519 41be 0551 4dbe
000000f0: 7c4e e13d 6a1f db3e 217d 523f 8a4a 4c3e
00000100: 2fcd 13be c49a 11bf e81c 23bf 6fa0 2dbf
00000110: fdfb 8c3e 39ed 113e 78d3 143e 54d4 833e
00000120: 2178 9f3d 00c2 e03c ec75 d23e 36ab 5b3e
00000130: 4072 c23d ea33 88bd 5070 1f3e 166b b03d
00000140: 384f 643e a90e febe 37e7 2fbf f027 3a3e
00000150: fb8b b43d 3777 0a3d 80d9 ecbd 8cc9 a13d
00000160: b870 8f3d 9732 8dbe 2cf6 c4be 4fc8 593e
00000170: aa12 92bd fa25 c53d 33ae 3abe d625 1cbe
00000180: b34f 963e b6d7 273e 7c45 673e 37b6 de3e
00000190: 748f 943e 7209 70be 40e2 85be 0fa2 003e
000001a0: aaa4 8b3c f60e f7bd 4bd4 68bf 127f 593e
000001b0: 2848 823e 9ee1 eabd 7072 2f3d 66a4 20bd
000001c0: 4f34 3d3e b2b2 a93d 1bb3 9cbe 8fed babd
000001d0: 709b 6d3c 61bb f7be e8e1 f43b 4c0e fbbd
000001e0: 64af 37be 96a9 31be 1622 71bd 77ef 22be
000001f0: 3286 023d c8d2 0c3f 2308 64be fa4e 86be
00000200: 2c6f 8bbd 2ed6 e2bd def9 a83d f510 00be
00000210: 9485 0bbd 8c7c a53e 91f8 87bf d9e1 f1bd
00000220: af95 1c3d 7c7e 0cbd bfcc 763e ebd9 5e3d
00000230: 7433 55be 8d38 fbbd 5a2e 9ebe c2dd 31bc
00000240: 2564 0b3d 9d83 43be 27f7 08bf 7c16 62bf
00000250: f228 20bd b087 103f e6f2 233e 6190 aebe
00000260: 8852 e5bd f542 873e eb95 623d 1c9e 1fbf
00000270: be6a 42bc 9ed2 af3e 2e9d 61bf 87b3 75be
00000280: ca66 c3be 9f05 20be b9a9 843e 5f8e 6abb
00000290: 5b50 3bbe 3232 04bf c71a 13bf 7ac0 6dbe
000002a0: 2d25 9bbf e0e7 a1bf 8702 adbf 0a69 80bf
000002b0: 4e98 a1bf 19a7 a6bf d317 96bf e8c4 99bf
000002c0: b864 8abf 814f aabf be20 d1bf 4fee b2bf
000002d0: a525 91bf 6805 abbf 78ef 66bf b7a6 99bf
000002e0: 00d6 b4bf 6839 97bf eb19 bdbf 4473 82bf
000002f0: 5e66 51bf 759a aebf 84e0 87bf 9bef a0bf
00000300: 6ae7 393e 5755 cb3d 2194 433e d475 013e
00000310: ced9 c33e 4fa5 403f 4dbc 74bd a5a2 0a3f
00000320: 355c 123e ae30 143e 5678 093e 5d80 f23d
00000330: 6770 4a3d 0b52 28be 0d86 9bbf 41de e6ba
00000340: f85f e53c 57d2 27bd f4e8 97bd 5fba fb3c
00000350: 722a 733b bf00 033c 1916 0bbe cbfb a33e
00000360: a565 2b3d 13e6 9abd 836f 51bd 100d 9abd
00000370: 1949 48be 053c 35bf 8f99 c43e f5c6 a03e
00000380: f1c9 053e 472c 263e f4ef 503e 68fd c63b
00000390: 79b4 023c 938e eabe 2558 873f f9ba fa3d
000003a0: db6d b33d dffb 853e b29a 143e 3f92 4abd
000003b0: 3703 9b3d 890e 333e c7d8 ce3e d074 9a3c
000003c0: ccf6 adbe 4e7c 73be 4750 383d c332 febc
000003d0: 7e53 16bf 025d 51bf 89fc 3dbe c89d debd
000003e0: 7bb6 1bbe e2f6 353e 1d9e 3c3f 5cc4 5dbe
000003f0: 5e8d b5be c1b1 b7be 2ac6 793f 0ce0 073e

model.input_block.bn2.weight f4 [40]
1.4995492 1.5391799 1.5767856 1.318591 1.3939754 1.3916712 1.7187072 0.9342329
1.6200511 1.5706242 1.75529 2.0214963 1.3098406 0.8837378 1.0052005 1.662283
1.2123977 1.262482 1.5060934 1.3462944 1.4822532 1.4457167 1.4742486 0.978146
1.3000087 1.2814778 1.4534376 1.3491391 1.3477783 1.576881 1.3916577 1.5344998
2.0978863 1.4914068 1.0306188 1.1886139 1.547201 1.4764831 1.3125503 1.5776591
00000000: 3af1 bf3f d903 c53f 1cd4 c93f 97c7 a83f
00000010: c96d b23f 4822 b23f 99fe db3f e329 6f3f
00000020: d65d cf3f 370a c93f 58ad e03f 3260 0140
00000030: dba8 a73f a43c 623f 69aa 803f b0c5 d43f
00000040: d92f 9b3f 0399 a13f abc7 c03f 6053 ac3f
00000050: 79ba bd3f 3f0d b93f 2eb4 bc3f c767 7a3f
00000060: af66 a63f 7707 a43f 3e0a ba3f 97b0 ac3f
00000070: 0084 ac3f 3dd7 c93f d721 b23f 7d6a c43f
00000080: c543 0640 6be6 be3f 51eb 833f 8024 983f
00000090: af0a c63f 66fd bc3f a601 a83f bcf0 c93f

model.input_block.bn2.bias f4 [40]
0.21242909 -0.11025577 0.016487233 -0.026644873 -0.08675862 -0.22957776 0.505805 1.2621616
-0.26778835 -0.15569967 0.14208198 0.507969 0.31352448 2.1354609 1.4906344 0.28922334
1.3733586 0.8572202 -0.032735407 -0.06506473 -0.08287161 -0.027105594 0.09508533 1.9999431
-0.14332093 -0.15631333 -0.105560504 -0.14078866 -0.17480443 0.35591555 -0.17880526 0.3016154
-1.3669605 0.69097465 1.327972 -0.2100208 0.07593021 -0.0006682269 -0.12030489 0.40079495
00000000: 0387 593e c7cd e1bd 3c10 873c 5946 dabc
00000010: 81ae b1bd 6f16 6bbe 707c 013f 838e a13f
00000020: 8e1b 89be bc6f 1fbe f07d 113e 420a 023f
00000030: 4886 a03e 64ab 0840 1ccd be3f 1515 943e
00000040: 37ca af3f c872 5b3f 9015 06bd a840 85bd
00000050: 97b8 a9bd 8d0c debc 19bc c23d 23fe ff3f
00000060: b9c2 12be 9a10 20be 1b30 d8bd e72a 10be
00000070: efff 32be 903a b63e ba18 37be 556d 9a3e
00000080: 90f8 aebf b7e3 303f fdfa a93f b10f 57be
00000090: 4c81 9b3d f32b 2fba 6962 f6bd ff34 cd3e

model.input_block.bn2.running_mean f4 [40]
0.5534527 -0.21265547 0.01807378 -0.011268364 -0.026941098 -0.38321126 2.2553878 48.3536
-0.28984305 -0.30684182 0.006440918 1.945823 1.408138 106.10939 65.08722 0.45100147
48.26587 17.919003 -0.23674616 -0.027979303 -0.10979498 -3.098271e-07 -0.051929966 90.53847
0.024806606 -0.052197635 -0.23015343 -0.15416081 -0.3599708 1.8721526 -0.13521892 0.33498994
-160.53339 4.693128 55.099846 -0.6213156 0.016505744 -0.045885235 0.006604349 2.1396255
00000000: 13af 0d3f 5bc2 59be 770f 943c f29e 38bc
00000010: 94b3 dcbc 4434 c4be 4658 1040 166a 4142
00000020: 4f66 94be 5f1a 9dbe 560e d33b ba10 f93f
00000030: de3d b43f 0238 d442 a82c 8242 aae9 e63e
00000040: 4010 4142 1e5a 8f41 966d 72be da34 e5bc
00000050: 31dc e0bd 5056 a6b4 84b4 54bd b213 b542
00000060: 3937 cb3c 30cd 55bd 57ad 6bbe 55dc 1dbe
00000070: 184e b8be b2a2 ef3f d476 0abe cd83 ab3e
00000080: 8c88 20c3 1b2e 9640 3e66 5c42 8a0e 1fbf
00000090: 0e37 873c 28f2 3bbd 4b69 d83b a0ef 0840

model.input_block.bn2.running_var f4 [40]
6.1218443 6.659678 9.08859 2.6071367 4.068779 4.3873553 10.59397 15.361062
9.195102 7.4692473 12.110699 24.976578 3.0155163 23.22183 32.62041 6.947823
48.9821 17.855316 6.397427 3.795079 6.684217 4.7144027 5.295535 22.267736
2.698089 2.1892562 4.914 4.113742 4.345482 7.457514 3.1922898 6.120652
0.018530719 11.0308895 32.908195 2.7416763 7.31137 5.07149 3.016488 7.490008
00000000: 26e6 c340 151c d540 dd6a 1141 54db 2640
00000010: 7033 8240 3765 8c40 e780 2941 e9c6 7541
00000020: 231f 1341 1304 ef40 6cc5 4141 08d0 c741
00000030: 38fe 4040 4fc6 b941 4d7b 0242 9154 de40
00000040: aced 4342 b0d7 8e41 b9b7 cc40 93e2 7240
00000050: 1be5 d540 63dc 9640 0675 a940 5324 b241
00000060: 7dad 2c40 c61c 0c40 7d3f 9d40 c6a3 8340
00000070: 300e 8b40 f4a3 ee40 7a4e 4c40 62dc c340
00000080: bccd 973c 867e 3041 fea1 0342 a077 2f40
00000090: bef6 e940 a549 a240 240e 4140 25ae ef40

model.channel_expansion.conv.weight f4 [16, 40, 1, 1]
0.41379088 0.33200872 0.07014018 0.208352 0.15804504 0.37886688 -0.16618821 0.11373541
0.4295982 -0.14766325 -1.3274426 0.15307757 0.2107463 0.14472498 0.18970855 -0.5885174
0.2917486 0.28989255 0.36416525 -0.07048173 0.110570006 -0.8637563 0.3506227 0.20681527
-0.11614291 0.041104473 0.07303749 -0.17151819 -0.11762909 0.45352003 -0.2793524 0.13473581
-0.2058263 0.16447534 0.12877932 0.13098337 0.24196298 0.35801718 0.0665449 0.36195332
-0.10619542 -0.46558464 -0.138834 0.35449883 0.39545515 -0.17674349 -0.05240257 0.05614512
-0.24307019 -0.41297284 -1.1450846 -0.17035158 -0.16088426 0.032925002 0.07006929 -0.5329353
0.018132046 0.07827847 -0.30041865 0.29999155 -0.053445622 -0.49193257 -0.0023261951 -0.057508674
0.44578844 0.46428865 0.39903948 -0.032510906 0.29930317 0.3802293 0.33246845 0.24270268
-0.0072015114 -0.043319356 -0.026020199 0.54038 -0.27454436 -0.19549668 0.3932046 -0.08104581
0.36226404 0.47269413 0.4511865 0.71961886 0.7654224 -0.47432524 1.1428258 0.47526315
0.08349938 0.23515104 0.022845915 -0.1363973 0.52326953 0.51471287 0.3990433 0.34396082
0.7478779 0.46298644 0.011367187 0.36152196 0.6166443 0.31241125 0.013815412 0.5359761
-0.47700223 0.389271 0.1908093 0.67409915 -0.1612675 0.30823556 0.28668788 1.1990417
-0.9708412 1.3132368 0.618706 0.1166829 0.5057521 0.51097316 0.71276903 -0.38395873
-0.1038575 -0.24310268 -0.1957319 0.2378796 0.071486376 -0.16387485 -0.03582767 0.08042003
-0.41875324 -0.28782412 -0.1747354 -0.20357503 0.104539074 -0.15596865 -0.043519903 -0.08450077
0.02914375 0.0280083 -0.2826845 0.3008387 -0.3445764 -0.12160296 -0.102745034 -0.043842096
0.2413405 0.28240097 0.21171656 -0.061828498 0.32461175 0.03432864 0.23213762 -0.029063845
0.03489735 0.14922385 0.04338885 0.06563675 -0.23498441 -0.2127607 0.17633568 0.010629597
0.18738963 0.47970057 -1.1918343 0.0428223 0.030473018 0.2684569 0.28048548 0.26727003
0.68544376 0.24274828 -0.023786068 0.068602175 0.045425005 0.20432231 0.066590026 0.113534324
0.22372928 0.03292873 0.38651073 0.010089621 0.1690616 0.33251745 0.13942799 0.050277356
-0.25244835 0.029602962 0.047017884 -0.11991164 -0.17804955 0.059309635 -0.021187296 0.26142812
-0.16234863 0.14332081 0.1292097 -0.0021229023 0.32805285 0.077802144 0.10165418 0.13693905
0.88341856 0.6365135 0.21440811 0.7933777 1.208681 -1.0833097 1.0794083 0.97736895
0.3208606 0.79900014 0.47760826 -0.43434337 0.7621732 1.019611 0.8100266 0.8185047
1.0682032 0.7952032 -0.33649868 0.48689723 0.67715865 0.65667486 -0.044212125 0.86502844
-0.20215529 0.387852 0.5468137 0.50448483 0.25187734 -0.057519928 0.4384514 1.4624887
-1.2430772 1.3553432 0.9252777 0.18351023 0.6345084 0.8011912 0.9198969 -0.19037086
0.05947972 -0.18670459 0.024824891 0.19744885 -0.66670054 -0.026195094 -0.084261686 0.06853689
-0.30293974 -0.13719591 0.1697542 0.11510705 0.11317936 -0.054679815 0.18995826 0.19629438
00000000: 66dc d33e 0cfd a93e a8a5 8f3d 3a5a 553e
00000010: 8fd6 213e d7fa c13e 3e2d 2abe 1cee e83d
00000020: 4cf4 db3e 0935 17be a4e9 a9bf 5ec0 1c3e
00000030: e1cd 573e c932 143e f542 423e 14a9 16bf
00000040: 1360 953e cc6c 943e de73 ba3e ba58 90bd
00000050: 8772 e23d 221f 5dbf d284 b33e 62c7 533e
00000060: 56dc edbd 2a5d 283d ae94 953d 77a2 2fbe
00000070: 85e7 f0bd c733 e83e 4707 8fbe 2ff8 093e
00000080: 21c4 52be 396c 283e bade 033e 8120 063e
00000090: 25c5 773e 074e b73e b148 883d f251 b93e
000000a0: fc7c d9bd 1c61 eebe 802a 0ebe df80 b53e
000000b0: 1979 ca3e 3ffc 34be 14a4 56bd 6df8 653d
000000c0: 64e7 78be 2d71 d3be 2292 92bf a570 2ebe
000000d0: d8be 24be 5edc 063d 7d80 8f3d 736e 08bf
000000e0: a889 943c 7650 a03d 79d0 99be 7e98 993e
000000f0: cce9 5abd 96de fbbe 1473 18bb 378e 6bbd
00000100: 623e e43e 3eb7 ed3e e74e cc3e 282a 05bd
00000110: 443e 993e 6aad c23e 4e39 aa3e 0d87 783e
00000120: a8fa ebbb a36f 31bd 5028 d5bc 5856 0a3f
00000130: 1491 8cbe 4830 48be 1d52 c93e 58fb a5bd
00000140: ac7a b93e f704 f23e eb01 e73e f138 383f
00000150: b9f2 433f c2da f2be 1e48 923f b155 f33e
00000160: b901 ab3d 6fcb 703e 5b27 bb3c bcab 0bbe
00000170: fef4 053f 39c4 033f 674f cc3e a21b b03e
00000180: ed74 3f3f 8f0c ed3e 703d 3a3c 6819 b93e
00000190: 67dc 1d3f 5ef4 9f3e 0a5a 623c bb35 093f
000001a0: a339 f4be 874e c73e 8363 433e c391 2c3f
000001b0: 4f23 25be 0dd1 9d3e c1c8 923e 337a 993f
000001c0: 0d89 78bf 2518 a83f 8463 1e3f 72f7 ee3d
000001d0: f878 013f 23cf 023f 0878 363f 3d96 c4be
000001e0: 3eb3 d4bd e9ef 78be f16d 48be b696 733e
000001f0: 7367 923d cfce 27be 09c0 12bd 42b3 a43d
00000200: d366 d6be af5d 93be d6ed 32be f975 50be
00000210: 9518 d63d 3fb6 1fbe ed41 32bd bd0e adbd
00000220: e0be ee3c aa71 e53c 06bc 90be 8807 9a3e
00000230: 516c b0be f90a f9bd fd6b d2bd c593 33bd
00000240: f721 773e dc96 903e 3acc 583e e13f 7dbd
00000250: 8333 a63e 309c 0c3d 7cb5 6d3e 4d17 eebc
00000260: 86f0 0e3d 23ce 183e 82b8 313d 8f6c 863d
00000270: c19f 70be f1dd 59be 5791 343e c327 2e3c
00000280: 11e3 3f3e 509b f53e 078e 98bf 7066 2f3d
00000290: 8da2 f93c 2f73 893e cb9b 8f3e 9ed7 883e
000002a0: 3e79 2f3f 0193 783e 00db c2bc 4c7f 8c3d
000002b0: 920f 3a3d de39 513e 5a60 883d af84 e83d
000002c0: 4a19 653e 47e0 063d bce4 c53e f04e 253c
000002d0: 7c1e 2d3e ba3f aa3e 36c6 0e3e a1ef 4d3d
000002e0: e940 81be e981 f23c d395 403d 3c94 f5bd
000002f0: 9f52 36be a9ee 723d fb90 adbc e8d9 853e
00000300: b83e 26be b1c2 123e 8c4f 043e 6420 0bbb
00000310: 8bf6 a73e bb56 9f3d 1130 d03d c039 0c3e
00000320: b827 623f 8cf2 223f cd8d 5b3e cd1a 4b3f
00000330: 0fb6 9a3f e4a9 8abf 0d2a 8a3f da34 7a3f
00000340: d747 a43e 468b 4c3f 1289 f43e 4162 debe
00000350: c81d 433f 9d82 823f e75d 4f3f 8689 513f
00000360: e2ba 883f 7092 4b3f 8e49 acbe 984a f93e
00000370: 455a 2d3f d81b 283f c617 35bd 8172 5d3f
00000380: cc01 4fbe 8a94 c63e fcfb 0b3f eb25 013f
00000390: 11f6 803e 049a 6bbd b47c e03e d432 bb3f
000003a0: 271d 9fbf e37b ad3f 00df 6c3f 1bea 3b3e
000003b0: 246f 223f de1a 4d3f 5d7e 6b3f 94f0 42be
000003c0: 02a1 733d 7d2f 3fbe 925d cb3c 0830 4a3e
000003d0: e3ac 2abf 1897 d6bc 6491 acbd 125d 8c3d
000003e0: eb1a 9bbe 167d 0cbe 0cd4 2d3e 3fbd eb3d
000003f0: 95ca e73d f1f7 5fbd 6b84 423e 6501 493e

model.channel_expansion.bn.weight f4 [16]
1.4352767 1.6055021 2.2052982 1.2523055 1.3123729 1.4129657 1.1871368 1.2484896
-0.21684314 1.2752352 1.3045905 1.4216045 1.6125873 1.3048923 1.3512212 1.2489654
00000000: 26b7 b73f 1881 cd3f 9b23 0d40 8c4b a03f
00000010: d6fb a73f 0fdc b43f 19f4 973f 82ce 9f3f
00000020: 210c 5ebe e83a a33f d2fc a63f 23f7 b53f
00000030: 4369 ce3f b606 a73f d1f4 ac3f 19de 9f3f

model.channel_expansion.bn.bias f4 [16]
0.26656547 -0.05841322 0.838378 -0.026825795 0.209021 1.3485588 0.087566845 -0.010993044
1.0291405 0.5253604 0.23994856 1.5123727 0.73975205 0.1433863 0.11286782 -0.06539243
00000000: 457b 883e b342 6fbd f19f 563f c5c1 dbbc
00000010: 9a09 563e 939d ac3f 3f56 b33d 2b1c 34bc
00000020: e0ba 833f 057e 063f 13b5 753e 6e95 c13f
00000030: 6460 3d3f dcd3 123e 3e27 e73d 77ec 85bd

model.channel_expansion.bn.running_mean f4 [16]
2.501934 -0.7540629 10.485403 -0.7456168 2.633682 15.8358345 0.895499 0.3926569
11.938888 5.4556675 3.2716076 12.869009 8.221073 2.6697636 1.6258839 -0.8113363
00000000: b01f 2040 440a 41bf 36c4 2741 bee0 3ebf
00000010: 3f8e 2840 945f 7d41 6c3f 653f 530a c93e
00000020: af05 3f41 d494 ae40 0562 5140 76e7 4d41
00000030: 8489 0341 68dd 2a40 f71c d03f bcb3 4fbf

model.channel_expansion.bn.running_var f4 [16]
20.340094 15.562231 45.387066 3.196208 6.7721686 84.968605 2.0668597 2.035203
31.042555 16.34704 4.9355 64.06585 38.97207 4.0313067 3.7861545 2.8521652
00000000: 83b8 a241 e6fe 7841 5b8c 3542 ac8e 4c40
00000010: 9bb5 d840 edef a942 6e47 0440 c440 0240
00000020: 2757 f841 bdc6 8241 9eef 9d40 b721 8042
00000030: 66e3 1b42 7700 8140 5b50 7240 e089 3640

model.fe.conv1.weight f4 [16, 1, 1, 15]
-0.0033992094 -0.32714 -0.5105348 -0.6809476 -0.17477393 -0.14356685 -0.33830932 -0.6075013
-0.14728752 -0.3830879 -0.62663853 -0.31205383 -0.28423584 -0.18861479 -0.8168524 -0.57672244
-0.6447954 -0.15636422 0.6323633 0.017037028 -0.5132298 0.1423954 0.6279203 -0.039380375
-0.31865996 -0.104130134 0.524545 -0.47243002 -0.41759965 0.13362475 0.32699797 -0.0060168947
-0.78917193 -0.13324745 0.34209633 0.30257604 -0.7303653 -0.027752 0.35069126 0.1416379
-0.6210486 -0.4003184 0.27277395 0.26532662 -0.30283454 0.7645355 0.53106254 0.3575895
0.3812211 0.32667804 0.33613247 0.2493906 0.3293943 0.0125355115 0.28710026 0.118271105
0.05995449 0.21452667 0.5360408 0.5075235 0.09666447 0.53193736 0.54900706 0.1808747
0.11297304 0.43073285 0.37405705 0.10555839 -0.0053651314 0.18340807 0.3886394 0.29378164
0.17781414 0.15042852 0.08351603 -0.04872958 0.30226123 -0.630724 -0.8581101 0.050992552
-0.33996913 -1.013915 -0.794004 0.23264377 -0.31938758 -0.94553906 -0.9438306 0.0347283
0.008691112 -0.9328977 0.5165829 0.3097019 0.14722462 0.28036043 0.3275618 0.20372635
0.35602894 0.035346583 0.31620845 0.33524606 0.28267395 0.18327226 0.31057584 0.1088414
0.1079356 -0.7248329 -0.6882018 -0.32581687 -0.18794142 -0.23073389 -0.38159 -0.41492498
-0.3881494 -0.27132663 -0.44439206 -0.39728633 -0.2876747 -0.5670791 -0.59860224 -0.5185867
-0.5794283 -0.31306142 -0.69961905 -0.3442487 -0.4139588 -0.50596136 -0.73774445 -0.8707292
-0.68811655 -0.20318395 -0.6547786 -0.9774272 -0.3262773 -0.43465012 -0.72334474 0.37751067
0.33610642 -0.041013993 0.27129138 0.6242258 0.46069062 -0.17670652 0.08570332 0.31576088
0.4002675 -0.17329343 0.18650454 0.59576154 0.47545835 -0.11000876 -0.30616948 -0.3838865
-0.37626958 -0.27659735 -0.36949885 0.040933274 -0.27296415 -0.034102768 -0.33547342 -0.17349613
-0.07483497 -0.34054372 -0.095380574 -0.42516533 -0.24803212 -1.0506454 -1.3817526 0.15829618
0.2856946 -0.9125871 -1.434036 -0.1685687 0.07365391 -0.8603036 -1.0407712 -0.07990277
-0.06369508 -1.1416789 -0.8262515 0.20697138 -0.753735 -0.67899036 -0.32012698 0.07223636
-0.5740331 -0.6506646 -0.103509925 -0.033100586 -0.8438363 -0.6006071 0.26207095 -0.11018643
-0.91692287 -0.88602793 -0.05160856 -0.22843991 -0.54742765 -0.19139645 -0.1736265 -0.3752242
-0.32126775 -0.43077156 -0.2952794 -0.31580815 -0.1689244 -0.09608582 -0.21700539 -0.4306105
-0.3109272 -0.21973358 0.47635144 0.41196066 0.16830681 0.5165593 0.25430265 0.15472895
-0.055630688 0.08890792 0.26981026 0.1136865 -0.0032466734 0.37074095 0.3065271 0.3825496
0.41850194 -0.80061424 -0.78401226 -0.46936938 -0.22867735 -0.41901648 -0.3742727 -0.23696315
-0.02235276 -0.00091905054 -0.08712082 -0.18789987 -0.17333713 -0.25071788 -0.4756342 -0.48408493
00000000: 45c5 5ebb e57e a7be 69b2 02bf 9552 2ebf
00000010: f0f7 32be 3003 13be e136 adbe 3585 1bbf
00000020: 8ad2 16be 1924 c4be 626b 20bf 85c5 9fbe
00000030: 5c87 91be 3c24 41be 3d1d 51bf 15a4 13bf
00000040: 5011 25bf f11d 20be 90e2 213f 3d91 8b3c
00000050: 0763 03bf 1ad0 113e 63bf 203f 514d 21bd
00000060: 6627 a3be 2e42 d5bd 9548 063f 59e2 f1be
00000070: 9fcf d5be edd4 083e 476c a73e 5f29 c5bb
00000080: 2c07 4abf 0572 08be 4027 af3e 3feb 9a3e
00000090: 38f9 3abf 2a58 e3bc ce8d b33e 8709 113e
000000a0: 0bfd 1ebf 89f6 ccbe 07a9 8b3e e4d8 873e
000000b0: 210d 9bbe 99b8 433f b7f3 073f f915 b73e
000000c0: 692f c33e 5842 a73e 8e19 ac3e 4060 7f3e
000000d0: 5fa6 a83e bf61 4d3c cefe 923e 1f38 f23d
000000e0: d792 753d e1ac 5b3e f839 093f 0fed 013f
000000f0: 06f8 c53d 0c2d 083f ba8b 0c3f 3837 393e
00000100: 695e e73d 0489 dc3e 6884 bf3e ff2e d83d
00000110: fccd afbb 53cf 3b3e befb c63e 8c6a 963e
00000120: e914 363e ef09 1a3e 740a ab3d ab98 47bd
00000130: fcc1 9a3e 2177 21bf 1aad 5bbf 91dd 503d
00000140: 6f10 aebe f7c7 81bf d943 4bbf 2b3a 6e3e
00000150: c586 a3be d90e 72bf e29e 71bf 433f 0e3d
00000160: 2a65 0e3c 62d2 6ebf c73e 043f 3f91 9e3e
00000170: 0dc2 163e 678b 8f3e 2eb6 a73e a49d 503e
00000180: 6d49 b63e 94c7 103d 13e6 a13e 5fa5 ab3e
00000190: a4ba 903e b9ab 3b3e cc03 9f3e 3de8 de3d
000001a0: 570d dd3d a68e 39bf fe2d 30bf 78d1 a6be
000001b0: b773 40be 8145 6cbe c45f c3be 0c71 d4be
000001c0: 85bb c6be 53eb 8abe 5b87 e3be 1d69 cbbe
000001d0: 194a 93be 192c 11bf ff3d 19bf 19c2 04bf
000001e0: 6a55 14bf 9649 a0be 3c1a 33bf 5e41 b0be
000001f0: 68f2 d3be af86 01bf d2dc 3cbf 1ce8 5ebf
00000200: 6828 30bf 740f 50be 929f 27bf ab38 7abf
00000210: d10d a7be 768a debe 1f2d 39bf 1449 c13e
00000220: 2416 ac3e 4afe 27bd b4e6 8a3e 43cd 1f3f
00000230: a4df eb3e 8ef2 34be 3985 af3d 69ab a13e
00000240: ddef cc3e d573 31be 0cfb 3e3e d483 183f
00000250: 476f f33e 464c e1bd 3fc2 9cbe c58c c4be
00000260: 68a6 c0be 2b9e 8dbe f42e bdbe a6a9 273d
00000270: f5c1 8bbe 58af 0bbd 2cc3 abbe f8a8 31be
00000280: 1443 99bd bf5b aebe e456 c3bd 45af d9be
00000290: 22fc 7dbe 8c7b 86bf 45dd b0bf 6518 223e
000002a0: 9046 923e 4f9f 69bf 7e8e b7bf 469d 2cbe
000002b0: dcd7 963d db3c 5cbf fe37 85bf 10a4 a3bd
000002c0: 9172 82bd 8922 92bf 3885 53bf 4ef0 533e
000002d0: c7f4 40bf 50d2 2dbf afe7 a3be a8f0 933d
000002e0: d5f3 12bf f591 26bf 03fd d3bd 7b94 07bd
000002f0: a805 58bf 63c1 19bf 2a2e 863e 6ca9 e1bd
00000300: 75bb 6abf bad2 62bf 7f63 53bd 27ec 69be
00000310: 3824 0cbf 6efd 43be 25cb 31be 631d c0be
00000320: 357d a4be 178e dcbe dd2e 97be 9bb1 a1be
00000330: 85fa 2cbe a4c8 c4bd a936 5ebe fb78 dcbe
00000340: da31 9fbe d701 61be 56e4 f33e 82ec d23e
00000350: 9f58 2c3e 3b3d 043f f533 823e 4471 1e3e
00000360: 01dd 63bd 5b15 b63d 9224 8a3e 78d4 e83d
00000370: 24c6 54bb c2d1 bd3e 1ff1 9c3e 8bdd c33e
00000380: e345 d63e 0ef5 4cbf 07b5 48bf 2f51 f0be
00000390: 652a 6abe 5489 d6be aca0 bfbe 78a6 72be
000003a0: 231d b7bc 70ec 70ba 676c b2bd d368 40be
000003b0: 4a7f 31be 185e 80be 5386 f3be fbd9 f7be

model.fe.conv2.weight f4 [16, 16, 1, 1]
0.24521887 -0.31633794 -0.20540263 -0.4766877 -0.02862479 -0.24606135 -0.48356414 0.58659685
0.24260134 -0.34229738 -0.23746471 0.65602934 -0.27121946 0.30879572 -0.4250055 0.6054337
0.5190533 -0.7040005 0.91439533 0.3807714 -0.28652328 0.58257246 0.048773743 -0.35750633
0.3151536 -0.48310354 0.39038044 0.2531635 0.31765965 -0.4191477 0.109148756 -0.4903437
-0.29283047 0.732587 0.38511735 -0.7216886 0.19491763 0.5625451 -0.25785938 0.1966318
0.18438132 0.089268014 -0.16194434 -0.018722521 0.39863834 0.48859945 -0.46743682 0.789602
0.57918096 -0.7094794 0.9728584 0.38809112 -0.35227498 0.56837314 0.20444168 -0.33074018
0.22041334 -0.4102221 0.4404087 0.48354173 0.6425543 -0.2399059 0.36844322 -0.45222864
0.18635708 -0.17089449 -0.043390363 -0.60741085 0.07217311 -0.22607304 -0.27083635 0.16578737
0.3475803 -0.3006746 -0.1365717 0.5804 -0.31815684 0.45492974 -0.5929865 0.5286658
0.045960855 0.45571908 0.5847311 -0.65047306 0.12027557 0.2134524 -0.51896876 0.7966214
0.40032932 -0.007204293 -0.19869633 -0.12883554 0.29621333 0.33258197 -0.5485472 0.5645842
0.6108876 -0.40988824 1.0232276 0.3518431 -0.5060175 0.72159004 0.22006954 -0.43617767
0.12779197 -0.37175113 0.5177951 0.4848145 0.35555524 -0.23726286 0.21817416 -0.46277636
0.57571775 -0.7895523 1.1259857 0.34127605 -0.3720634 0.40507874 0.13903871 -0.5157138
0.43763116 -0.618282 0.29626554 0.31094286 0.5994774 -0.12507015 0.3854539 -0.3878661
0.48770696 -0.5268718 1.0710909 0.34321207 -0.5542034 0.48409215 0.082207754 -0.50904983
0.3518163 -0.29665795 0.29352918 0.51064366 0.58698696 -0.17498183 0.22498278 -0.61174977
-0.3060852 1.0686088 0.4239668 -0.7481545 0.29765525 0.9137121 -0.25234962 0.46592736
0.29882976 -0.052575704 -0.2344674 -0.20995896 0.6127065 0.29072297 -0.566308 0.5911131
0.056476258 -0.32700884 -0.0358201 -0.2050745 0.16031617 -0.21151009 -0.33480093 0.45038468
0.42829788 -0.18880793 -0.08209086 0.3844938 -0.16645716 0.41974002 -0.5702489 0.63432515
0.62272865 -0.640772 0.9381563 0.38501185 -0.19851851 0.5610031 0.2132574 -0.42970037
0.30020684 -0.40030724 0.39447427 0.33255082 0.41884428 -0.30134386 0.2919887 -0.38756734
0.48088643 -0.54458034 0.80705327 0.23163103 -0.44666663 0.33705604 0.17362265 -0.41582566
0.22572662 -0.34802234 0.33061084 0.26181534 0.39549252 -0.19858223 0.285029 -0.22034754
0.2633027 -0.62562317 0.8818682 0.268848 -0.31299353 0.47764814 0.3193602 -0.32752126
0.33360606 -0.28450507 0.16285035 0.48271227 0.55402523 -0.37022522 0.24484101 -0.4747978
-0.24713935 1.0323281 0.4583919 -0.58326405 0.2199543 0.79349786 -0.24372073 0.53053224
0.43522194 0.17820999 -0.37036893 -0.10977599 0.48315096 0.20728421 -0.35280868 0.6048502
-0.057566512 1.157136 0.42784718 -0.36427775 0.22776368 0.73926497 -0.27021176 0.41946495
0.10641759 0.26730433 -0.33184698 0.06653037 0.5359026 0.3611725 -0.67464274 0.928528
00000000: a81a 7b3e 0cf7 a1be 1155 52be 6910 f4be
00000010: 897e eabc 82f7 7bbe b895 f7be 362b 163f
00000020: 7c6c 783e 9a41 afbe f329 73be 8af1 273f
00000030: 47dd 8abe 791a 9e3e 529a d9be b4fd 1a3f
00000040: ade0 043f 6039 34bf d015 6a3f 78f4 c23e
00000050: 2eb3 92be 7823 153f fac6 473d 120b b7be
00000060: d05b a13e 5959 f7be f2df c73e a59e 813e
00000070: 49a4 a23e 879a d6be 6289 df3d 540e fbbe
00000080: e0ed 95be d28a 3b3f 1a2e c53e 96c0 38bf
00000090: 7d98 473e f502 103f 2506 84be d959 493e
000000a0: 75ce 3c3e 26d2 b63d bdd4 25be f95f 99bc
000000b0: 531a cc3e b529 fa3e e153 efbe 5b23 4a3f
000000c0: 3445 143f 71a0 35bf 400d 793f e1b3 c63e
000000d0: 635d b4be e780 113f 2959 513e c756 a9be
000000e0: 09b4 613e a208 d2be 407d e13e c892 f73e
000000f0: 707e 243f e4a9 75be 97a4 bc3e 838a e7be
00000100: 64d4 3e3e f7fe 2ebe 18ba 31bd 477f 1bbf
00000110: 7fcf 933d b17f 67be 10ab 8abe 2ac4 293e
00000120: 0cf6 b13e 05f2 99be 74d9 0bbe 1895 143f
00000130: 74e5 a2be 8dec e83e f7cd 17bf a456 073f
00000140: 7341 3c3d 0354 e93e f0b0 153f 6785 26bf
00000150: 0a53 f63d 4493 5a3e 23db 04bf 61ef 4b3f
00000160: f7f7 cc3e fd11 ecbb 0d77 4bbe 77ed 03be
00000170: 46a9 973e 2f48 aa3e 976d 0cbf 9788 103f
00000180: 2163 1c3f dfdc d1be 1ff9 823f c724 b43e
00000190: 5d8a 01bf 20ba 383f e959 613e ae52 dfbe
000001a0: e6db 023e 2a56 bebe 388e 043f 9b39 f83e
000001b0: 560b b63e 09f5 72be 0c69 5f3e 06f1 ecbe
000001c0: 3d62 133f 1920 4abf 4d20 903f bcbb ae3e
000001d0: 187f bebe 7b66 cf3e 2a60 0e3e d205 04bf
000001e0: 3111 e03e bb47 1ebf 1eb0 973e e733 9f3e
000001f0: 5a77 193f 6412 00be 375a c53e 6396 c6be
00000200: bab4 f93e 12e1 06bf 8219 893f 7eb9 af3e
00000210: 46e0 0dbf edda f73e 8a5c a83d 1751 02bf
00000220: 4421 b43e 8de3 97be 7549 963e 8bb9 023f
00000230: c744 163f 702e 33be e361 663e a29b 1cbf
00000240: 33b7 9cbe 2cc8 883f 2d12 d93e 0e87 3fbf
00000250: 4566 983e 09e9 693f f833 81be 088e ee3e
00000260: 3700 993e 9f59 57bd 3918 70be 7bff 56be
00000270: 55da 1c3f a4d9 943e 90f9 10bf 3053 173f
00000280: a653 673d b46d a7be 19b8 12bd 0dff 51be
00000290: ec29 243e 1a96 58be 076b abbe d298 e63e
000002a0: dc49 db3e de56 41be 411f a8bd 5fdc c43e
000002b0: bf73 2abe 2ae8 d63e d5fb 11bf 2263 223f
000002c0: 256b 1f3f a209 24bf 032b 703f 4620 c53e
000002d0: 7048 4bbe e69d 0f3f 2660 5a3e b001 dcbe
000002e0: b6b4 993e 12f5 ccbe 88f8 c93e 1a44 aa3e
000002f0: c272 d63e be49 9abe 8b7f 953e 3a6f c6be
00000300: bf36 f63e 9e69 0bbf 0b9b 4e3f af30 6d3e
00000310: 7db1 e4be 9c92 ac3e 23ca 313e 1ae7 d4be
00000320: e124 673e fc2f b2be d345 a93e a90c 863e
00000330: ff7d ca3e 2459 4bbe 52ef 913e c9a2 61be
00000340: 9dcf 863e d728 20bf 1dc2 613f 72a6 893e
00000350: b040 a0be 4c8e f43e 2e83 a33e deb0 a7be
00000360: 6ace aa3e a6aa 91be 3ec2 263e 1026 f73e
00000370: 99d4 0d3f 298e bdbe 9ab7 7a3e b218 f3be
00000380: 1912 7dbe 5423 843f 58b2 ea3e cb50 15bf
00000390: b33b 613e ad22 4b3f ed91 79be f6d0 073f
000003a0: 69d5 de3e ae7c 363e ffa0 bdbe 3cd2 e0bd
000003b0: 905f f73e 5042 543e 57a3 b4be 76d7 1a3f
000003c0: ddca 6bbd 081d 943f c90e db3e 9d82 babe
000003d0: e23a 693e 7840 3d3f 3259 8abe 1cc4 d63e
000003e0: 77f1 d93d 1ddc 883e d9e7 a9be 1341 883d
000003f0: ea30 093f 9aeb b83e 63b5 2cbf 03b4 6d3f

model.fe.bn.weight f4 [16]
1.2673627 1.305793 1.2511418 1.1957985 1.2081758 1.2174162 1.2535468 1.3541477
1.2021834 1.2954019 1.1778328 1.2468209 1.2512323 1.25074 1.2310872 1.2069476
00000000: f138 a23f 3a24 a73f 6a25 a03f ed0f 993f
00000010: 81a5 9a3f 4bd4 9b3f 3974 a03f b654 ad3f
00000020: 25e1 993f bbcf a53f 3ac3 963f d497 9f3f
00000030: 6128 a03f 4018 a03f 4494 9d3f 427d 9a3f

model.fe.bn.bias f4 [16]
-0.2611318 -0.33469957 -0.25283444 -0.2871893 -0.22541858 -0.21377084 -0.31195432 -0.3518389
-0.27857152 -0.29463223 -0.19425066 -0.30652842 -0.30419752 -0.30076498 -0.25440416 -0.2502071
00000000: 11b3 85be be5d abbe 8473 81be 7a0a 93be
00000010: 21d4 66be bee6 5abe 7ab8 9fbe 3a24 b4be
00000020: eda0 8ebe 09da 96be a5e9 46be 4bf1 9cbe
00000030: c7bf 9bbe defd 99be 4341 82be 251b 80be

model.fe.bn.running_mean f4 [16]
-10.723301 -14.624463 -10.57316 -18.358057 -10.3033085 -9.513496 -17.873634 -16.96397
-18.648197 -13.512436 -8.845289 -15.629312 -12.253683 -16.402805 -13.356091 -13.451194
00000000: a492 2bc1 cdfd 69c1 aa2b 29c1 4ddd 92c1
00000010: 5ada 24c1 4837 18c1 34fd 8ec1 36b6 87c1
00000020: 822f 95c1 f032 58c1 4e86 0dc1 a911 7ac1
00000030: 160f 44c1 f238 83c1 8cb2 55c1 1738 57c1

model.fe.bn.running_var f4 [16]
29.262041 80.00495 30.770432 109.19556 20.453472 28.014524 104.203224 102.8827
104.76596 56.826633 14.083534 85.33923 57.350777 81.03252 46.57303 45.462406
00000000: a918 ea41 8902 a042 d829 f641 2064 da42
00000010: b6a0 a341 bf1d e041 0d68 d042 f1c3 cd42
00000020: 2c88 d142 794e 6342 2856 6141 b0ad aa42
00000030: 3267 6542 a610 a242 c84a 3a42 81d9 3542

model.classifier.weight f4 [1, 16]
-0.6614516 0.5304192 -0.50668305 0.44854113 -0.6732595 -0.4235604 0.4180744 0.52766436
0.4684694 -0.55441886 -0.55053544 0.53708094 0.5041754 0.52359194 -0.60488176 -0.5074816
00000000: e454 29bf 8dc9 073f fbb5 01bf 2fa7 e53e
00000010: bc5a 2cbf e9dc d8be d90d d63e 0315 073f
00000020: 39db ef3e 65ee 0dbf e4ef 0cbf 237e 093f
00000030: a411 013f 1f0a 063f 88d9 1abf 50ea 01bf

exp_avg f4 [40, 1, 1, 25]
-0.000107415835 2.8234796e-05 0.00012560024 0.00015599735 0.00011907731 3.7522557e-05 -5.6072586e-05 -0.00013118706
-0.00016677548 -0.00015394262 -9.602884e-05 -7.250424e-06 8.859103e-05 0.00016210745 0.00018585021 0.00014574389
5.0608254e-05 -6.592184e-05 -0.0001550714 -0.00017263921 -0.000101269645 3.666201e-05 0.00018350096 0.00026927577
0.00024411599 0.00051412755 0.00035159115 0.0001778813 6.2936284e-05 2.7053815e-05 4.6913126e-05 8.029723e-05
9.3093775e-05 7.46176e-05 3.7104382e-05 8.858146e-07 -2.1208372e-05 -3.0411866e-05 -3.857902e-05 -5.659134e-05
-8.7086984e-05 -0.00012371277 -0.00015826306 -0.00018849649 -0.00021862847 -0.00025140744 -0.00027636692 -0.0002652297
-0.00018040641 1.0960766e-06 -0.00019069987 -0.00018132667 -0.00017330427 -0.00016087899 -0.00013142091 -7.230916e-05
2.0606378e-05 0.00013720925 0.00025421672 0.00034219175 0.00037727895 0.00035103437 0.00027421856 0.00017272485
7.583688e-05 5.469056e-06 -3.228618e-05 -4.7833506e-05 -6.116976e-05 -9.108174e-05 -0.00014537589 -0.00021677699
-0.00028597447 -0.00033031087 -0.00033366337 -7.228307e-05 -8.729019e-06 2.228568e-05 2.2127908e-05 8.905982e-06
3.995482e-06 2.014373e-05 5.3772146e-05 8.8218876e-05 0.00010327332 8.722457e-05 4.3487045e-05 -1.1037369e-05
-5.425859e-05 -6.8780944e-05 -5.02873e-05 -8.292941e-06 3.9058876e-05 7.281807e-05 7.956229e-05 5.515821e-05
4.194809e-06 -6.174805e-05 -0.00012683963 -0.0001726511 -8.648649e-05 -6.9174195e-05 -1.8810231e-05 5.2545125e-05
0.00012178795 0.00016522322 0.0001699214 0.00013855401 8.610765e-05 3.1443888e-05 -1.2045975e-05 -4.0807594e-05
-5.9453036e-05 -7.4896394e-05 -9.0996655e-05 -0.00010565144 -0.00011309205 -0.000108364584 -9.059702e-05 -6.3099695e-05
-3.02424e-05 6.168934e-06 4.8353937e-05 0.00010023441 0.00016323231 -0.00058626255 -0.00030176275 1.6196924e-05
0.0002701959 0.0003879025 0.00034866828 0.00018801233 -1.6944645e-05 -0.0001770578 -0.00022423251 -0.0001379356
4.7612983e-05 0.00025674337 0.0004016415 0.00042066458 0.0003025064 9.268477e-05 -0.00012398024 -0.0002584183
-0.00025550343 -0.00011975885 8.403325e-05 0.00025622113 0.00030495945 0.00018782637 1.14330405e-05 -1.7422597e-05
-3.8467424e-05 -4.857696e-05 -4.813822e-05 -4.0318617e-05 -2.9135685e-05 -1.7703449e-05 -7.336502e-06 2.168126e-06
1.1359691e-05 2.0111285e-05 2.7189517e-05 3.0918494e-05 3.027137e-05 2.5782203e-05 1.9357336e-05 1.3293066e-05
8.752528e-06 4.8976544e-06 -8.693446e-07 -1.139412e-05 -2.7828717e-05 -4.825586e-05 -6.76924e-05 0.0004535198
0.0003523495 0.00017161171 -6.105865e-05 -0.00029297054 -0.00046471538 -0.0005284497 -0.00046610678 -0.00029872564
-7.866391e-05 0.00012726305 0.00026226506 0.00029919203 0.00024763984 0.00014537935 4.0219806e-05 -3.0347499e-05
-5.193285e-05 -3.3964432e-05 3.9965767e-07 2.8034981e-05 3.668622e-05 2.8479395e-05 1.3653852e-05 2.7447802e-06
-0.0004753104 -0.0002515595 -7.358816e-06 0.00013083522 0.00012629459 2.910461e-05 -7.5104304e-05 -0.00012427072
-0.0001119601 -7.655785e-05 -6.0364968e-05 -7.3078154e-05 -8.600855e-05 -5.8739628e-05 2.3061802e-05 0.0001234342
0.00017124483 0.00010642561 -7.0986614e-05 -0.0002832873 -0.00040694218 -0.00033952872 -6.835378e-05 0.00030524764
0.00060300337 -0.00013168775 0.00017833755 0.0003396147 0.00031031235 0.00012634778 -0.000120692646 -0.00032415285
-0.0004030926 -0.00032871639 -0.00012973578 0.00012535158 0.00035550664 0.00049512717 0.00051348907 0.00042075274
0.0002609875 9.6250515e-05 -1.49522675e-05 -3.8272774e-05 2.190342e-05 0.000121247205 0.00019091787 0.00016537652
1.425872e-05 -0.00023798969 0.00010523104 9.819493e-05 5.9263006e-05 5.155545e-06 -4.2220126e-05 -6.5423534e-05
00000000: 7044 e1b8 c3d9 ec37 8fb3 0339 3893 2339
00000010: 25b9 f938 8a61 1d38 7b2f 6bb8 428f 09b9
00000020: 74e0 2eb9 a86b 21b9 1763 c9b8 ab48 f3b6
00000030: f2c9 b938 63fb 2939 c9e0 4239 d4d2 1839
00000040: 3344 5438 853f 8ab8 a99a 22b9 7c06 35b9
00000050: ba60 d4b8 89c5 1938 2a6a 4039 952d 8d39
00000060: 63f9 7f39 84c6 063a c455 b839 a685 3a39
00000070: a9fc 8338 a0f1 e237 96c4 4438 3f65 a838
00000080: 573b c338 057c 9c38 87a0 1b38 b7c8 6d35
00000090: a2e8 b1b7 fc1c ffb7 e8cf 21b8 7d5c 6db8
000000a0: 78a2 b6b8 e5b8 01b9 6bf3 25b9 24a7 45b9
000000b0: a23f 65b9 56cf 83b9 57e5 90b9 870e 8bb9
000000c0: 7a2b 3db9 e81c 9335 9bf6 47b9 8222 3eb9
000000d0: 03b9 35b9 a0b1 28b9 08ce 09b9 afa4 97b8
000000e0: dcdb ac37 d4df 0f39 6448 8539 3368 b339
000000f0: 86cd c539 090b b839 fec4 8f39 791d 3539
00000100: 9d0a 9f38 d582 b736 066b 07b8 d6a0 48b8
00000110: 4448 80b8 2303 bfb8 0b70 18b9 a14e 63b9
00000120: d8ee 95b9 932d adb9 8aef aeb9 ad96 97b8
00000130: da72 12b7 22f2 ba37 529f b937 e76a 1537
00000140: ee10 8636 55fa a837 6789 6138 2602 b938
00000150: 7194 d838 56ec b638 dc65 3638 242d 39b7
00000160: b893 63b8 7d3e 90b8 94eb 52b8 e921 0bb7
00000170: 26d3 2338 e7b5 9838 aeda a638 ad59 6738
00000180: 23c1 8c36 bb7e 81b8 4100 05b9 ad09 35b9
00000190: 1560 b5b8 9d11 91b8 aaca 9db7 e663 5c38
000001a0: 6868 ff38 c53f 2d39 ee2c 3239 cf48 1139
000001b0: b194 b438 9ee2 0338 1219 4ab7 d228 2bb8
000001c0: 365d 79b8 b211 9db8 75d5 beb8 2f91 ddb8
000001d0: d52b edb8 cb41 e3b8 e8fe bdb8 6454 84b8
000001e0: 0fb1 fdb7 bdfe ce36 a5cf 4a38 f034 d238
000001f0: 5729 2b39 6aaf 19ba e935 9eb9 a1de 8737
00000200: 14a9 8d39 645f cb39 77cd b639 2d25 4539
00000210: 5924 8eb7 97a8 39b9 f51f 6bb9 cea2 10b9
00000220: 0db4 4738 839b 8639 6993 d239 a58c dc39
00000230: b999 9e39 c25f c238 b100 02b9 517c 87b9
00000240: 17f5 85b9 0b27 fbb8 023b b038 6b55 8639
00000250: f7e2 9f39 42f3 4439 89d0 3f37 be26 92b7
00000260: 1558 21b8 1dbf 4bb8 05e8 49b8 c91b 29b8
00000270: 6868 f4b7 de81 94b7 132c f6b6 1f80 1136
00000280: 8095 3e37 a8b4 a837 0b15 e437 7bae 0138
00000290: 46ef fd37 dc46 d837 9061 a237 4905 5f37
000002a0: d2d7 1237 8856 a436 e85c 69b5 5f29 3fb7
000002b0: b771 e9b7 5666 4ab8 15f6 8db8 66c6 ed39
000002c0: 8dbb b839 abf2 3339 9d0c 80b8 d799 99b9
000002d0: 0ba5 f3b9 a987 0aba cb5f f4b9 479e 9cb9
000002e0: 5df8 a4b8 ea71 0539 9f80 8939 e0dc 9c39
000002f0: a8d5 8139 f970 1839 b0b1 2838 c292 feb7
00000300: 79d2 59b8 0875 0eb8 8890 d634 aa2c eb37
00000310: 87df 1938 09e7 ee37 d912 6537 f732 3836
00000320: 1533 f9b9 bfe3 83b9 c0eb f6b6 d030 0939
00000330: f26d 0439 ad25 f437 5181 9db8 ab4e 02b9
00000340: 1fcc eab8 af8d a0b8 6430 7db8 8941 99b8
00000350: 7d5f b4b8 325f 76b8 d874 c137 1e6e 0139
00000360: 2f90 3339 d030 df38 a6de 94b8 2e86 94b9
00000370: db5a d5b9 c602 b2b9 2859 8fb8 a509 a039
00000380: df12 1e3a a915 0ab9 1f00 3b39 500e b239
00000390: 6bb1 a239 397c 0439 5f1c fdb8 0ff3 a9b9
000003a0: 2c56 d3b9 9157 acb9 af09 08b9 cf70 0339
000003b0: 4b63 ba39 6ccb 013a ab9b 063a 7a98 dc39
000003c0: 26d5 8839 1ada c938 80db 7ab7 1487 20b8
000003d0: 3cbd b737 1946 fe38 2031 4839 ec68 2d39
000003e0: bc38 6f37 df8c 79b9 7caf dc38 00ee cd38
000003f0: 2b91 7838 cbfd ac36 8415 31b8 fe33 89b8
