ckpts/finetuning/subject_01-session_07.ckpt (torch, 64013 bytes, 50 tensors)

model.input_block.temp_cov.weight f4 [40, 1, 1, 25]
0.47019127 -0.024003785 -0.5339155 -0.5439933 -0.43409142 -0.074977 0.2448902 0.49399963
0.32630435 0.34241247 -0.0039210045 -0.2453324 -0.4845413 -0.4717047 -0.44241703 -0.22777773
0.23129217 0.45595723 0.2733215 0.32398674 0.36610755 0.12377284 -0.3452771 -0.29278794
-0.5114507 -0.6755799 0.07720989 0.31446978 0.53142244 0.56822366 0.41103783 0.27233458
-0.4906349 -0.4588257 -0.4678652 -0.43331945 -0.016320564 0.6266115 0.52295655 0.5241988
0.4416949 0.008882029 -0.23027118 -0.5269194 -0.5087142 -0.4011 0.36532095 0.6177042
0.48524162 0.5757792 0.62104845 0.6631974 0.5064945 0.40424696 0.37362444 -0.29114276
-0.2749618 -0.49884453 -0.48784462 -0.4350642 -0.17063415 -0.07831825 -0.1894201 0.02845439
0.03717881 -0.17279388 -0.19057907 -0.12482048 0.15015277 0.45649114 0.28000453 0.4750108
0.6924901 0.7842604 0.670912 -0.03176129 -0.2734335 -0.48180002 -0.26951313 -0.37887654
-0.32742628 0.3120307 0.37619975 0.014794498 0.17594111 -0.12110339 -0.3009308 -0.38697127
-0.1631067 -0.17814672 0.18802394 0.2791438 0.3208199 0.17603306 -0.3349298 -0.3918365
-0.21446414 -0.2516466 -0.39781496 -0.27509734 0.308561 0.029359259 -0.40132445 -0.4315007
-0.5458166 -0.3296365 -0.44889104 -0.40797064 -0.13974147 0.1323557 0.0933133 0.26724952
-0.019839926 0.24084756 0.18387517 -0.08034632 0.11374823 0.26040184 0.35884967 0.44350228
0.3801149 -0.026579106 -0.3797505 -0.33348468 -0.74410266 -0.0059813918 -0.2960166 -0.49585503
-0.5149837 -0.5982553 -0.40860492 -0.097108394 0.09931871 0.3817214 0.47009215 0.11393175
-0.10079054 -0.29265404 -0.27670127 -0.11828173 0.10419266 0.19944769 0.37815136 0.23937243
-0.06362576 -0.30205092 -0.20918968 -0.4207035 -0.55569154 -0.59294367 0.13083085 0.40906975
0.66196364 0.8190481 0.76759905 0.39716706 0.63614964 0.25257483 0.17769417 -0.10895396
-0.21803081 -0.3146652 -0.53522444 -0.5987057 -0.514597 -0.52277344 -0.6303677 -0.38126582
-0.44877297 0.042414855 0.46692955 0.34434175 0.7083766 0.69055563 0.5090551 0.1724248
-0.026052501 -0.11812767 0.1213578 -0.21833141 -0.05732684 -0.09319105 0.09626245 0.009067438
0.054137196 0.039142624 -0.077338 -0.07974144 -0.20029508 0.068801105 0.12669541 0.13088939
-0.14004673 -0.026891408 -0.15324111 -0.082822226 -0.057466734 0.13451503 -0.080426976 0.0138942525
0.9338443 0.7535071 -0.115707815 -0.530622 -0.5875697 -0.30999774 -0.36731878 0.2981995
0.39646375 0.35396504 0.312221 0.20594169 -0.10860047 -0.34830523 -0.3441177 -0.34914014
-0.55660874 -0.17587292 0.46023953 0.23507744 0.39873496 0.475491 -0.099148296 -0.62985134
-1.0318655 -0.16453363 -0.64608544 -0.6103087 -0.59726804 -0.4798142 -0.14310524 0.46232134
0.41811416 0.4653995 0.14474691 -0.5190131 -0.45443022 -0.69120896 -0.5415182 -0.15161964
0.19439666 0.4219501 0.24880709 0.2451895 -0.037534192 -0.7030835 -0.41444045 -0.70458746
-0.44354826 -0.24937324 -0.45100382 -0.5923607 -0.58621746 -0.8189481 -0.7918136 -0.5942419
00000000: e9bc f03e 96a3 c4bc b0ae 08bf 2543 0bbf
00000010: 3b41 debe 8b8d 99bd 7fc4 7a3e 85ed fc3e
00000020: 5d11 a73e b050 af3e c57b 80bb 6b38 7bbe
00000030: cc15 f8be 4783 f1be 7c84 e2be 913e 69be
00000040: dbd7 6c3e 3a73 e93e ccf0 8b3e 97e1 a53e
00000050: 7372 bb3e 9d7c fd3d 29c8 b0be 4de8 95be
00000060: 6fee 02bf cef2 2cbf 3820 9e3d 2f02 a13e
00000070: 4d0b 083f 1b77 113f 8d73 d23e 706f 8b3e
00000080: 7f34 fbbe 34eb eabe 078c efbe 0cdc ddbe
00000090: b4b2 85bc 9c69 203f 7be0 053f e431 063f
000000a0: d525 e23e ee85 113c 35cc 6bbe 31e4 06bf
000000b0: 183b 02bf fb5c cdbe 590b bb3e dd21 1e3f
000000c0: 9771 f83e 4466 133f 08fd 1e3f 4ec7 293f
000000d0: a0a9 013f 75f9 ce3e b44b bf3e aa10 95be
000000e0: cbc7 8cbe 8d68 ffbe c5c6 f9be bcc0 debe
000000f0: b8ba 2ebe 5265 a0bd 58f7 41be 2e19 e93c
00000100: cf48 183d e1f0 30be 2927 43be e1a1 ffbd
00000110: a6c1 193e 35b9 e93e c15c 8f3e 9e34 f33e
00000120: 0847 313f 4ac5 483f e4c0 2b3f 2018 02bd
00000130: 7aff 8bbe 7eae f6be a0fd 89be 1bfc c1be
00000140: 6ba4 a7be 7dc2 9f3e 419d c03e 9f64 723c
00000150: e829 343e 0e05 f8bd 9a13 9abe 1921 c6be
00000160: 7105 27be 186c 36be 5989 403e f0eb 8e3e
00000170: 8242 a43e 0342 343e eb7b abbe cb9e c8be
00000180: 7d9c 5bbe d3d7 80be 67ae cbbe 8fd9 8cbe
00000190: b5fb 9d3e d482 f03c 667a cdbe a9ed dcbe
000001a0: a3ba 0bbf 1ec6 a8be 0cd5 e5be 87e1 d0be
000001b0: 6318 0fbe 4188 073e 0b1b bf3d eed4 883e
000001c0: 5787 a2bc bea0 763e c649 3c3e 9d8c a4bd
000001d0: d5f4 e83d 6453 853e 25bb b73e bb12 e33e
000001e0: 6c9e c23e 6dbc d9bc a86e c2be 81be aabe
000001f0: 837d 3ebf 8dff c3bb 7d8f 97be b6e0 fdbe
00000200: f9d5 03bf 4227 19bf aa34 d1be c4e0 c6bd
00000210: 9c67 cb3d fd70 c33e ebaf f03e 0d55 e93d
00000220: 456b cebd c0d6 95be caab 8dbe b13d f2bd
00000230: f662 d53d 043c 4c3e 0e9d c13e 0c1e 753e
00000240: 394e 82bd 6ba6 9abe d235 56be 7366 d7be
00000250: cd41 0ebf 28cb 17bf 86f8 053e 9771 d13e
00000260: 7376 293f 23ad 513f 5f81 443f 7b59 cb3e
00000270: b4da 223f 7d51 813e 76f5 353e 4123 dfbd
00000280: 7843 5fbe cc1b a1be 7804 09bf c744 19bf
00000290: a1bc 03bf 7bd4 05bf c75f 21bf 4635 c3be
000002a0: 92c5 e5be 33bb 2d3d 6411 ef3e 904d b03e
000002b0: 2b58 353f 41c8 303f 6f51 023f 2090 303e
000002c0: 0e6c d5bc ebec f1bd 708a f83d 4592 5fbe
000002d0: 8ccf 6abd f3da bebd 3f25 c53d 978f 143c
000002e0: f7be 5d3d 0454 203d 6363 9ebd 7b4f a3bd
000002f0: 271a 4dbe 98e7 8c3d 71bc 013e de07 063e
00000300: 6968 0fbe 5f4b dcbc 3deb 1cbe b39e a9bd
00000310: 3d62 6bbd 4fbe 093e e6b6 a4bd b8a4 633c
00000320: 6c10 6f3f d7e5 403f 38f8 ecbd d8d6 07bf
00000330: f86a 16bf 06b8 9ebe 3511 bcbe 9bad 983e
00000340: 4cfd ca3e e83a b53e 6edb 9f3e 61e2 523e
00000350: ec69 debd 1055 b2be 3230 b0be 7fc2 b2be
00000360: e97d 0ebf 0818 34be 84a4 eb3e 24b8 703e
00000370: fd26 cc3e 8e73 f33e 430e cbbd f03d 21bf
00000380: 2b14 84bf 817b 28be db65 25bf 313d 1cbf
00000390: 8fe6 18bf 35aa f5be 2e8a 12be 62b5 ec3e
000003a0: 0f13 d63e d848 ee3e 8938 143e 0bde 04bf
000003b0: 14ab e8be 12f3 30bf f0a0 0abf 2e42 1bbe
000003c0: eb0f 473e d809 d83e 49c7 7e3e f512 7b3e
000003d0: 74bd 19bd 48fd 33bf 8a31 d4be d85f 34bf
000003e0: c218 e3be b35b 7fbe f9e9 e6be f3a4 17bf
000003f0: 5912 16bf 95a6 51bf 4cb4 4abf 3d20 18bf

model.input_block.bn1.weight f4 [40]
1.445546 1.5208961 1.5296798 1.3088281 1.3761065 1.3677069 1.6465428 0.8714977
1.5946828 1.5490404 1.7236847 1.9627205 1.2906085 0.7107652 0.9197742 1.615826
1.1476464 1.2611454 1.4743283 1.3333471 1.4528303 1.4263496 1.4475431 0.7871812
1.2711797 1.2760675 1.439528 1.3364408 1.339063 1.5651103 1.3827268 1.5021547
0.012166001 1.4665776 0.95239806 1.17918 1.5167397 1.4183388 1.2986244 1.4924175
00000000: a707 b93f b9ac c23f 8ccc c33f ae87 a73f
00000010: 4224 b03f 0511 af3f eac1 d23f 791a 5f3f
00000020: 911e cc3f f546 c63f b3a1 dc3f 6d3a fb3f
00000030: a932 a53f b5f4 353f 5276 6b3f 63d3 ce3f
00000040: 14e6 923f 366d a13f cab6 bc3f 1eab aa3f
00000050: 58f6 b93f a092 b63f 1849 b93f b584 493f
00000060: 04b6 a23f 2e56 a33f 7442 b83f 7e10 ab3f
00000070: 6b66 ab3f 8955 c83f 31fd b03f 9b46 c03f
00000080: e853 473c d1b8 bb3f 5cd0 733f 5fef 963f
00000090: 8724 c23f 208c b53f 5339 a63f 8907 bf3f

model.input_block.bn1.bias f4 [40]
-0.25631273 -0.099595 0.02611404 0.020968279 0.07942551 0.17698534 -0.4783757 -1.5843613
-0.15249072 -0.1262133 0.099209145 0.44307998 0.329737 -2.423401 1.7052423 -0.23159856
1.5998222 -0.8938114 -0.08300297 0.05810231 -0.0538489 0.013485626 0.06042268 -2.0510714
0.017152818 0.13712922 0.15650089 -0.10343767 -0.16960217 0.4075987 -0.12451246 -0.19290313
2.8669286 0.6835153 -1.7249905 -0.1891989 0.0333455 0.031505663 0.10461684 -0.41531622
00000000: 6c3b 83be 77f8 cbbd 1ced d53c abc5 ab3c
00000010: d7a9 a23d a53b 353e a9ed f4be 5acc cabf
00000020: 8726 1cbe 0f3e 01be 2a2e cb3d 61db e23e
00000030: 4ad3 a83e 0119 1bc0 6145 da3f 2c28 6dbe
00000040: f9c6 cc3f d3d0 64bf 76fd a9bd b0fc 6d3d
00000050: aa90 5cbd d1f2 5c3c c67d 773d c144 03c0
00000060: 1184 8c3c 9a6b 0c3e c541 203e 21d7 d3bd
00000070: 31ac 2dbe c7b0 d03e 6300 ffbd 6688 45be
00000080: c27b 3740 dcfa 2e3f 7dcc dcbf 5bbd 41be
00000090: 4a95 083d 150c 013d 5b41 d63d 54a4 d4be

model.input_block.bn1.running_mean f4 [40]
9.912308e-07 -3.036865e-06 2.8491404e-06 -1.1952629e-06 -3.4232326e-06 -2.2740032e-06 1.0655917e-05 1.7789057e-07
5.932733e-06 -1.2870692e-06 -6.636368e-06 -5.7963166e-06 -8.503738e-07 -1.4059466e-07 1.9413576e-06 7.9771935e-06
2.4897005e-07 -1.9834974e-07 -1.9077515e-06 -7.211738e-07 4.348267e-06 4.545585e-06 -4.3960554e-06 -2.985811e-07
-3.9096576e-06 -1.4336456e-06 2.0133812e-06 9.794983e-07 1.092894e-06 8.097994e-06 -4.5954666e-06 -7.3090646e-06
-6.151115e-07 -6.269572e-06 6.1762694e-07 3.6830943e-07 4.3435034e-07 2.4328534e-07 -3.8833923e-06 -2.419573e-07
00000000: 6e0a 8535 f2cc 4bb6 dc33 3f36 ec6c a0b5
00000010: b0ba 65b6 149b 18b6 d1c6 3237 3002 3f34
00000020: ca11 c736 5cbf acb5 f8ad deb6 fb7d c2b6
00000030: 3e45 64b5 5ef6 16b4 4548 0236 c9d5 0537
00000040: 2faa 8534 f6f9 54b4 ec06 00b6 b096 41b5
00000050: 54e7 9136 4786 9836 d481 93b6 ad4c a0b4
00000060: b42f 83b6 b06b c0b5 a01d 0736 4e77 8335
00000070: 8daf 9235 9fdc 0737 c232 9ab6 6340 f5b6
00000080: 241e 25b5 375f d2b6 00cb 2535 10bc c534
00000090: a830 e934 e29c 8234 164e 82b6 5ce6 81b4

model.input_block.bn1.running_var f4 [40]
0.045506187 0.07055657 0.08489727 0.025727348 0.045165397 0.04768779 0.13776541 0.0007738498
0.057821695 0.07038169 0.12741396 0.12528703 0.0138047375 0.00016258802 0.0048582354 0.118126005
0.0047731865 0.013950616 0.059629813 0.026080616 0.04662782 0.0724377 0.0458107 5.7774843e-05
0.033010896 0.021812554 0.032588452 0.021651052 0.035757042 0.09757559 0.02886745 0.0872122
0.00015034902 0.05083517 0.00046577377 0.010578381 0.07227929 0.04264266 0.034765076 0.06960483
00000000: b264 3a3d f77f 903d 9fde ad3d 29c2 d23c
00000010: 5aff 383d 4654 433d 6012 0d3e 2edc 4a3a
00000020: 71d6 6c3d 4724 903d ce78 023e 3e4b 003e
00000030: 442d 623c 647c 2a39 d531 9f3b 0cec f13d
00000040: 6468 9c3b 2091 643c 643e 743d 04a7 d53c
00000050: d0fc 3e3d 385a 943d 00a4 3b3d 4453 7238
00000060: 6f36 073d 3eb0 b23c 787b 053d 8c5d b13c
00000070: fa75 123d b6d5 c73d 6e7b ec3c 4f9c b23d
00000080: 02a7 1d39 8a38 503d 1933 f439 f250 2d3c
00000090: 2a07 943d 12aa 2e3d d365 0e3d fa8c 8e3d

model.input_block.spat_conv.weight f4 [40, 1, 24, 1]
-0.19013238 -0.14822018 0.060916536 -0.094772235 0.09865111 0.5751239 -0.512435 -0.30897582
-0.12358944 -0.026311565 -0.00015508936 0.15862569 -0.03623068 -0.32014915 -0.8220938 0.0025895855
-0.08960417 -0.14479744 -0.3317647 -0.008336854 0.02518495 -0.20622519 -0.349635 0.08202991
0.11922075 0.027460229 0.05591083 0.13963586 0.35188147 0.3288374 0.23873782 0.60960597
0.15544732 0.13580555 -0.078938246 0.08472896 -0.010521027 -0.6120104 -0.9359043 0.10727013
0.109275356 0.20365454 -0.0758791 -0.0029492588 0.02675518 0.03577733 0.2177705 0.23725754
0.31787047 0.3251289 -0.11539747 -0.09197031 0.08369515 0.08343425 0.25084668 0.23810394
0.32206047 -0.10141725 -0.25654745 -0.12939273 0.06329819 0.48755768 0.86336046 0.15728953
-0.13627279 -0.52305204 -0.54315084 -0.5736752 0.2329857 0.14545164 0.10097465 0.22323103
0.07612544 0.046980392 0.41781417 0.20557041 0.050449185 -0.07480175 0.11544828 0.10048227
0.19332752 -0.47456065 -0.66232145 0.18122397 0.09352024 0.030181108 -0.09265523 0.10317969
0.06214719 -0.28029084 -0.4267031 0.23537426 -0.08972732 0.08507058 -0.14194453 -0.17311816
0.25333923 0.14181472 0.2538067 0.41640368 0.24526533 -0.21425731 -0.24185139 0.090246156
-0.01017215 -0.1436852 -0.90958333 0.1828231 0.22781667 -0.123938724 0.051993955 -0.032631587
0.14403658 0.09892737 -0.35314536 -0.13086684 0.0058949646 -0.41581163 0.022899304 -0.121519364
-0.1765879 -0.16782576 -0.06975592 -0.16642553 0.04923053 0.5122684 -0.14343703 -0.23273373
-0.025255868 -0.09739403 0.11790439 -0.12679073 -0.0017244234 0.32850665 -1.0058926 -0.14952949
0.06790924 -0.0335818 0.27150294 0.027853519 -0.18775895 -0.10220658 -0.39481848 0.002910026
0.05716921 -0.17166132 -0.472331 -0.82140476 -0.044833694 0.48838943 0.18334787 -0.36016515
-0.14914681 0.23189801 0.030572204 -0.64679337 -0.0149092525 0.3732913 -0.8422892 -0.22071023
-0.33601502 -0.12900561 0.25824395 0.01756817 -0.17046162 -0.46408725 -0.54960114 -0.23945539
-1.1525251 -1.2068534 -1.2934515 -0.9433315 -1.2082069 -1.237953 -1.1195214 -1.1418834
-1.0207303 -1.2719113 -1.5701945 -1.3338408 -1.0771996 -1.2754059 -0.8397747 -1.1424477
-1.3513862 -1.1255879 -1.4134139 -0.9583129 -0.75801706 -1.3058858 -1.003506 -1.1940237
0.14079782 0.09860029 0.17696096 0.10723893 0.37567055 0.69684654 -0.033545163 0.4814164
0.12024343 0.15222551 0.13951635 0.10165141 0.07005805 -0.1987466 -1.1926787 -0.009181947
0.01274985 -0.031654622 -0.06857692 0.02525211 -0.00116566 -0.006680015 -0.22458978 0.2964881
0.048563145 -0.06595134 -0.048939954 -0.08534042 -0.1752441 -0.68707025 0.28242445 0.27017727
0.13865048 0.1352587 0.18954785 -0.0037732772 -0.042406857 -0.49563223 1.0129379 0.15864325
0.06859932 0.24989536 0.11791454 -0.00011079408 0.025697144 0.17299034 0.4040729 -0.017386582
-0.3251526 -0.23875706 0.0062620696 -0.05474725 -0.519904 -0.7781134 -0.18282706 -0.07297462
-0.103908 0.1901424 0.7320873 -0.19824518 -0.31968653 -0.3933244 0.9464927 0.17452222
00000000: 10b2 42be 08c7 17be 9e83 793d f217 c2bd
00000010: 9809 ca3d 523b 133f f12e 03bf 1432 9ebe
00000020: 761c fdbd 5a8b d7bc 7c9f 22b9 c66e 223e
00000030: 9f66 14bd 97ea a3be bd74 52bf 09b6 293b
00000040: 6482 b7bd c845 14be 10dd a9be 4d97 08bc
00000050: ab50 ce3c b22c 53be 5c03 b3be 4cff a73d
00000060: 022a f43d 46f4 e03c c102 653d b4fc 0e3e
00000070: cf29 b43e 605d a83e b077 743e 230f 1c3f
00000080: 952d 1f3e 9c10 0b3e 60aa a1bd 6186 ad3d
00000090: 6360 2cbc b7ac 1cbf 6d97 6fbf 71b0 db3d
000000a0: c2cb df3d d18a 503e 8066 9bbd 5a48 41bb
000000b0: ae2d db3c 408b 123d 3bff 5e3e a4f3 723e
000000c0: ebbf a23e 4c77 a63e 8255 ecbd ee5a bcbd
000000d0: 5d68 ab3d 93df aa3d fa6e 803e 85d1 733e
000000e0: 1ce5 a43e d9b3 cfbd 305a 83be 877f 04be
000000f0: 7ba2 813d 29a1 f93e 3105 5d3f 8210 213e
00000100: 188b 0bbe bde6 05bf ef0b 0bbf 61dc 12bf
00000110: ce93 6e3e 46f1 143e cccb ce3d ad96 643e
00000120: a8e7 9b3d 836e 403d bdeb d53e 0d81 523e
00000130: cea3 4e3d a931 99bd 2670 ec3d a6c9 cd3d
00000140: a6f7 453e 9df9 f2be e68d 29bf c792 393e
00000150: 8a87 bf3d 5f3e f73c 06c2 bdbd e04f d33d
00000160: 0d8e 7e3d 4882 8fbe d478 dabe f305 713e
00000170: f5c2 b7bd 7c39 ae3d e859 11be e345 31be
00000180: aeb5 813e e137 113e f4f2 813e dd32 d53e
00000190: d626 7b3e 4566 5bbe e4a7 77be fad2 b83d
000001a0: 17a9 26bc 3722 13be 74da 68bf fb35 3b3e
000001b0: c648 693e 96d3 fdbd 9df7 543d b3a8 05bd
000001c0: 537e 133e 6f9a ca3d 78cf b4be f501 06be
000001d0: 8c2a c13b 43e5 d4be 5297 bb3c 25df f8bd
000001e0: 75d3 34be 84da 2bbe 31dc 8ebd 746b 2abe
000001f0: f4a5 493d 0624 033f 28e1 12be c051 6ebe
00000200: 65e5 cebc 8576 c7bd db77 f13d 6ed5 01be
00000210: 0c06 e2ba 0632 a83e 17c1 80bf 421e 19be
00000220: 0014 8b3d 128d 09bd 6f02 8b3e 102d e43c
00000230: e243 40be af51 d1bd a625 cabe 23b6 3e3b
00000240: 432a 6a3d fcc7 2fbe 5ed5 f1be 9547 52bf
00000250: 89a3 37bd 2e0e fa3e 8bbf 3b3e 9167 b8be
00000260: f1b9 18be ac76 6d3e 8f72 fa3c 4094 25bf
00000270: f045 74bc 0a20 bf3e 44a0 57bf dd01 62be
00000280: 290a acbe 0c1a 04be 8d38 843e 1feb 8f3c
00000290: 7e8d 2ebe d89c edbe a9b2 0cbf cb33 75be
000002a0: f185 93bf 2c7a 9abf d28f a5bf 2c7e 71bf
000002b0: 86a6 9abf 3e75 9ebf 7a4c 8fbf 3c29 92bf
000002c0: 4aa7 82bf fdcd a2bf 22fc c8bf 4cbb aabf
000002d0: ade1 89bf 8040 a3bf 7afb 56bf ba3b 92bf
000002e0: 39fa acbf 4413 90bf bfea b4bf ff53 75bf
000002f0: 680d 42bf 4427 a7bf e272 80bf c5d5 98bf
00000300: 4e2d 103e f3ee c93d 4135 353e 16a0 db3d
00000310: e457 c03e 8964 323f a766 09bd 367c f63e
00000320: 3042 f63d 01e1 1b3e 60dd 0e3e 9d2e d03d
00000330: 987a 8f3d 3b84 4bbe b2a9 98bf e16f 16bc
00000340: bfe4 503c 47a8 01bd 0e72 8cbd 83dd ce3c
00000350: 0fc9 98ba 07e4 dabb ddfa 65be 4acd 973e
00000360: 26ea 463d 7f11 87bd 4375 48bd f5c6 aebd
00000370: 3073 33be d6e3 2fbf f099 903e ad54 8a3e
00000380: 64fa 0d3e 4281 0a3e d518 423e 1649 77bb
00000390: d0b2 2dbd 82c3 fdbe f3a7 813f 6073 223e
000003a0: cd7d 8c3d 92e4 7f3e 2e7d f13d 1e5a e8b8
000003b0: d182 d23c 6124 313e a5e2 ce3e 4e6e 8ebc
000003c0: 677a a6be bb7c 74be 0c32 cd3b a73e 60bd
000003d0: 6e18 05bf 7132 47bf 0437 3bbe b873 95bd
000003e0: b8cd d4bd b0b4 423e 136a 3b3f c900 4bbe
000003f0: f4ad a3be d161 c9be 584d 723f f4b5 323e

model.input_block.bn2.weight f4 [40]
1.4406118 1.521454 1.5287911 1.3086411 1.3765107 1.3680803 1.6446359 0.984924
1.5974387 1.5501254 1.7219343 1.9612498 1.2863457 0.922095 1.0666447 1.6150556
1.2063433 1.2810106 1.4766573 1.3333358 1.4532245 1.4267447 1.4473906 1.0381457
1.2707926 1.2767957 1.4408132 1.3368537 1.3408748 1.5580829 1.3842963 1.501176
2.0378404 1.4710122 1.0488905 1.1750802 1.5174781 1.4189473 1.300073 1.4872899
00000000: f865 b83f 01bf c23f 6daf c33f 8d81 a73f
00000010: 8131 b03f 411d af3f 6e83 d23f fb23 7c3f
00000020: df78 cc3f 826a c63f 5868 dc3f 3c0a fb3f
00000030: faa6 a43f 6b0e 6c3f d087 883f 24ba ce3f
00000040: 7569 9a3f 28f8 a33f 1b03 bd3f bfaa aa3f
00000050: 4303 ba3f 929f b63f 1844 b93f f5e1 843f
00000060: 55a9 a23f 0b6e a33f 916c b83f 061e ab3f
00000070: c9a1 ab3f 436f c73f 9f30 b13f 8926 c03f
00000080: fa6b 0240 214a bc3f 0b42 863f 0769 963f
00000090: b93c c23f 11a0 b53f cb68 a63f 845f be3f

model.input_block.bn2.bias f4 [40]
0.22550385 -0.08494611 0.031550657 -0.0186259 -0.0859291 -0.20919023 0.45022443 1.2011544
-0.23604818 -0.12801197 0.1372891 0.5079807 0.2977104 2.066051 1.3896539 0.25217405
1.2949281 0.7759482 -0.0069812974 -0.054121964 -0.059326682 -0.022486582 0.109568834 1.9299885
-0.14670916 -0.14432079 -0.08449712 -0.13602206 -0.16500789 0.3469883 -0.15805045 0.24801631
-1.3085756 0.6241322 1.2647032 -0.20821507 0.09588468 0.02665444 -0.107514925 0.35940424
00000000: 7bea 663e 3af8 adbd 433b 013d 5895 98bc
00000010: 99fb afbd f735 56be d183 e63e 6dbf 993f
00000020: 9db6 71be 9215 03be 8495 0c3e 060b 023f
00000030: 7f6d 983e 2e3a 0440 2ee0 b13f f51c 813e
00000040: 34c0 a53f 8ba4 463f 5ec3 e4bb feae 5dbd
00000050: 8900 73bd c835 b8bc a065 e03d dd09 f73f
00000060: ed3a 16be d4c8 13be d30c adbd 5e49 0bbe
00000070: d4f7 28be 73a8 b13e fad7 21be fdf7 7d3e
00000080: 687f a7bf 21c7 1f3f cbe1 a13f 5536 55be
00000090: 305f c43d 6a5a da3c c930 dcbd d503 b83e

model.input_block.bn2.running_mean f4 [40]
0.694793 -0.14604488 0.036855973 -0.008944241 -0.044796284 -0.30175406 1.9099131 44.27451
-0.18746573 -0.20863345 0.02172812 1.9481796 1.258987 99.02111 57.388565 0.3418342
43.097393 14.798761 -0.14979789 -0.016828382 -0.06789084 -0.0035977417 -0.034751985 84.02459
0.013578257 -0.0623434 -0.17378113 -0.14027555 -0.31901887 1.7927697 -0.09665175 0.1575643
-153.69026 3.997608 50.588516 -0.59023505 0.04077406 -0.01029729 -0.016341826 1.7560189
00000000: f4dd 313f ca8c 15be 4af6 163d de8a 12bc
00000010: 4f7c 37bd 827f 9abe 0878 f43f 1919 3142
00000020: 04f7 3fbe 02a4 55be 2cff b13c f35d f93f
00000030: 7c26 a13f cf0a c642 e48d 6542 e404 af3e
00000040: bb63 2c42 bac7 6c41 9e64 19be addb 89bc
00000050: 5a0a 8bbd 17c8 6bbb 1958 0ebd 970c a842
00000060: 5677 5e3c cb5b 7fbd aef3 31be 65a4 0fbe
00000070: 7156 a3be 7a79 e53f 5af1 c5bd 8958 213e
00000080: b5b0 19c3 cfd8 7f40 a45a 4a42 a519 17bf
00000090: b302 273d f7b5 28bc 4bdf 85bc 3ac5 e03f

model.input_block.bn2.running_var f4 [40]
4.847782 6.1985326 7.0195518 2.513227 3.712199 3.8728416 8.797164 16.872066
8.433634 6.6439013 10.940603 20.18356 2.6864562 26.290033 33.85839 5.9892077
44.23934 15.21472 5.7718205 3.660045 6.0285378 4.2753677 4.6354165 28.903996
2.1325126 2.0989752 4.823096 3.9311907 4.1160755 6.8326316 3.1952372 5.509118
0.017047763 9.639143 30.346546 2.4607928 6.579539 3.8694794 2.7691264 5.482098
00000000: 0821 9b40 615a c640 2ba0 e040 b6d8 2040
00000010: ab94 6d40 a3dc 7740 2fc1 0c41 fef9 8641
00000020: 2af0 0641 d79a d440 b60c 2f41 ee77 a141
00000030: e6ee 2b40 fd51 d241 fe6e 0742 97a7 bf40
00000040: 16f5 3042 7e6f 7341 c1b2 b840 2d3e 6a40
00000050: c8e9 c040 d0cf 8840 5555 9440 623b e741
00000060: 167b 0840 9c55 0640 cd56 9a40 a198 7b40
00000070: e4b6 8340 eba4 da40 c47e 4c40 b24a b040
00000080: c0a7 8b3c ee39 1a41 bac5 f241 a17d 1d40
00000090: 958b d240 8da5 7740 5e39 3140 596d af40

model.channel_expansion.conv.weight f4 [16, 40, 1, 1]
0.38502887 0.3095009 0.033334374 0.2038192 0.1549878 0.33126956 -0.17621918 0.11126224
0.40713403 -0.17427969 -1.2384953 0.16015673 0.20782308 0.14252456 0.18751124 -0.54766864
0.28815183 0.2868623 0.3348104 -0.067989774 0.12150929 -0.80644816 0.3301311 0.20454735
-0.07732023 0.030206453 0.07824764 -0.1781066 -0.11465786 0.45014402 -0.25857517 0.1209343
-0.2041838 0.16186282 0.12917311 0.15130582 0.24581178 0.31454974 0.07993794 0.3478757
-0.103043884 -0.42773506 -0.070563026 0.34537554 0.38743362 -0.17587374 -0.039720323 0.0484911
-0.2442996 -0.37246302 -1.040054 -0.15935089 -0.15107122 0.017975159 0.060720816 -0.48700124
0.001010804 0.07217392 -0.30441374 0.27937537 -0.050699405 -0.43742743 0.021728775 -0.07001949
0.4239871 0.46307692 0.38486034 0.010133701 0.2766839 0.32766718 0.31508124 0.24776882
-0.0020888068 -0.028410602 -0.04483688 0.49949703 -0.27543798 -0.1826506 0.38992804 -0.09105764
0.30857834 0.45697248 0.4380729 0.692015 0.7211259 -0.47051218 1.0660505 0.4523931
0.07851687 0.2401165 0.038376357 -0.12157185 0.49397776 0.5055961 0.37833935 0.33615413
0.70769185 0.43916315 -0.013629129 0.37763688 0.57478654 0.31935635 0.020141577 0.52528256
-0.44448265 0.38044718 0.17278785 0.65601826 -0.16827565 0.29142502 0.2876396 1.1102046
-0.93746185 1.2382802 0.59679985 0.15826978 0.47937924 0.4185428 0.7058853 -0.368775
-0.09214628 -0.25664875 -0.20092952 0.24005865 0.07412596 -0.1310489 -0.034713663 0.07557303
-0.39711338 -0.29390195 -0.1810452 -0.20611523 0.10181888 -0.15996546 -0.04776215 -0.08855739
0.027479066 0.026278336 -0.2647572 0.293235 -0.32112867 -0.10555881 -0.106684335 -0.048429426
0.2098445 0.29144087 0.21048819 -0.031102 0.32722962 0.023102999 0.23743437 -0.022601517
0.044652537 0.14440784 0.037280865 0.0576909 -0.23009193 -0.19193926 0.1816497 0.011297786
0.17986305 0.4847386 -1.0950003 0.03836971 0.024711732 0.24006228 0.27856255 0.27146646
0.67618144 0.23249069 0.0016754068 0.07924638 0.04693305 0.20766453 0.06979451 0.13384421
0.22909497 0.033726986 0.38032117 0.00024807427 0.15784387 0.34013763 0.13036308 0.052837864
-0.2213598 0.009199177 0.04179419 -0.12203708 -0.19296363 0.06404714 -0.027060173 0.25487736
-0.16739638 0.13897538 0.13669164 0.011307963 0.33896393 0.057433624 0.103498615 0.14022543
0.7806786 0.5910044 0.19120817 0.7496925 1.144004 -1.0437516 1.0080106 0.916897
0.28151956 0.747188 0.44829828 -0.44593024 0.71281815 0.98219115 0.7524467 0.76501924
1.011122 0.7411621 -0.37175635 0.4665987 0.61176544 0.60612214 -0.00255176 0.81926024
-0.18131903 0.3790189 0.5589483 0.5207092 0.23910049 -0.0648931 0.4644416 1.3403068
-1.1725152 1.2673709 0.8634522 0.20197806 0.5872028 0.69222206 0.8930106 -0.18259045
0.069097854 -0.2035448 0.05532298 0.20024621 -0.568971 0.015134689 -0.0928379 0.06268382
-0.3199355 -0.14808407 0.15665188 0.09752959 0.11021098 -0.060334645 0.18730284 0.17527612
00000000: 8122 c53e e776 9e3e a089 083d fbb5 503e
00000010: 1fb5 1e3e 2a9c a93e cd72 34be 75dd e33d
00000020: df73 d03e 6076 32be 0487 9ebf 2000 243e
00000030: 93cf 543e f5f1 113e f202 403e 0334 0cbf
00000040: a388 933e 9edf 923e 456c ab3e 393e 8bbd
00000050: ddd9 f83d 6373 4ebf f206 a93e dc74 513e
00000060: 125a 9ebd 8673 f73c 4c40 a03d 9461 36be
00000070: bdd1 eabd 4779 e63e f763 84be 67ac f73d
00000080: 8f15 51be 5ebf 253e f545 043e eaef 1a3e
00000090: 15b6 7b3e aa0c a13e 81b6 a33d c41c b23e
000000a0: ac08 d3bd 1700 dbbe 5983 90bd 10d5 b03e
000000b0: b35d c63e 3f18 34be c7b1 22bd 9b9e 463d
000000c0: ad29 7abe 79b3 bebe 7d20 85bf e12c 23be
000000d0: 6ab2 1abe a440 933c 64b6 783d 3a58 f9be
000000e0: f47c 843a eccf 933d 1edc 9bbe 4a0a 8f3e
000000f0: 2eaa 4fbd 7df6 dfbe 8b00 b23c 6166 8fbd
00000100: d614 d93e 6b18 ed3e 6a0c c53e d307 263c
00000110: 83a9 8d3e fec3 a73e 5452 a13e 1cb7 7d3e
00000120: 5de4 08bb 5abd e8bc e0a6 37bd 13be ff3e
00000130: 3506 8dbe c208 3bbe a6a4 c73e 6e7c babd
00000140: fbfd 9d3e 4cf8 e93e 174b e03e e527 313f
00000150: b59b 383f f9e6 f0be 5874 883f 12a0 e73e
00000160: 74cd a03d 1ae1 753e 8730 1d3d a9fa f8bd
00000170: a7ea fc3e bf6e 013f b2b5 c13e 651c ac3e
00000180: 4b2b 353f fed9 e03e b64c 5fbc 9f59 c13e
00000190: 3625 133f ad82 a33e f3ff a43c eb78 063f
000001a0: 3b93 e3be f9c9 c23e 4cef 303e d0f0 273f
000001b0: 7450 2cbe a935 953e 7f45 933e 2f1b 8e3f
000001c0: 80fd 6fbf f77f 9e3f e0c7 183f 7911 223e
000001d0: 3271 f53e 3e4b d63e e6b4 343f 14d0 bcbe
000001e0: 30b7 bcbd 7767 83be 78c0 4dbe efd1 753e
000001f0: 5acf 973d af31 06be ea2f 0ebd 08c6 9a3d
00000200: 7252 cbbe 517a 96be ea63 39be df0f 53be
00000210: 6b86 d03d fccd 23be 3fa2 43bd 945d b5bd
00000220: c71b e13c aa45 d73c 418e 87be e622 963e
00000230: fa6a a4be 382f d8bd 517d dabd ef5d 46bd
00000240: 7ae1 563e bd37 953e 378a 573e 9fc9 febc
00000250: a48a a73e 8042 bd3c ff21 733e d126 b9bc
00000260: 94e5 363d a6df 133e d2b3 183d 4b4d 6c3d
00000270: 389d 6bbe ba8b 44be 6102 3a3e 591a 393c
00000280: 052e 383e a82f f83e f828 8cbf 8f29 1d3d
00000290: 4270 ca3c e3d2 753e c09f 8e3e a7fd 8a3e
000002a0: 3a1a 2d3f 0a12 6e3e 5399 db3a ed4b a23d
000002b0: df3c 403d 03a6 543e 6df0 8e3d 750e 093e
000002c0: df97 6a3e 4f25 0a3d 75b9 c23e f70f 8239
000002d0: d3a1 213e 8526 ae3e e67d 053e 846c 583d
000002e0: 25ac 62be 25b8 163c 6230 2b3d 94ee f9bd
000002f0: 4298 45be 262b 833d 4cad ddbc 497f 823e
00000300: f569 2bbe 904f 0e3e e5f8 0b3e 0945 393c
00000310: ae8c ad3e 853f 6b3d 15f7 d33d 4197 0f3e
00000320: 8dda 473f 104c 173f 13cc 433e d9eb 3f3f
00000330: b96e 923f a799 85bf 7e06 813f c3b9 6a3f
00000340: 5523 903e b647 3f3f 5a87 e53e f850 e4be
00000350: 407b 363f e170 7b3f 59a0 403f 4dd8 433f
00000360: 726c 813f cdbc 3d3f d956 bebe 06e6 ee3e
00000370: a99c 1c3f d22a 1b3f 6e3b 27bb 0abb 513f
00000380: b2ab 39be c40e c23e 3c17 0f3f 334d 053f
00000390: c2d6 743e ace6 84bd 4acb ed3e 2c8f ab3f
000003a0: fa14 96bf 3639 a23f 340b 5d3f 56d3 4e3e
000003b0: ec52 163f 7735 313f 589c 643f fef8 3abe
000003c0: 2d83 8d3d 0c6e 50be 599a 623d 580d 4d3e
000003d0: 15a8 11bf 7df7 773c cc21 bebd 6060 803d
000003e0: 96ce a3be 5aa3 17be 5a69 203e 98bd c73d
000003f0: 4bb6 e13d 7621 77bd 51cc 3f3e 957b 333e

model.channel_expansion.bn.weight f4 [16]
1.4115778 1.5428846 2.1784933 1.2418617 1.303217 1.4716009 1.169446 1.2350677
-0.09754118 1.2808652 1.28792 1.4832673 1.5769538 1.3010638 1.3472342 1.2344815
00000000: 95ae b43f 3e7d c53f 6f6c 0b40 53f5 9e3f
00000010: d1cf a63f 6b5d bc3f 68b0 953f b316 9e3f
00000020: acc3 c7bd 64f3 a33f 90da a43f b4db bd3f
00000030: 9fd9 c93f 4289 a63f 2c72 ac3f 7d03 9e3f

model.channel_expansion.bn.bias f4 [16]
0.25931352 -0.06483768 0.78973883 -0.031522673 0.20959854 1.2579678 0.08280962 -0.013952045
1.0020086 0.5081742 0.24096408 1.4256457 0.70870656 0.13852687 0.1059024 -0.070896246
00000000: bec4 843e 9ec9 84bd 532c 4a3f eb1d 01bd
00000010: 00a1 563e 1705 a13f 1798 a93d 1e97 64bc
00000020: d141 803f b417 023f 4abf 763e 8f7b b63f
00000030: cb6d 353f fdd9 0d3e 5ce3 d83d 0d32 91bd

model.channel_expansion.bn.running_mean f4 [16]
2.404129 -0.7573757 9.606333 -0.78642243 2.6311882 14.24045 0.786955 0.31664824
11.92292 5.105806 3.2435126 11.694902 7.6546926 2.4648042 1.4339027 -0.8368537
00000000: 40dd 1940 60e3 41bf 8ab3 1941 fb52 49bf
00000010: 6365 2840 e2d8 6341 e275 493f b81f a23e
00000020: 48c4 3e41 c362 a340 b695 4f40 521e 3b41
00000030: 3ef3 f440 5abf 1d40 208a b73f 0b3c 56bf

model.channel_expansion.bn.running_var f4 [16]
17.881886 13.04864 39.67948 3.107087 5.7841034 73.9677 1.7146904 1.8480754
31.298742 14.845753 4.4970245 56.248077 34.15412 3.958451 3.7582235 2.6414552
00000000: 1a0e 8f41 3bc7 5041 cab7 1e42 83da 4640
00000010: 6017 b940 76ef 9342 fa7a db3f bc8d ec3f
00000020: d363 fa41 3488 6d41 a0e7 8f40 08fe 6042
00000030: d29d 0842 4357 7d40 bc86 7040 9a0d 2940

model.fe.conv1.weight f4 [16, 1, 1, 15]
0.013256921 -0.3327862 -0.494183 -0.6518297 -0.16930315 -0.14615016 -0.31795993 -0.5905873
-0.15343548 -0.3744107 -0.59558195 -0.30380574 -0.3052301 -0.17107518 -0.7647687 -0.560484
-0.58959615 -0.1403556 0.61244804 0.022372223 -0.4907125 0.13674904 0.61532354 -0.019155264
-0.31405082 -0.12771706 0.53064966 -0.4124873 -0.4050843 0.09934926 0.31791836 -0.016116824
-0.77047443 -0.1289229 0.33619073 0.29767665 -0.71129113 -0.022949543 0.3426494 0.13444845
-0.6024217 -0.39108375 0.2607105 0.2529718 -0.28632966 0.7233496 0.50494474 0.34482434
0.37505984 0.3256421 0.341456 0.26039895 0.34091285 0.019630568 0.29441324 0.12744947
0.061693743 0.20121318 0.52000314 0.49055117 0.082259774 0.5201462 0.53826827 0.17858371
0.11228601 0.43248272 0.37519535 0.106868416 -0.0009659176 0.19138612 0.3910342 0.287186
0.17670777 0.15518402 0.07739194 0.00029404994 0.27856418 -0.603845 -0.7988894 0.09467383
-0.31979167 -0.9646146 -0.7515626 0.25101826 -0.2810166 -0.8835254 -0.9106668 0.029888572
0.052387297 -0.86676717 0.4929794 0.28695 0.12583753 0.26239872 0.31676033 0.1940237
0.34649512 0.026378848 0.3072727 0.32713628 0.27148435 0.16914488 0.2930021 0.0904325
0.08033737 -0.67842555 -0.6597528 -0.30338365 -0.16896476 -0.22495537 -0.38735735 -0.41827264
-0.38789982 -0.27186295 -0.45044965 -0.39765185 -0.27711922 -0.5430001 -0.5755348 -0.48499632
-0.5499742 -0.28342056 -0.6698002 -0.31464717 -0.3843981 -0.47616205 -0.707869 -0.8411802
-0.6582617 -0.1734091 -0.625208 -0.9480733 -0.2963894 -0.4048412 -0.69425124 0.37639683
0.31135094 -0.055741813 0.29689395 0.6268443 0.45068118 -0.1750313 0.086644635 0.30682966
0.4090401 -0.14532207 0.16771689 0.56448525 0.49017704 -0.05483103 -0.27740338 -0.35703307
-0.35521075 -0.26584855 -0.36319587 0.04614564 -0.27113938 -0.032900725 -0.33542374 -0.17290874
-0.07486424 -0.3351593 -0.08736736 -0.4139512 -0.2329774 -1.0420246 -1.2942649 0.19294775
0.26858535 -0.8917395 -1.3732479 -0.14551201 0.0920903 -0.79963195 -1.0223782 -0.08138689
-0.02029539 -1.040733 -0.8290675 0.17688017 -0.75114834 -0.6202955 -0.2941934 0.05397511
-0.55106777 -0.62310845 -0.11471385 -0.027251733 -0.7995329 -0.5829409 0.21828416 -0.0926061
-0.8605199 -0.87382126 -0.103728116 -0.21008803 -0.54098547 -0.18975168 -0.16282561 -0.3728272
-0.32983044 -0.43798795 -0.29252473 -0.3162334 -0.17485844 -0.09965205 -0.21176478 -0.42155078
-0.3004437 -0.20753992 0.45510557 0.4042768 0.1702595 0.5113064 0.25418136 0.16509019
-0.042404078 0.09387762 0.27474904 0.121150985 0.0050793355 0.3723673 0.30119497 0.3728343
0.4092288 -0.7492761 -0.74751073 -0.44716072 -0.21914239 -0.41658506 -0.37577355 -0.24077328
-0.030480215 -0.0086790575 -0.0927624 -0.18809801 -0.16618319 -0.23130259 -0.45278114 -0.4486326
00000000: 8f33 593c f462 aabe 8e05 fdbe 50de 26bf
00000010: ce5d 2dbe 63a8 15be a5cb a2be bb30 17bf
00000020: 311e 1dbe c2b2 bfbe 0f78 18bf 6d8c 9bbe
00000030: 1f47 9cbe 552e 2fbe e2c7 43bf e17b 0fbf
00000040: c6ef 16bf 61b9 0fbe 65c9 1c3f f445 b73c
00000050: ab3e fbbe f107 0c3e d885 1d3f 80eb 9cbc
00000060: 45cb a0be 43c8 02be a8d8 073f 8931 d3be
00000070: 3667 cfbe a077 cb3d 32c6 a23e 6e07 84bc
00000080: d03d 45bf 5d04 04be 3121 ac3e 1369 983e
00000090: 2d17 36bf ae00 bcbc be6f af3e dbac 093e
000000a0: 4f38 1abf 213c c8be d97b 853e 8585 813e
000000b0: cd99 92be 702d 393f 0f44 013f d18c b03e
000000c0: d807 c03e 90ba a63e 52d3 ae3e 0353 853e
000000d0: 218c ae3e 49d0 a03c 55bd 963e 1d82 023e
000000e0: 94b2 7c3d d40a 4e3e ed1e 053f 8629 fb3e
000000f0: d077 a83d 4d28 053f f3cb 093f a6de 363e
00000100: 35f6 e53d 606e dd3e 9b19 c03e d4dd da3d
00000110: a235 7dba b9fa 433e a235 c83e 0b0a 933e
00000120: e2f2 343e 8fe8 1e3e aa7f 9e3d b72a 9a39
00000130: f79f 8e3e 9695 1abf 0484 4cbf 5ae4 c13d
00000140: bcbb a3be fcf0 76bf 6866 40bf 7785 803e
00000150: 68e1 8fbe b82e 62bf 7621 69bf e1d8 f43c
00000160: 1094 563d 74e4 5dbf cc67 fc3e 1ceb 923e
00000170: 8edb 003e 2059 863e 692e a23e 26ae 463e
00000180: cf67 b13e 7418 d83c d952 9d3e 687e a73e
00000190: ffff 8a3e 5134 2d3e 5f04 963e ad34 b93d
000001a0: eb87 a43d 4cad 2dbf 8fe5 28bf 1a55 9bbe
000001b0: 1905 2dbe b35a 66be b453 c6be d527 d6be
000001c0: ce9a c6be 9f31 8bbe 56a1 e6be 0699 cbbe
000001d0: 92e2 8dbe 0e02 0bbf 4056 13bf 7051 f8be
000001e0: 1ccb 0cbf 801c 91be 0778 2bbf 6f19 a1be
000001f0: d4cf c4be 83cb f3be e736 35bf 9657 57bf
00000200: d783 28bf 2892 31be a20d 20bf efb4 72bf
00000210: 5ac0 97be 5947 cfbe 73ba 31bf 16b7 c03e
00000220: 6469 9f3e 8751 64bd 7c02 983e de78 203f
00000230: afbf e63e 683b 33be be72 b13d c718 9d3e
00000240: b46d d13e 4fcf 14be fabd 2b3e 1b82 103f
00000250: 7cf8 fa3e 8196 60bd d107 8ebe 0acd b6be
00000260: 2fde b5be 4d1d 88be cff4 b9be 3603 3d3d
00000270: c8d2 8abe e9c2 06bd a9bc abbe fd0e 31be
00000280: 6c52 99bd 009a abbe a9ed b2bd 69f1 d3be
00000290: a191 6ebe 1061 85bf 79aa a5bf 1894 453e
000002a0: 0584 893e 0a49 64bf 96c6 afbf 1a01 15be
000002b0: d799 bc3d aeb4 4cbf 4add 82bf 2bae a6bd
000002c0: 8542 a6bc bd36 85bf c53d 54bf 1320 353e
000002d0: 424b 40bf b0cb 1ebf 84a0 96be 0115 5d3d
000002e0: c712 0dbf 0984 1fbf 18ef eabd 073f dfbc
000002f0: 30ae 4cbf 9d3b 15bf e285 5f3e 44a8 bdbd
00000300: 084b 5cbf c0b2 5fbf 686f d4bd 5121 57be
00000310: 067e 0abf 444e 42be c2bb 26be 35e3 bebe
00000320: 89df a8be f53f e0be cdc5 95be 58e9 a1be
00000330: 170e 33be 6016 ccbd ded8 58be 81d5 d7be
00000340: c2d3 99be 5885 54be 9903 e93e 5efd ce3e
00000350: 8258 2e3e fae4 023f 0f24 823e 670d 293e
00000360: e6af 2dbd e942 c03d e8ab 8c3e 021e f83d
00000370: 8e70 a63b eda6 be3e 3a36 9a3e 23e4 be3e
00000380: 7086 d13e 8fd0 3fbf dd5c 3fbf 40f2 e4be
00000390: dd66 60be a34a d5be 6465 c0be 458d 76be
000003a0: a5b1 f9bc 9b32 0ebc 37fa bdbd c49c 40be
000003b0: ed2b 2abe 96da 6cbe eed2 e7be 2cb3 e5be

model.fe.conv2.weight f4 [16, 16, 1, 1]
0.23768303 -0.3094294 -0.20165119 -0.46171513 -0.028360164 -0.24670607 -0.48312017 0.5838118
0.23401843 -0.34455353 -0.2269918 0.6500154 -0.26511085 0.31522056 -0.42285255 0.590484
0.50218534 -0.6704052 0.8706529 0.37176472 -0.28118595 0.577407 0.028316032 -0.32855785
0.30377522 -0.47834462 0.37921053 0.24806067 0.3074645 -0.40049675 0.09456172 -0.47017404
-0.2880781 0.67810977 0.3562804 -0.70625806 0.19786566 0.5506608 -0.23277123 0.18525422
0.16951104 0.093349434 -0.15217026 -0.030472571 0.38712344 0.48760062 -0.4623056 0.75970066
0.56400675 -0.6684722 0.91290313 0.3693276 -0.34556413 0.5648481 0.176106 -0.2899285
0.2113711 -0.40550816 0.4268281 0.47983965 0.6339945 -0.21414542 0.34799963 -0.4208467
0.17795596 -0.16215542 -0.03789544 -0.599172 0.07389895 -0.22578838 -0.26596436 0.16080557
0.33997825 -0.30036432 -0.13075851 0.5742788 -0.31467772 0.46350107 -0.5971097 0.51100504
0.05107924 0.38759163 0.5644409 -0.6433933 0.1273806 0.20337856 -0.498712 0.7904441
0.39018607 -0.00058326416 -0.19834451 -0.13928403 0.28727615 0.330887 -0.5448142 0.5426616
0.591219 -0.36818317 0.9708854 0.33504498 -0.49688843 0.71544546 0.19548538 -0.3960052
0.11507117 -0.36348823 0.50094134 0.47742936 0.34311855 -0.2127229 0.19805168 -0.43292722
0.55723727 -0.75783783 1.0866036 0.33590332 -0.36431095 0.39802396 0.11990806 -0.4905252
0.42520964 -0.61206484 0.28250387 0.3047642 0.58899987 -0.10911026 0.3749915 -0.37014043
0.46870172 -0.48905167 1.020661 0.33084986 -0.544079 0.4776447 0.060664095 -0.47626564
0.34012336 -0.2881934 0.27497178 0.5041182 0.57536995 -0.15479408 0.20927998 -0.58797383
-0.29844403 1.0189513 0.4046146 -0.7284811 0.2954298 0.90230596 -0.22599569 0.4526769
0.2831513 -0.050151233 -0.2158098 -0.22202624 0.60218555 0.28804493 -0.55910844 0.55740607
0.046100274 -0.32113367 -0.032612715 -0.19553505 0.16778119 -0.21450864 -0.33036584 0.45052677
0.4195971 -0.18351646 -0.08313289 0.37534225 -0.16512525 0.42573002 -0.57058555 0.625094
0.6062426 -0.6053057 0.8920419 0.37627873 -0.19276418 0.55604506 0.19247296 -0.40092596
0.2892949 -0.39613324 0.38393834 0.32778466 0.40933853 -0.28285217 0.27824757 -0.366544
0.4607792 -0.51287186 0.7619012 0.22375731 -0.43675902 0.3291259 0.15556934 -0.3882493
0.2124772 -0.33998388 0.31284043 0.2542178 0.38261378 -0.18231498 0.2729077 -0.20002979
0.24830148 -0.5902294 0.8357072 0.2574517 -0.30788654 0.475273 0.29588473 -0.29651624
0.32596537 -0.28176162 0.14981222 0.48099002 0.5472469 -0.34970888 0.22916856 -0.4516965
-0.23954731 0.99401945 0.4412638 -0.57666403 0.22132148 0.78471303 -0.22027117 0.5269382
0.42389888 0.1823939 -0.36016154 -0.12010081 0.47404104 0.20746621 -0.3509262 0.5853279
-0.048984017 1.096732 0.39987808 -0.33911395 0.22308315 0.7284011 -0.24489383 0.40533394
0.091047995 0.267574 -0.3122985 0.056116674 0.5276032 0.36105433 -0.6687256 0.8922812
00000000: 2e63 733e 886d 9ebe a67d 4ebe ed65 ecbe
00000010: 9353 e8bc 84a0 7cbe 875b f7be b174 153f
00000020: 87a2 6f3e 5269 b0be 8a70 68be 6967 263f
00000030: 9cbc 87be 9764 a13e 2180 d8be f629 173f
00000040: 388f 003f ad9f 2bbf 1ce3 5e3f f257 be3e
00000050: 9bf7 8fbe f2d0 133f 06f7 e73c bc38 a8be
00000060: 6d88 9b3e 96e9 f4be e227 c23e 9e03 7e3e
00000070: fd6b 9d3e e90d cdbe 93a9 c13d a7ba f0be
00000080: f97e 93be 9a98 2d3f 626a b63e 54cd 34bf
00000090: 4c9d 4a3e 1bf8 0c3f 955b 6ebe 48b3 3d3e
000000a0: 4d94 2d3e fd2d bf3d 85d2 1bbe 9da1 f9bc
000000b0: 0b35 c63e caa6 f93e 52b3 ecbe be7b 423f
000000c0: bf62 103f fe20 2bbf 05b4 693f 8218 bd3e
000000d0: c8ed b0be e399 103f 2255 343e 8271 94be
000000e0: aa71 583e c49e cfbe 3689 da3e 8bad f53e
000000f0: 774d 223f f048 5bbe 022d b23e 3879 d7be
00000100: 163a 363e 120c 26be 4038 1bbd 5663 19bf
00000110: 5558 973d 1235 67be 7b2c 88be 37aa 243e
00000120: a111 ae3e 5ac9 99be 8fe5 05be ef03 133f
00000130: 701d a1be 0350 ed3e 2edc 18bf 3ad1 023f
00000140: 7738 513d 6972 c63e 337f 103f 6cb5 24bf
00000150: 0f70 023e 7842 503e 2e57 ffbe 8b5a 4a3f
00000160: 78c6 c73e 32e6 18ba d31a 4bbe 79a0 0ebe
00000170: dc15 933e 056a a93e f278 0bbf dfeb 0a3f
00000180: 215a 173f 8182 bcbe f28b 783f 048b ab3e
00000190: 2968 febe 6f27 373f 522d 483e 32c1 cabe
000001a0: 6faa eb3d 211b babe b13d 003f 9f71 f43e
000001b0: 3cad af3e 08d4 59be 0fce 4a3e a3a8 ddbe
000001c0: 1aa7 0e3f a901 42bf d415 8b3f 85fb ab3e
000001d0: f786 babe ccc9 cb3e 5b92 f53d 1e26 fbbe
000001e0: 14b5 d93e 48b0 1cbf 59a4 903e 0e0a 9c3e
000001f0: b2c8 163f 3375 dfbd e3fe bf3e 0c83 bdbe
00000200: acf9 ef3e fb64 fabe 05a5 823f 2765 a93e
00000210: c348 0bbf d98d f43e ea7a 783d 17d9 f3be
00000220: a624 ae3e 168e 93be 1ac9 8c3e e40d 013f
00000230: 724b 133f 5782 1ebe 7e4d 563e 7485 16bf
00000240: a8cd 98be ff6c 823f a529 cf3e bd7d 3abf
00000250: 9342 973e 86fd 663f 6a6b 67be 44c5 e73e
00000260: 35f9 903e 616b 4dbd 3ffd 5cbe d95a 63be
00000270: d528 1a3f a07a 933e bb21 0fbf 2ab2 0e3f
00000280: a4d3 3c3d a26b a4be e994 05bd 573a 48be
00000290: d5ce 2b3e 27a8 5bbe b625 a9be 72ab e63e
000002a0: 6ed5 d63e bdeb 3bbe 9441 aabd dc2c c03e
000002b0: 9816 29be 49f9 d93e e511 12bf 2906 203f
000002c0: b732 1b3f 50f5 1abf dc5c 643f 9ba7 c03e
000002d0: f963 45be f858 0e3f a217 453e 2b46 cdbe
000002e0: 761e 943e fad1 cabe 9193 c43e 64d3 a73e
000002f0: d294 d13e 00d2 90be 7776 8e3e a8ab bbbe
00000300: 40eb eb3e 924b 03bf f50b 433f a320 653e
00000310: e19e dfbe 3183 a83e 924d 1f3e 9dc8 c6be
00000320: a093 593e 5e12 aebe 9f2c a03e d628 823e
00000330: f4e5 c33e c7b0 3abe 8fba 8b3e 9cd4 4cbe
00000340: be42 7e3e 4619 17bf e8f0 553f b6d0 833e
00000350: 4ea3 9dbe fc56 f33e 347e 973e fad0 97be
00000360: efe4 a63e 0f43 90be 6068 193e 5344 f63e
00000370: 5f18 0c3f 0b0d b3be 2aab 6a3e c344 e7be
00000380: e44b 75be 0f78 7e3f 54ed e13e 41a0 13bf
00000390: 19a2 623e f4e2 483f c48e 61be 6ce5 063f
000003a0: 4609 d93e 77c5 3a3e 1867 b8be 6af7 f5bd
000003b0: 82b5 f23e 0672 543e 99ac b3be 0dd8 153f
000003c0: 77a3 48bd b761 8c3f d2bc cc3e 58a0 adbe
000003d0: e96f 643e 7f78 3a3f 73c5 7abe ee87 cf3e
000003e0: 5f77 ba3d 76ff 883e 97e5 9fbe 99da 653d
000003f0: 0111 073f 1ddc b83e 9a31 2bbf 8a6c 643f

model.fe.bn.weight f4 [16]
1.2639942 1.2894914 1.2526803 1.1722221 1.20347 1.2229322 1.2369171 1.339243
1.1826769 1.2979693 1.17784 1.2292738 1.2322856 1.2326291 1.2309333 1.2094991
00000000: 90ca a13f 0e0e a53f d457 a03f 600b 963f
00000010: 4e0b 9a3f 0b89 9c3f 4d53 9e3f 516c ab3f
00000020: f561 973f dc23 a63f 76c3 963f d858 9d3f
00000030: 89bb 9d3f cac6 9d3f 398f 9d3f ded0 9a3f

model.fe.bn.bias f4 [16]
-0.25336966 -0.32488966 -0.23886155 -0.2797708 -0.21853867 -0.20403342 -0.30092025 -0.34089342
-0.2683831 -0.28008372 -0.18604402 -0.29713497 -0.29241234 -0.29454276 -0.2438951 -0.23598403
00000000: abb9 81be f057 a6be 1f98 74be 1e3e 8fbe
00000010: 9ac8 5fbe 23ee 50be 3812 9abe 9589 aebe
00000020: 8269 89be 2267 8fbe 5382 3ebe 1322 98be
00000030: 12b7 95be 4fce 96be a3bf 79be cca5 71be

model.fe.bn.running_mean f4 [16]
-9.829705 -13.074955 -9.017234 -16.588179 -9.4442 -8.369493 -15.9227915 -15.292283
-16.726837 -11.640976 -8.010665 -13.991316 -10.881044 -14.793737 -11.580068 -11.589938
00000000: 7946 1dc1 0433 51c1 9746 10c1 97b4 84c1
00000010: 711b 17c1 71e9 05c1 c1c3 7ec1 31ad 74c1
00000020: 90d0 85c1 7041 3ac1 af2b 00c1 6edc 5fc1
00000030: c218 2ec1 26b3 6cc1 f547 39c1 6370 39c1

model.fe.bn.running_var f4 [16]
27.087757 71.1095 26.613401 95.97818 19.180302 25.094517 91.33758 92.10743
92.86618 50.186962 13.081228 75.74484 49.573044 72.72744 41.651077 38.854378
00000000: bab3 d841 1038 8e42 3fe8 d441 d4f4 bf42
00000010: 4271 9941 92c1 c841 d7ac b642 0137 b842
00000020: 7cbb b942 73bf 4842 b64c 5141 5c7d 9742
00000030: cc4a 4642 7374 9142 b49a 2642 e26a 1b42

model.classifier.weight f4 [1, 16]
-0.65414125 0.5164503 -0.5161617 0.4280323 -0.6615011 -0.43795836 0.4041239 0.5149597
0.44623777 -0.57161975 -0.5455266 0.52369165 0.47659978 0.5153601 -0.6120565 -0.5241622
00000000: cd75 27bf 1636 043f 2c23 04bf 0d27 db3e
00000010: 2358 29bf 143c e0be 54e9 ce3e 66d4 033f
00000020: 4779 e43e ac55 12bf a2a7 0bbf a810 063f
00000030: e304 f43e a4ee 033f bcaf 1cbf 7e2f 06bf

exp_avg f4 [40, 1, 1, 25]
-0.00013538425 3.2720443e-05 0.00016235746 0.00020388227 0.00014209075 9.012065e-07 -0.00016719308 -0.00030107884
-0.00035186877 -0.0002986617 -0.00015402936 4.0945062e-05 0.00022949088 0.00035632565 0.0003836595 0.00030403287
0.00014427995 -4.0888222e-05 -0.00018600584 -0.00023764916 -0.0001765043 -2.8601922e-05 0.00014131685 0.00025410432
0.0002497881 0.0004706539 4.1590658e-05 -0.0003615932 -0.00056853675 -0.00051103934 -0.00023995823 0.000110585235
0.00038998027 0.00049643347 0.00041215177 0.00019715495 -4.7584934e-05 -0.00022613516 -0.00028373703 -0.00021765118
-7.0424314e-05 9.0844595e-05 0.0001971008 0.0001970083 7.371721e-05 -0.00014681675 -0.0003963259 -0.0005789717
-0.0006006124 -0.0004084009 -0.00022802528 -0.00020836174 -0.00016283353 -0.00010470526 -4.388861e-05 1.5733161e-05
7.395441e-05 0.00012891945 0.00017389243 0.00019857558 0.00019467392 0.00016223652 0.000112277026 6.3538464e-05
3.2794673e-05 2.7097205e-05 3.8908493e-05 4.9456612e-05 3.858426e-05 -4.451529e-06 -7.385461e-05 -0.00014899719
-0.00020373992 -0.0002187313 -0.0001906356 -5.0974762e-05 -3.6172984e-05 -4.086144e-05 -6.795067e-05 -0.00010614027
-0.00013485411 -0.0001337757 -9.287894e-05 -1.8716168e-05 6.8437716e-05 0.00014171726 0.00017923285 0.00017364965
0.0001340529 8.354338e-05 4.5377372e-05 3.3220756e-05 4.5717676e-05 6.8244946e-05 8.036095e-05 6.6434506e-05
2.3039102e-05 -3.9275794e-05 -0.00010126229 -0.00014244707 7.018635e-05 4.5514818e-07 -6.0309485e-05 -9.1688606e-05
-8.777357e-05 -5.7663874e-05 -1.8110732e-05 1.5707217e-05 3.6740013e-05 4.653087e-05 5.089826e-05 5.4202315e-05
5.602852e-05 5.1984498e-05 3.841547e-05 1.5975666e-05 -9.454493e-06 -3.0201223e-05 -4.1739815e-05 -4.6669098e-05
-5.255055e-05 -6.645027e-05 -8.7884844e-05 -0.00010554885 -9.959777e-05 -0.00037918988 -0.000106554115 0.00014776723
0.00029976855 0.00030838774 0.0001876646 -1.5052753e-06 -0.0001767357 -0.00026501837 -0.00023108479 -8.79122e-05
0.000109809785 0.00028744878 0.00037978418 0.00035771105 0.00023906412 8.102181e-05 -4.3928783e-05 -7.885211e-05
-8.5573965e-06 0.00013264938 0.00027347266 0.00033503567 0.00026570188 6.588481e-05 -3.1427473e-05 -6.447221e-05
-7.82553e-05 -7.218122e-05 -5.2989242e-05 -3.1143776e-05 -1.53076e-05 -8.114246e-06 -5.329979e-06 1.0921657e-06
1.7884622e-05 4.5836656e-05 7.8170655e-05 0.00010304754 0.000108615655 8.876508e-05 4.6259465e-05 -7.960153e-06
-5.916691e-05 -9.4560455e-05 -0.00010821857 -0.00010262789 -8.644473e-05 -6.982978e-05 -5.9312737e-05 0.0003956485
0.00037000887 0.00029923915 0.00019748019 8.1435064e-05 -3.687445e-05 -0.0001481065 -0.00024271046 -0.0003097792
-0.0003393354 -0.00032629367 -0.0002745456 -0.00019686982 -0.00011177366 -3.7292415e-05 1.5419511e-05 4.4545977e-05
5.494227e-05 5.3876156e-05 4.8558486e-05 4.3535583e-05 4.2483964e-05 5.072769e-05 7.563267e-05 0.00011940576
-0.0006992123 -0.00031131497 0.00018337963 0.00059535 0.00080196856 0.000782155 0.0005984543 0.00034522603
9.776142e-05 -0.000106184336 -0.00025882124 -0.00035749117 -0.00038868835 -0.00033445295 -0.00019535543 -1.22528445e-05
0.00013930541 0.00018299761 9.032199e-05 -8.966722e-05 -0.00024210199 -0.00024408307 -4.07813e-05 0.00030445072
0.0006209064 -0.00013567452 0.0001806362 0.00030278947 0.00021828777 2.0765033e-06 -0.00022342431 -0.00034332296
-0.00029618904 -9.352671e-05 0.00019223857 0.00046116047 0.0006251221 0.0006368612 0.00050081377 0.00026665363
8.2685265e-06 -0.0001989361 -0.00029880353 -0.0002690901 -0.00012856927 6.62029e-05 0.00023504303 0.00030015878
0.00021499902 -1.2750727e-05 6.9834285e-05 0.00012220768 0.00014503827 0.0001366438 0.00010695928 7.19152e-05
00000000: eff5 0db9 4f3d 0938 803e 2a39 3bc9 5539
00000010: 32fe 1439 70ea 7135 8d50 2fb9 1eda 9db9
00000020: 077b b8b9 b295 9cb9 f182 21b9 6dbc 2b38
00000030: 7da3 7039 38d1 ba39 e825 c939 9a66 9f39
00000040: db49 1739 657f 2bb8 900a 43b9 7631 79b9
00000050: 0314 39b9 29ee efb7 742e 1439 4e39 8539
00000060: fef5 8239 19c2 f639 a171 2e38 3894 bdb9
00000070: db09 15ba 45f7 05ba 4c9d 7bb9 ffe9 e738
00000080: 4476 cc39 1623 023a 1316 d839 61bb 4e39
00000090: ef95 47b8 b21e 6db9 8ac2 94b9 4b39 64b9
000000a0: c4b0 93b8 d283 be38 d8ac 4e39 0394 4e39
000000b0: a098 9a38 d2f2 19b9 f6c9 cfb9 22c6 17ba
000000c0: 6a72 1dba a41e d6b9 121a 6fb9 ae7b 5ab9
000000d0: 4bbe 2ab9 3595 dbb8 0915 38b8 b5fa 8337
000000e0: f917 9b38 8d2e 0739 e556 3639 ba38 5039
000000f0: 6221 4c39 091e 2a39 4576 eb38 f43f 8538
00000100: 038d 0938 ce4e e337 ad31 2338 a26f 4f38
00000110: 89d5 2138 585e 95b6 64e2 9ab8 213c 1cb9
00000120: 05a3 55b9 3c5b 65b9 5be5 47b9 bccd 55b8
00000130: 72b8 17b8 a362 2bb8 bd80 8eb8 a097 deb8
00000140: a067 0db9 2446 0cb9 00c8 c2b8 aa00 9db7
00000150: 3886 8f38 f099 1439 74f0 3b39 b915 3639
00000160: 8d90 0c39 0334 af38 9553 3e38 8456 0b38
00000170: fbc0 3f38 ba1e 8f38 7587 a838 c152 8b38
00000180: 1844 c137 10bc 24b8 c75c d4b8 d85d 15b9
00000190: 0231 9338 175b f434 d1f4 7cb8 f248 c0b8
000001a0: 1413 b8b8 1ddc 71b8 80ec 97b7 fec2 8337
000001b0: 4a19 1a38 242a 4338 977b 5538 4b57 6338
000001c0: 2a00 6b38 ee09 5a38 4c20 2138 7b03 8637
000001d0: bd9e 1eb7 a258 fdb7 c911 2fb8 90be 43b8
000001e0: b969 5cb8 385b 8bb8 d14e b8b8 1b5a ddb8
000001f0: 25df d0b8 01ce c6b9 ce75 dfb8 f7f1 1a39
00000200: 412a 9d39 1aaf a139 d5c7 4439 de08 cab5
00000210: 2152 39b9 2af2 8ab9 5a4f 72b9 815d b8b8
00000220: ae49 e638 b9b4 9639 c51d c739 2a8b bb39
00000230: 49ad 7a39 41ea a938 2c40 38b8 675d a5b8
00000240: bd91 0fb7 cc17 0b39 e160 8f39 baa7 af39
00000250: e74d 8b39 a32b 8a38 fed0 03b8 4135 87b8
00000260: ff1c a4b8 ff5f 97b8 c440 5eb8 60a0 02b8
00000270: d268 80b7 6c22 08b7 2cd8 b2b6 8796 9235
00000280: ef06 9637 bc40 4038 8def a338 3a1b d838
00000290: 96c8 e338 6427 ba38 b906 4238 998c 05b7
000002a0: fc29 78b8 c24e c6b8 67f3 e2b8 ee39 d7b8
000002b0: a949 b5b8 9471 92b8 91c6 78b8 0b6f cf39
000002c0: c0fd c139 33e3 9c39 af12 4f39 1ec8 aa38
000002d0: a4a9 1ab8 094d 1bb9 1880 7eb9 dc69 a2b9
000002e0: d4e8 b1b9 6512 abb9 e3f0 8fb9 d76e 4eb9
000002f0: 0768 eab8 6d6a 1cb8 2659 8137 e1d6 3a38
00000300: d071 6638 15f9 6138 47ab 4b38 fa99 3638
00000310: cf30 3238 71c4 5438 fb9c 9e38 7b69 fa38
00000320: 584b 37ba fd37 a3b9 9849 4039 4311 1c3a
00000330: 333b 523a 8909 4d3a 97e1 1c3a 74ff b439
00000340: 4305 cd38 48af deb8 66b2 87b9 a76d bbb9
00000350: dec8 cbb9 8459 afb9 53d8 4cb9 9191 4db7
00000360: 8312 1239 0ce3 3f39 406b bd38 b90b bcb8
00000370: c2dc 7db9 8df0 7fb9 960c 2bb8 af9e 9f39
00000380: 53c4 223a da43 0eb9 2969 3d39 b7bf 9e39
00000390: 2de4 6439 0e5a 0b36 0247 6ab9 0700 b4b9
000003a0: d249 9bb9 c523 c4b8 a693 4939 e9c7 f139
000003b0: 3cdf 233a 08f3 263a 0b49 033a a5cd 8b39
000003c0: 0db9 0a37 8199 50b9 bba8 9cb9 a914 8db9
000003d0: 8dd0 06b9 69d6 8a38 e275 7639 a15e 9d39
000003e0: 5c71 6139 f5eb 55b7 ff73 9238 e024 0039
000003f0: 6a15 1839 0a48 0f39 544f e038 2ed1 9638
