ckpts/finetuning/subject_01-session_10.ckpt (torch, 64013 bytes, 50 tensors)

model.input_block.temp_cov.weight f4 [40, 1, 1, 25]
00000000: 1e5c 3a3f e78d eebc cf43 2bbf aa32 36bf
00000010: 68f4 18bf 0655 16be 99ab b83e 1895 243f
00000020: 9278 f73e 7e45 013f 8ba9 163e 27c1 94be
00000030: 6451 1ebf 9d44 24bf af10 27bf e319 01bf
00000040: 50e9 913d 53d6 f73e 7d7b bd3e c278 e63e
00000050: 2402 ee3e d4b9 313d d1f1 09bf a595 04bf
00000060: c5e6 34bf 4a83 73bf 29bc 02be 90ec 9f3e
00000070: 13e4 173f 3a1c 223f 9f4b ee3e e7b3 973e
00000080: 21c5 03bf 8107 f2be 11f3 edbe aa1a cdbe
00000090: 4626 d03d c67c 333f a0ee 103f 46df 0e3f
000000a0: 3f81 f43e 6f26 223d caad 66be d7f7 05bf
000000b0: 87f2 fbbe d36d a9be 9e98 0d3f c1a4 3f3f
000000c0: 8bab 113f 701e 163f 948c 453f b74e 463f
000000d0: 9bbf 163f 3f4e ee3e 96d3 ca3e 79c7 b8be
000000e0: 76a6 c3be c133 1fbf 3b0b 22bf 481b 1bbf
000000f0: 04b1 bbbe 2126 93be 6cc7 cbbe e06c 2cbe
00000100: 0955 10be f1fc a7be 0a85 9ebe a784 1bbe
00000110: d770 503e 8dd2 0c3f 0955 cc3e 5219 1f3f
00000120: 867f 5e3f bdfe 7f3f 2fad 703f 3158 01bd
00000130: 3ee7 95be 7510 02bf fdea 97be f7aa cdbe
00000140: 5668 a9be 6252 af3e c01a d03e 6e3d 233d
00000150: bc51 3e3e f357 0cbe 4377 aabe a571 d4be
00000160: 3105 30be 1cb2 24be b08f 5d3e e80c 9c3e
00000170: 24a1 a93e 9103 183e 2022 e7be e54d f1be
00000180: b94b 8abe 88db 91be 947c cebe 9e80 76be
00000190: 6309 4d3e 4c4c 83bd 9de8 f5be 896e 00bf
000001a0: a184 1cbf fe98 c9be 6dc5 03bf d0f3 f5be
000001b0: 8844 62be 6edb c83d ba98 d03d 4251 963e
000001c0: 965d 873c 9c7b 923e f68d 733e c2ba 95bc
000001d0: cd45 3b3e b54e ac3e fde5 e33e b020 0d3f
000001e0: cd88 fd3e d8e9 ab3b c0d9 c6be f000 bbbe
000001f0: 18b3 4cbf 9e71 cf3e 76ff 17be 08ba 00bf
00000200: 74a0 14bf 51d8 2fbf 659f 00bf 7e76 20be
00000210: 545e 133e a181 df3e f72e 023f fca1 c33d
00000220: 6f2f 82be c38b 02bf 0925 06bf a756 cbbe
00000230: b11f a7bd 2e3a 123e d6ee c43e 5ac2 903e
00000240: d359 be39 e3c3 a3be 20c9 8bbe f4b2 fdbe
00000250: 2a64 1ebf 0511 19bf ffba 883e 15cb 233f
00000260: 9b93 6e3f fb23 8a3f f281 793f e400 0a3f
00000270: 960f 373f 2677 8e3e 1b03 203e 4ba4 3abe
00000280: 8d9e adbe c917 f5be 4da7 3abf 6902 4ebf
00000290: 68f0 35bf b01b 2cbf 0caa 33bf e4c6 b6be
000002a0: f658 aebe 53c1 4f3e 7381 273f 12b2 0c3f
000002b0: d4bd 6e3f 3e1a 703f 627d 463f e16f b13d
000002c0: fa34 acbd e98a 0cbe c16a 0b3e 7137 41be
000002d0: 9bee fcbc 4636 adbd 7d73 b23d 56c7 9fbb
000002e0: b3e3 573d 3903 693d 66be 32bd bd70 31bd
000002f0: b289 2dbe e0b4 a43d b40f f23d fee3 ea3d
00000300: 4ee1 1dbe 6b42 e0bc 9da3 06be 1366 46bd
00000310: 5fb6 d4bc 24f2 163e 8186 b6bd 536a 52bc
00000320: e1ec 8a3f 871f 6b3f 352a a8bb 6d2c 0ebf
00000330: 03bd 23bf 42df b9be 97d0 d4be 1cf4 8a3e
00000340: 2b9f d73e e8f4 c33e 7c10 b13e c5c4 813e
00000350: de5b 28bd 1e88 afbe 4852 babe aca1 c9be
00000360: a4b8 25bf 13eb 85be 1749 eb3e f78a 8b3e
00000370: c7c5 ed3e 59f7 0d3f 5a35 04be f497 39bf
00000380: 796f 92bf 21b9 01be 42b1 37bf ca48 33bf
00000390: f0bd 2cbf aa58 04bf ea68 7abd e255 083f
000003a0: b39e e83e dc50 e73e ea9a a23c efc9 4dbf
000003b0: 8710 22bf 4749 53bf b572 28bf 71e1 6ebe
000003c0: 4548 603e 8920 ef3e 9a04 983e f880 933e
000003d0: 4862 06bd e502 46bf b6da f5be 2b0c 3fbf
000003e0: b094 d9be cec0 b6bd e133 d1be 78c7 2dbf
000003f0: cfd3 37bf 9cff 74bf 98c5 6cbf d970 3abf
0.7279681 -0.029120399 -0.6690034 -0.7117106 -0.59747934 -0.14680871 0.3606842 0.6429
0.48334175 0.5049666 0.14713113 -0.29053614 -0.6184294 -0.64167196 -0.6525983 -0.50430125
0.07124579 0.48405704 0.37008277 0.45014006 0.46486008 0.04339011 -0.5388461 -0.5179084
-0.70664626 -0.95122206 -0.1276709 0.3123517 0.5933239 0.6332432 0.4654207 0.29629442
-0.5147267 -0.4727135 -0.46474507 -0.40059406 0.1016355 0.70112264 0.5661411 0.5580944
0.47754857 0.039587434 -0.22527233 -0.523313 -0.4920847 -0.33091602 0.55311 0.7486077
0.5690238 0.58640194 0.7716763 0.7746386 0.58886117 0.46544072 0.39614552 -0.36089686
-0.38212937 -0.62188345 -0.63298386 -0.605885 -0.3665849 -0.28740028 -0.39800584 -0.16838408
-0.14094938 -0.32810166 -0.30960876 -0.15187322 0.20355545 0.55008775 0.39908627 0.6214801
0.86913335 0.99998075 0.9401426 -0.031578247 -0.29277986 -0.5080636 -0.2967147 -0.40169498
-0.33087415 0.3424254 0.4064541 0.039853506 0.18585867 -0.13705425 -0.33294114 -0.41492954
-0.1718948 -0.16083568 0.21636844 0.30478597 0.33130753 0.1484511 -0.45143223 -0.4712974
-0.27010897 -0.28487802 -0.4032942 -0.24072501 0.20023112 -0.06411037 -0.48029032 -0.50168663
-0.61139876 -0.39374536 -0.5147312 -0.48037577 -0.22096455 0.09807478 0.1018538 0.2935887
0.016524117 0.2860993 0.23784623 -0.01827753 0.18288346 0.336538 0.44511405 0.55128
0.49518433 0.005246382 -0.38838005 -0.36524153 -0.79960775 0.4051637 -0.14843544 -0.5028386
-0.5805733 -0.6868945 -0.50243217 -0.15670201 0.14391452 0.43653587 0.5085291 0.095523804
-0.25426814 -0.5099451 -0.5240026 -0.39714548 -0.081603415 0.14280006 0.38463467 0.28273278
0.00036306548 -0.31985387 -0.27301884 -0.49550593 -0.6187159 -0.59791595 0.26705167 0.63981754
0.9319398 1.079223 0.97463906 0.5390761 0.7150816 0.27825278 0.15626185 -0.18226735
-0.33910027 -0.4786971 -0.7291153 -0.8047243 -0.71069956 -0.6722975 -0.70181346 -0.35698617
-0.34052247 0.20288591 0.654319 0.54959214 0.93258405 0.9379004 0.7753507 0.08663917
-0.08408542 -0.13724865 0.13614942 -0.18868805 -0.030875495 -0.084576175 0.08713434 -0.0048760576
0.052707385 0.05688784 -0.04363861 -0.043320406 -0.16947058 0.08042312 0.118194014 0.11469267
-0.15417978 -0.02737542 -0.13148351 -0.04843719 -0.025965868 0.14740807 -0.08912373 -0.0128427325
1.085354 0.9184498 -0.0051319846 -0.5553654 -0.63960284 -0.36303145 -0.4156539 0.27139366
0.42113623 0.38272786 0.3458289 0.25345436 -0.041103236 -0.34283537 -0.363909 -0.39381158
-0.64734864 -0.2615591 0.459542 0.2725446 0.46439955 0.5545555 -0.12910977 -0.7249749
-1.1440269 -0.12668277 -0.7175485 -0.7003294 -0.6747732 -0.5169779 -0.06113521 0.53256047
0.45433578 0.45178878 0.01984926 -0.8038625 -0.6330647 -0.8253369 -0.6580003 -0.23328187
0.21902569 0.4670451 0.2969101 0.28809333 -0.032808572 -0.77348167 -0.48018426 -0.7462794
-0.42496252 -0.08923493 -0.40859893 -0.6788249 -0.7180757 -0.9570253 -0.92489004 -0.7282844

model.input_block.bn1.weight f4 [40]
00000000: 3cef d03f 2917 ca3f 12aa d83f 05d2 ab3f
00000010: 0d79 b83f bef7 b83f b30e f43f a4b2 393f
00000020: 6179 d63f 581f d03f 1bbb ee3f f147 0640
00000030: d7cc ae3f 5464 173f e28a 2a3f 742a e73f
00000040: d64c 983f 7140 963f f48e c73f 830c af3f
00000050: 5093 c33f b90b c23f 0d28 c43f fee4 0a3f
00000060: 3099 ad3f 1961 a63f 08d6 bc3f 230e b03f
00000070: ec78 ae3f a255 d03f 3095 b43f 0000 d83f
00000080: 6714 dc3b 8476 c83f 48ce 623f 03bd 9b3f
00000090: bca1 ca3f dde4 ca3f 6c49 a93f b736 da3f
1.6323009 1.5788318 1.6926901 1.3423468 1.4411942 1.4450605 1.9066986 0.7253821
1.6755792 1.6259565 1.865085 2.098141 1.3656262 0.59137464 0.6661817 1.8059831
1.1898448 1.1738416 1.5590501 1.3675693 1.5279331 1.5159827 1.5324723 0.54255664
1.3562374 1.2998382 1.4752817 1.3754314 1.3630652 1.6276133 1.4108028 1.6875
0.0067162993 1.5661168 0.8859601 1.2167057 1.5830607 1.5851094 1.3225532 1.7047948

model.input_block.bn1.bias f4 [40]
00000000: 8780 5cbe df07 26be e37a c4bc 56bf 573d
00000010: 1363 b13d 3a13 6d3e 1f51 26bf c66c e1bf
00000020: d406 71be 5bfe 49be 554c a63d 6dc1 d63e
00000030: 832d b83e 7072 26c0 86cc fb3f 3e91 d8be
00000040: b99a e53f 24e2 8fbf 041d 21be b6a2 e03d
00000050: ab44 e1bd db2d 953c 345d c73d e710 0fc0
00000060: 708b 8bba b63a 3a3e 309f 723e 093e 04be
00000070: 5d67 5dbe 292a e63e 2153 4ebe d5dd ffbe
00000080: 5539 4040 db1b 5f3f ddf4 f2bf e6e2 55be
00000090: 6d17 94bc dbf6 ee3d 0085 573d 776e f9be
-0.21533404 -0.1621394 -0.023984378 0.052672707 0.08661475 0.23151866 -0.6496753 -1.761132
-0.23537761 -0.19725935 0.08120028 0.41944447 0.35972223 -2.6007347 1.9671791 -0.4229831
1.7937843 -1.1240888 -0.15733725 0.10968535 -0.109994255 0.018210342 0.09734574 -2.2354066
-0.0010646414 0.18186459 0.23693538 -0.1291429 -0.21621461 0.4495404 -0.20148899 -0.49973932
3.0034993 0.8715188 -1.8980976 -0.20887336 -0.018077577 0.11668178 0.052617073 -0.4871709

model.input_block.bn1.running_mean f4 [40]
00000000: 6887 b534 3450 beb5 d425 fb36 46ac cfb5
00000010: 6085 94b6 4ac9 8fb5 00d2 5237 7abd c9b4
00000020: cce5 1136 48cd 5cb5 b1c8 16b7 d55b 25b7
00000030: b835 a1b3 4339 53b4 1c9f 7135 2444 e536
00000040: c090 38b3 d1aa 64b5 d5b1 e5b5 f04c d4b2
00000050: 4411 f935 ea13 ec36 5b73 60b6 84b3 b8b3
00000060: b90e b4b6 eb21 3bb6 e78e 9535 73de 6935
00000070: ca2e 9634 2962 ff36 d038 00b6 0632 26b7
00000080: 2a8e a2b4 ac7e a6b6 545c 5034 f069 b8b3
00000090: 9834 a4b4 68f1 33b4 de04 a6b6 594b a636
3.3812398e-07 -1.4179445e-06 7.4847867e-06 -1.547284e-06 -4.4262706e-06 -1.0712913e-06 1.256587e-05 -3.757703e-07
2.1740443e-06 -8.225511e-07 -8.987424e-06 -9.856148e-06 -7.506918e-08 -1.9671738e-07 9.001103e-07 6.8326644e-06
-4.2972488e-08 -8.518519e-07 -1.7113585e-06 -2.4715035e-08 1.8556971e-06 7.0356664e-06 -3.3445747e-06 -8.6008214e-08
-5.366132e-06 -2.7884914e-06 1.1142955e-06 8.712297e-07 2.797372e-07 7.6110196e-06 -1.9106556e-06 -9.906018e-06
-3.027829e-07 -4.961932e-06 1.9405098e-07 -8.5874376e-08 -3.0585647e-07 -1.6758497e-07 -4.947752e-06 4.955957e-06

model.input_block.bn1.running_var f4 [40]
00000000: b93e ac3d 44ef a33d 2f05 1e3e d150 f93c
00000010: cea5 813d 7468 633d 4aa8 7c3e 2f47 f139
00000020: 0b2b 933d fc76 af3d fdf8 363e 0c63 4a3e
00000030: 9a85 a43c 7e54 5739 4c0e 843a bb3c 423e
00000040: 939b da3b 327c 1e3c 1807 993d b587 f63c
00000050: 255c 7c3d 49ea d13d 2fc6 753d 69e0 fe37
00000060: 6273 5f3d 3a83 da3c 9e0a 163d dca2 d93c
00000070: e383 203d 9fda ee3d 60ec 073d 59b4 233e
00000080: 26d1 6839 10d2 9b3d 61c5 6e39 b63c 7a3c
00000090: e103 ae3d ce9e a33d 4ef6 273d f239 083e
0.08410401 0.08004621 0.15431665 0.030434044 0.06330453 0.055519536 0.24673572 0.00046020138
0.07185944 0.08567616 0.17868419 0.19764346 0.020083237 0.00020535474 0.0010075062 0.1896848
0.006671378 0.009673165 0.07472056 0.030094007 0.061611313 0.102497645 0.060003456 3.0383659e-05
0.054553397 0.026673902 0.03663122 0.026566915 0.039188277 0.116627924 0.03318441 0.15986766
0.00022203158 0.076084256 0.00022770978 0.015273264 0.084968336 0.07989274 0.04100638 0.13303354

model.input_block.spat_conv.weight f4 [40, 1, 24, 1]
00000000: 4ce9 b1bd ee46 c9bd 6781 343e a65d 8fbd
00000010: e3a2 893e 6aa3 7e3f 7dbf 1bbf 93c6 97be
00000020: b41c 12be cd61 273d ccb7 d63a 52a1 1b3e
00000030: fadc 863a 21c1 45be 8172 78bf 1f85 f03d
00000040: 6a45 4cbd 17a3 04be 404a a0be 31b4 343d
00000050: 78bd f1bc da63 00be e5a9 92be 088d 043e
00000060: 1700 473e 4302 933d fa91 6e3d 9555 013e
00000070: 68c4 b13e 4082 093f 7dbf 1c3e 826a 4a3f
00000080: 83bb 423e d071 223e 298d 95bc 8521 8a3d
00000090: 1e1b e6bc 7320 10bf 2dec 81bf 5976 fe3d
000000a0: 9e13 4c3e ab79 0f3e 1a2c 03bd 1074 9ebc
000000b0: de99 c63d 93f3 01bc 3fca 563e 0ef9 403e
000000c0: 82f9 e03e 7e30 9f3e 26c8 a7bd 0e85 50bc
000000d0: 8eb3 873e 12a3 9e3e c611 d63e 9ee2 093f
000000e0: 164e e43e c7f1 063c 407a 2fbc 0926 7dbe
000000f0: a5f9 433e 6846 bd3e e839 2f3f b4c9 843e
00000100: 06dc 10be 4706 2fbf 1cf8 52bf d26b 60bf
00000110: 6d2b 8d3e 7700 583e 0bf7 863e 953f a63e
00000120: 896b d83d 0e31 453d 3b8d bc3e 4d15 923e
00000130: b03e 143e bb81 3ebd 7bce 453e e077 c43d
00000140: 3459 2f3e 0456 e8be 389e 47bf 4455 503e
00000150: ef37 8f3d e659 7c3d b0fe 31be ae96 ab3d
00000160: 9dc3 9f3d 3fbe 94be 3e02 9ebe 8d04 493e
00000170: 0d7e 3ebd d4f6 773d 495e 63be 00c1 01be
00000180: a579 9c3e 190e 433e a13b 963c 51c7 033f
00000190: 9928 c03e b58c 6abe 8bf1 b2be c3ac e83d
000001a0: 551e 253d ee3a 87bd 8200 75bf e678 653e
000001b0: 963e 8c3e 77f8 f7bd 754a c43d 9387 8ebd
000001c0: 8768 763e 9750 223d c652 87be bcf1 7abd
000001d0: 5620 053d b93f 08bf 00f6 2d3d a464 a8bd
000001e0: f4fc 36be d856 1ebe 2db2 21bd b55f c6bd
000001f0: 744c 9d3b d098 1a3f b229 95be c0c1 c6be
00000200: 6e27 cbbd 3458 00be 5387 423d 85d1 f7bd
00000210: a884 26bd 0c26 9a3e 8c6b 98bf 7e4e abbd
00000220: a53f df3c d680 06bd 967c 5c3e ff5b 973d
00000230: d41a 5cbe cc43 0cbe cbfa 87be 8fde 25bd
00000240: d14f 00bc b0e5 59be b12c 17bf 684f 8abf
00000250: 94a0 30be 1d8e 2d3f 765a 1c3e a080 afbe
00000260: 574e 9bbd 944e 9b3e 9c24 063e 7667 15bf
00000270: cf0a 67bd b691 7c3e a773 7cbf 4aa8 a4be
00000280: 0166 b3be fafe 17be 1ded 9b3e 1b81 70bc
00000290: 250b 57be 6213 12bf b7e7 20bf b463 84be
000002a0: 1f30 a9bf 165d afbf 866f babf 8ba4 8ebf
000002b0: fbc7 adbf 8a6c b6bf 08e3 a3bf 3140 a8bf
000002c0: 8144 99bf 9b6f b8bf 17a5 e0bf 5ae2 c1bf
000002d0: ed73 9ebf 399e b9bf f95f 82bf 26ab a6bf
000002e0: 0448 c4bf 777c a4bf 5ae3 ccbf d84e 91bf
000002f0: 7a0b 6dbf 9a21 bdbf f6da 96bf ca4f b0bf
00000300: 2a36 803e b692 0e3e 8f32 553e 3303 0c3e
00000310: b48d d93e f28f 5c3f d15b 17be 70d5 243f
00000320: 1319 323e b08a 0b3e 008a 013e fc83 163e
00000330: f901 bf3d 34a5 03be 08fc a2bf c088 8c3c
00000340: e34b 863d 2fed 8abd a8a5 78bd cfd1 243d
00000350: a72f 14bc 0375 a6bc 6648 2fbd e851 9d3e
00000360: 64c3 363d 4bb6 bdbd 2193 06bd 3691 b0bd
00000370: 78a1 5dbe 322a 42bf 7152 003f cd32 c73e
00000380: 3d59 033e c907 2d3e 6431 5e3e b606 af3c
00000390: aaf3 b63c 784f c6be 1f73 993f b713 073d
000003a0: 7b18 c23d 5c0a 953e 0cf3 103e fe05 cdbd
000003b0: 7b18 043e 00e6 2b3e 31ef cc3e 6a57 bd3d
000003c0: a110 c5be a937 56be d17a 9a3d 60e0 14bd
000003d0: fe5a 2bbf a5a9 5ebf 4f4f 4cbe 5585 cdbd
000003e0: 8a17 6bbe daae 0b3e 6c4d 573f c1cc 37be
000003f0: 6348 a4be 5840 a1be 32db 883f bd7a b53d
-0.08687076 -0.09827982 0.17627488 -0.07000284 0.26882085 0.994681 -0.6083906 -0.29643688
-0.14268762 0.040864754 0.001638168 0.15198258 0.0010289245 -0.19311954 -0.9704972 0.11744141
-0.049870886 -0.12952839 -0.31306648 0.044117156 -0.029509291 -0.1253809 -0.28645244 0.12944424
0.19433628 0.07178166 0.058244683 0.12630303 0.3472016 0.5371437 0.15307422 0.7906877
0.19016843 0.15863729 -0.018255787 0.067446746 -0.028089102 -0.56299514 -1.01502 0.12424917
0.19929358 0.14011256 -0.03202448 -0.019342452 0.096973166 -0.007931608 0.20975588 0.18845007
0.4394036 0.31091684 -0.08192472 -0.012727035 0.26504177 0.30983788 0.41810435 0.53861415
0.44590825 0.008236355 -0.010710299 -0.2472154 0.191382 0.36967778 0.6844773 0.25935137
-0.14146432 -0.68368953 -0.82409835 -0.8766452 0.27572194 0.21093927 0.26360354 0.32470384
0.10567386 0.048142485 0.368265 0.28531876 0.14477038 -0.04651044 0.19317047 0.09593177
0.17123872 -0.45378125 -0.779758 0.20345026 0.0699309 0.06160917 -0.17382312 0.08378349
0.07800982 -0.29051396 -0.30861086 0.19630642 -0.04650693 0.060538128 -0.22203936 -0.1267128
0.30561557 0.19048347 0.01833898 0.5147601 0.37530974 -0.22905238 -0.34949908 0.11361077
0.04031213 -0.06603037 -0.957039 0.224094 0.273915 -0.12107938 0.09584514 -0.069594525
0.24063312 0.039627638 -0.2643034 -0.061265692 0.03250154 -0.53222233 0.042470932 -0.08222321
-0.17869931 -0.15462816 -0.039476562 -0.096862234 0.0048003737 0.60389423 -0.29133373 -0.38819695
-0.0991963 -0.12533647 0.047492336 -0.121005096 -0.040653855 0.30107152 -1.1907821 -0.083645806
0.027252028 -0.03283771 0.21531901 0.07390594 -0.21494609 -0.13697737 -0.26558527 -0.04049545
-0.00783153 -0.21279025 -0.5905257 -1.0805483 -0.17248756 0.6779497 0.15268883 -0.3427782
-0.075833015 0.30333388 0.13099903 -0.58360994 -0.056406792 0.2466496 -0.9861397 -0.32159644
-0.3503876 -0.1484336 0.3045434 -0.014679219 -0.21000345 -0.57060826 -0.6285357 -0.25857317
-1.321781 -1.3700283 -1.4565284 -1.1143965 -1.3576654 -1.4251873 -1.280366 -1.314459
-1.1974031 -1.4409059 -1.7550381 -1.5147202 -1.2379128 -1.4501411 -1.0185539 -1.302098
-1.5334477 -1.2850484 -1.6006882 -1.1352186 -0.92595637 -1.4775879 -1.1785572 -1.377435
0.25041324 0.13923153 0.20820068 0.13673095 0.42490923 0.86157143 -0.14781119 0.6438818
0.17392378 0.13627124 0.12650299 0.14698786 0.09326548 -0.12855989 -1.2733164 0.017155051
0.06557443 -0.067835204 -0.060704857 0.04023915 -0.009044564 -0.020319467 -0.042793654 0.30726552
0.044619933 -0.09263285 -0.032855157 -0.08621447 -0.21643627 -0.75845635 0.50125796 0.38905945
0.1282701 0.16897501 0.21698529 0.021365505 0.022332985 -0.38732505 1.1988257 0.032977786
0.094773255 0.29109466 0.14155215 -0.100109085 0.12899964 0.16786957 0.4002624 0.092451885
-0.3848925 -0.2091967 0.075429566 -0.036346793 -0.6693572 -0.86977607 -0.19952129 -0.10035197
-0.22958198 0.1364092 0.8410251 -0.17949201 -0.32086477 -0.31494403 1.0691893 0.08861301

model.input_block.bn2.weight f4 [40]
00000000: e175 d03f a245 ca3f 9196 d83f 2edb ab3f
00000010: 4394 b83f 4716 b93f b5bc f33f 5726 5d3f
00000020: 2cf8 d63f 9e5e d03f e983 ee3f 5531 0640
00000030: 3514 ae3f fdff 513f aa45 5b3f ee15 e73f
00000040: 99a1 a03f 3784 9b3f ecf7 c73f a91b af3f
00000050: 5bb9 c33f 1c1d c23f f030 c43f 1860 523f
00000060: 2b96 ad3f 3086 a63f 4d15 bd3f b524 b03f
00000070: c8c0 ae3f 915f cf3f f8dc b43f b706 d83f
00000080: 0058 0940 d42a c93f a698 7d3f d82e 9b3f
00000090: edce ca3f 711e cb3f cc86 a93f 0559 d93f
1.6285974 1.58025 1.6920949 1.3426263 1.4420246 1.4459924 1.9041964 0.86386627
1.6794486 1.6278875 1.8634006 2.096761 1.3599917 0.8203123 0.85653174 1.8053567
1.2549316 1.2149724 1.5622535 1.3680316 1.5290941 1.5165133 1.5327435 0.8217788
1.3561453 1.3009701 1.4772125 1.3761202 1.3652582 1.620104 1.4129934 1.6877049
2.145996 1.5716195 0.9906105 1.212367 1.5844399 1.5868665 1.3244262 1.6980292

model.input_block.bn2.bias f4 [40]
00000000: 2682 3b3e e46b 16be e7a2 8ebc 0451 57bd
00000010: 39cc c3bd 5f0c 87be 5a23 1f3f 3e83 b03f
00000020: 3f68 a2be 1ff8 4abe ebc3 263e 51de f73e
00000030: 3d05 a83e be66 0f40 101b d33f 4163 e13e
00000040: 129c be3f dcbc 803f 49ff a3bd d82a d4bd
00000050: e387 ebbd 059c e1bc f730 953d aa21 0740
00000060: 832a 28be d6a1 43be 9555 26be 9fa5 25be
00000070: 8230 58be aa5d c73e 8ded 6ebe 6f44 083f
00000080: c181 babf 42f6 4f3f 8718 b83f ca96 69be
00000090: d109 383d c815 59bd 6b06 22be acf1 dc3e
0.18311366 -0.14689595 -0.017411662 -0.052567497 -0.09560437 -0.26376626 0.6216332 1.3790052
-0.31720158 -0.19821213 0.16285674 0.484118 0.32816496 2.240646 1.6492634 0.44021037
1.4891379 1.0057635 -0.08007676 -0.10359734 -0.11500528 -0.027540216 0.0728473 2.1114297
-0.16422467 -0.19104704 -0.16243584 -0.1617646 -0.21112254 0.38938648 -0.23332806 0.5322942
-1.4570848 0.81235135 1.4382485 -0.22811428 0.044931237 -0.052999288 -0.15822761 0.4315313

model.input_block.bn2.running_mean f4 [40]
00000000: d485 a23e 9a75 a3be 7ac2 6fbd e753 78bc
00000010: 52b6 a3bc ce01 04bf a664 4740 19ec 6142
00000020: 3fc5 f3be de33 efbe d1cc 43bc ebee c93f
00000030: a3ad bd3f 376e ea42 3179 9c42 70b5 683f
00000040: ec8d 6142 8c08 c341 20e0 dabe ea75 b5bd
00000050: b1ce 38be 3092 573c 0399 cdbd 918e ca42
00000060: 66e3 dfba 8cfd e5bd 46f0 efbe 8815 60be
00000070: ef97 0abf 10a4 0640 9f5f 8abe 6b27 b13f
00000080: b2da 2ac3 1418 be40 87e7 7d42 78aa 3cbf
00000090: 683f c5bc d8bc 24be 54a3 803c 0c82 1d40
0.31742728 -0.3192566 -0.058535077 -0.015156723 -0.019984398 -0.51565254 3.115518 56.480564
-0.47611424 -0.4671926 -0.0119506875 1.5776037 1.4818615 117.21526 78.2367 0.9090185
56.388596 24.379173 -0.4274912 -0.08860381 -0.18047597 0.013157412 -0.1003895 101.27845
-0.001708132 -0.11230001 -0.46863002 -0.21883214 -0.5413808 2.1037636 -0.27026078 1.3840154
-170.85428 5.940439 63.4761 -0.73697615 -0.024078086 -0.16087663 0.01570288 2.4610624

model.input_block.bn2.running_var f4 [40]
00000000: c552 2041 9f91 fc40 40ad 7141 0be6 3540
00000010: 6f3a 9f40 bd59 bb40 85d0 8341 47a6 9641
00000020: 3aeb 3941 5958 1e41 acb0 7241 a239 ff41
00000030: 6fe1 6a40 a6d3 9b41 c2ec c841 51df 1b41
00000040: e7ea 8642 4021 b141 74ea 0441 c40e 8740
00000050: abba fe40 a96a c940 ccc4 e140 d1d0 5641
00000060: 1d95 6e40 2338 2140 d57f af40 eeed 9e40
00000070: 1b12 a140 db79 0b41 f1ae 5d40 b451 1841
00000080: dfd7 d63b cdf6 7341 701b 0742 e0f1 5840
00000090: eba8 0541 cdc0 0241 a585 5540 296b 2841
10.020207 7.892776 15.104797 2.8421657 4.975883 5.8547044 16.476816 18.83119
11.619928 9.896569 15.168133 31.903141 3.6700094 19.478344 25.115604 9.742021
67.45879 22.141235 8.30724 4.2205524 7.9602866 6.29427 7.055273 13.425981
3.7278512 2.5190513 5.4843545 4.966544 5.03346 8.71725 3.4638026 9.519947
0.0065564956 15.247754 33.776794 3.3897629 8.35374 8.1720705 3.336282 10.526162

model.channel_expansion.conv.weight f4 [16, 40, 1, 1]
00000000: fbda f63e 8593 b93e 2da1 2d3e 5c8c 753e
00000010: 01a4 393e 85ec ff3e 180c 10be 1e37 023e
00000020: 22ac 023f 2045 cdbd 2731 c6bf ccd1 2b3e
00000030: a95d 6c3e 7591 213e c7e7 513e 928f 25bf
00000040: 082a 9c3e 50ed 9c3e 2a93 de3e 1df1 84bd
00000050: 5a78 9a3d e9fd 82bf a53a ca3e 8521 613e
00000060: ba35 1ebe 13a0 8d3d 8cd9 3a3d 7ab5 1fbe
00000070: 2382 0fbe 1a96 f53e 6b04 a9be 5b8f 2e3e
00000080: 15ad 59be ce57 463e 6a84 0b3e f317 ac3d
00000090: 31eb 623e 46ca e63e df1b a33d 0197 cb3e
000000a0: 8d51 02be 6196 06bf 95ae 5ebe abd2 ca3e
000000b0: c646 d73e 64fb 31be a272 8ebd 1998 913d
000000c0: 4585 80be 0a88 03bf 01a5 b5bf 74f4 3ebe
000000d0: 2f93 2abe fe11 623d 0596 a23d d7cd 1fbf
000000e0: 2e4b 593d 202d b23d 9c2b a7be 19bf af3e
000000f0: 195b aebc 7799 2cbf e0a5 c8bd 9620 fdbc
00000100: bac4 d53e 662c 013f faba da3e 4a0a dfbd
00000110: fbba b83e e255 e93e e9b6 c13e 79db 793e
00000120: b69b fdbc b299 5bbd a0f8 983b efbd 173f
00000130: b4d3 7abe d543 5fbe 1d04 ba3e 9b66 293c
00000140: 7710 003f c61e 0a3f 6d79 d93e 2a36 523f
00000150: cd7c 633f 3a65 08bf 8d7c ab3f 43fa 0a3f
00000160: c2ec 0a3e 3986 803e cea1 e8bc c626 00be
00000170: 0c30 233f 75cb 0d3f b16d ea3e 8d94 b93e
00000180: c142 5a3f a819 093f a26c a13d 885c cf3e
00000190: 9c17 2a3f e2b8 9b3e b167 dd3b 7f10 163f
000001a0: 801c 07bf 00e3 f03e fcdc 803e 337d 343f
000001b0: e798 08be 014c c23e faed cd3e 78a6 b93f
000001c0: db45 87bf a6f1 c53f fa3e 2c3f 4d21 663d
000001d0: a9e4 133f f4ec 2b3f 99c2 403f b09b cabe
000001e0: b828 08be db61 65be 0a44 3cbe bc7a 6e3e
000001f0: 1bef a63d f946 53be edc5 30bd daf4 9c3d
00000200: 843a e3be 8950 98be d7df 2bbe 430b 5cbe
00000210: f34d d33d d994 21be ea69 45bd 2672 bbbd
00000220: f12e eb3c 54c0 a63c 7fd7 9abe 55a7 9f3e
00000230: 0e60 c1be 671a 35be cf68 c8bd 9601 40bd
00000240: 1353 9b3e 9d3b 913e 7fe3 653e b3b6 bebd
00000250: b679 ad3e 3ecb 2d3d c933 763e 1a33 3abd
00000260: a499 bb3c 3c41 1a3e dc3c 3e3d 94c4 ac3d
00000270: fb54 71be 060d 7abe 5650 173e 3084 2cbb
00000280: 278e 523e 0b92 ee3e 3ad5 b9bf 2582 5b3d
00000290: 3c70 233c e7b9 9b3e 302f 943e 113f 873e
000002a0: c4b8 353f f712 8d3e 0a46 74bd 2d09 8e3d
000002b0: 1de3 563d 445b 513e fa30 943d f2c7 cc3d
000002c0: f74f 603e 53e2 183d 5665 c63e be24 013d
000002d0: 7e47 2c3e b6af a53e f5ff 233e 354f 543d
000002e0: a32d 99be fb1c 103d 3e07 303d d3a8 f2bd
000002f0: d981 1ebe a35c 693d ae12 b0bc 9e9c 8b3e
00000300: ed82 1fbe 6d38 233e 9a34 f33d 212d a3bb
00000310: 2d7a 8f3e 5fca c73d 83c0 cc3d d3b8 fc3d
00000320: fe74 883f 1267 3a3f b2d7 233e 4da5 623f
00000330: 8a71 b13f 8d1c 98bf 112b 9b3f b303 893f
00000340: 0d1f db3e 796f 703f 33d7 053f 039c d7be
00000350: 411d 5b3f 3dd0 893f b20d 653f fe4a 6d3f
00000360: bf4f 943f cace 623f 708d 80be 86a1 053f
00000370: 032a 3d3f e9fa 453f 82e5 6dbd 832e 6e3f
00000380: 3925 6dbe febf da3e 7209 093f 0a7a f23e
00000390: fcb5 853e 05b8 0cbd 25b0 e93e 1345 d93f
000003a0: 1a2e acbf 452d c03f ae2d 7f3f 565d 163e
000003b0: 9d6c 393f cb5e 7f3f 35fd 783f 2262 55be
000003c0: 912b 143d 9aef 23be 0d6a 17bd 94eb 433e
000003d0: 23d5 53bf fb92 85bd 1eed a1bd a33a 8c3d
000003e0: 3a39 91be 456e 0abe 0918 3a3e 5dfe f63d
000003f0: 31e7 da3d 6884 5bbd c569 3b3e 4b28 5e3e
0.48213944 0.3624536 0.16956015 0.23979324 0.18128969 0.49985138 -0.14067113 0.12716338
0.51043904 -0.1002295 -1.548375 0.1677925 0.23082604 0.15778144 0.20498572 -0.64672196
0.30500817 0.30649805 0.43471652 -0.06491301 0.075424865 -1.0233737 0.39497867 0.21985443
-0.15450183 0.06915297 0.045617625 -0.15596572 -0.14014487 0.4796608 -0.33011183 0.17046873
-0.21257432 0.19369432 0.1362473 0.084030055 0.22160031 0.45076197 0.079643 0.39763644
-0.12726422 -0.5257321 -0.21746285 0.39613852 0.42046183 -0.17381054 -0.06955458 0.071090885
-0.25101677 -0.51379454 -1.419098 -0.18647939 -0.16657709 0.05519294 0.0793877 -0.6242346
0.053050213 0.08700013 -0.3265046 0.34325483 -0.021283673 -0.6742167 -0.09797263 -0.030899327
0.41751653 0.5045837 0.42720777 -0.10890634 0.36080155 0.45573336 0.37834862 0.24400128
-0.030958038 -0.053613372 0.0046683103 0.5927419 -0.24494821 -0.2180322 0.36331263 0.010339404
0.50025123 0.53953207 0.42475453 0.821139 0.88862306 -0.5327946 1.3397385 0.5428812
0.13566878 0.25102404 -0.028397467 -0.12514791 0.6374519 0.55388576 0.45786813 0.36246148
0.8525811 0.53554773 0.07882048 0.40500283 0.66442275 0.30414492 0.0067567457 0.5861892
-0.5277786 0.47048187 0.25168598 0.7050354 -0.13339578 0.3794861 0.40220624 1.4503927
-1.0568193 1.546437 0.67283595 0.0561841 0.5777078 0.67158437 0.7529693 -0.39571905
-0.13296783 -0.2240061 -0.1838533 0.23289007 0.081510745 -0.20632543 -0.043157507 0.07663889
-0.4438058 -0.29748943 -0.16784607 -0.21488671 0.10317602 -0.15779437 -0.04819671 -0.091526315
0.028708907 0.020355381 -0.30242535 0.31182352 -0.37768596 -0.17685853 -0.09785616 -0.046876512
0.30336818 0.28365794 0.22450064 -0.09312191 0.3388192 0.042430155 0.24043192 -0.04545889
0.02290041 0.15063947 0.04644476 0.08435932 -0.23567574 -0.2441903 0.1477674 -0.0026323907
0.2056204 0.46595797 -1.4518197 0.053590912 0.009975489 0.3041527 0.2894225 0.26415303
0.70985055 0.27553532 -0.059637107 0.06935344 0.052462686 0.20444971 0.07235904 0.09999074
0.21905504 0.037325215 0.38749188 0.03152918 0.16824147 0.3236062 0.16015609 0.05183335
-0.2991763 0.035183888 0.042975657 -0.11848607 -0.1547922 0.05697311 -0.021493282 0.27267927
-0.15577288 0.15939493 0.11875267 -0.004979745 0.280229 0.09755396 0.09997656 0.1233994
1.0660703 0.7281352 0.1600025 0.8853348 1.3862774 -1.1883713 1.2122518 1.0704254
0.42797127 0.93920094 0.5228149 -0.42111215 0.8559151 1.0766674 0.8947402 0.92692554
1.1586837 0.88596785 -0.25107908 0.5219959 0.7389223 0.77335984 -0.058080204 0.9303972
-0.2315873 0.42724603 0.5353004 0.47358733 0.26115406 -0.034355182 0.456422 1.6974205
-1.3451569 1.5013815 0.99679077 0.14684042 0.72431356 0.9975402 0.97261363 -0.20838216
0.03617436 -0.1600937 -0.036966372 0.19132835 -0.82747096 -0.06522175 -0.07906555 0.068471216
-0.28363973 -0.13518627 0.18173231 0.12060235 0.106886275 -0.05359307 0.18302067 0.21695058

model.channel_expansion.bn.weight f4 [16]
00000000: 7d4f c03f 261a e03f 97ab 1340 3e89 a23f
00000010: 1d7a ab3f 6238 a53f 8e4f 9c3f 204d a33f
00000020: a923 e9be b3b7 a43f c30f aa3f 11c9 a73f
00000030: 0aa9 d73f b2c3 a83f 345c af3f 8de3 a23f
1.5024258 1.750798 2.307348 1.2698133 1.3396641 1.2907832 1.2211778 1.2757912
-0.4553502 1.286856 1.328606 1.3108236 1.6848462 1.3184721 1.3700013 1.2725693

model.channel_expansion.bn.bias f4 [16]
00000000: 8a6e 953e a92f 50bd a12f 753f 1f1f eebc
00000010: 832c 5f3e 261a bf3f 9455 af3d d481 8ebc
00000020: d4a5 893f 1a39 133f 4c5c 7b3e b0af d23f
00000030: 50de 4b3f 3ddb 103e f766 ea3d 6dfc 84bd
0.29185897 -0.050826702 0.957758 -0.029067574 0.21794324 1.4929855 0.085612446 -0.017395891
1.0753732 0.57509005 0.24546927 1.6459866 0.79636097 0.14146133 0.1144542 -0.06493459

model.channel_expansion.bn.running_mean f4 [16]
00000000: dd5d 3340 62e2 5cbf d772 5341 955c 61bf
00000010: bbb9 3140 d6a3 9941 c8fa 663f 7f19 a23e
00000020: 0f89 3f41 48b3 d140 1acd 6040 f6e1 7941
00000030: 34f0 1141 7ab0 3a40 f4c5 ed3f 5143 7dbf
2.802604 -0.8628293 13.215537 -0.88031894 2.776961 19.204998 0.9022641 0.31660077
11.970962 6.553135 3.5125184 15.617666 9.121143 2.9170213 1.8576035 -0.9893084

model.channel_expansion.bn.running_var f4 [16]
00000000: 78e1 e641 4aaa c141 a5b9 8d42 23d3 6f40
00000010: 4107 1e41 ce9d ed42 8af7 3540 b857 2040
00000020: b73a 0242 2b82 b041 33b8 c340 9d40 ad42
00000030: 86c0 4d42 5968 9040 1770 8d40 c8f3 5f40
28.860092 24.208149 70.86259 3.7472618 9.876771 118.80821 2.8432336 2.505354
32.55734 22.063559 6.1162353 86.6262 51.43801 4.5127378 4.419933 3.4992542

model.fe.conv1.weight f4 [16, 1, 1, 15]
00000000: 60f0 55bd aadf 9fbe 3af1 0ebf 92b3 44bf
00000010: a523 4dbe c8ed 0abe a925 c9be 5a1a 2bbf
00000020: bc73 11be 7d6f cabe e301 34bf 4374 b4be
00000030: 13ef 7bbe 3fd8 62be 3677 6ebf 6f45 15bf
00000040: 688d 41bf 27ab 2dbe 9caf 303f 019c cb3c
00000050: 0dc4 0fbf f58c 333e e103 2b3f fde9 a1bd
00000060: 789a a9be dc54 1bbd 8c61 073f 3262 18bf
00000070: 9746 e0be ff92 5d3e d1e7 b73e b1ac a63c
00000080: a626 5abf d12f 1abe bbfd ba3e 8c51 a33e
00000090: 1738 4abf a528 24bd 690b c23e 703b 263e
000000a0: ba24 2dbf ed4e d5be 6dc5 9f3e 64e9 973e
000000b0: 898a b2be 60be 583f 8d74 133f bcc8 b83e
000000c0: 1a8e c63e 27e4 a33e 79c2 a03e 610a 4f3e
000000d0: 8e1e 993e f476 b2bb 4d73 873e dedc a63d
000000e0: 8a61 3f3d ab48 733e b39f 113f 87c7 063f
000000f0: 4fb4 f53d 3f34 0f3f ff19 153f 5506 453e
00000100: b5c3 de3d ded3 d93e d9b6 c43e 63b5 e93d
00000110: a1db 94bc e1ae 253e 0a47 c93e be7c a43e
00000120: 221c 363e 16bd 0a3e 26cb cb3d 7447 dbbd
00000130: 9621 b53e 07bd 33bf af33 79bf 9b17 deba
00000140: 42d7 babe 1f0f 8ebf 5d80 5ebf 342f 5d3e
00000150: 0ad4 c4be 355b 88bf 2f52 7dbf 9312 733d
00000160: 1e9d 96bd ec4b 88bf 07fb 0a3f c87a b13e
00000170: 428e 3d3e c02d 993e 33cd aa3e 5363 623e
00000180: fce0 bf3e aee4 323d 3fd2 a23e 2a90 b13e
00000190: 6bf7 9d3e 4987 563e 3717 aa3e 0d39 123e
000001a0: 2d27 2e3e b59b 54bf dead 3dbf 5576 b3be
000001b0: a692 67be 669d 78be bd58 b9be 8b9d c5be
000001c0: 5f53 c7be 2b7e 8bbe a9d7 dbbe c6b4 c4be
000001d0: 06e8 9dbe afdc 1dbf af54 26bf 9986 13bf
000001e0: 537d 22bf 75c4 bcbe 3b3d 41bf 5f8e cbbe
000001f0: b600 f0be a8d9 0fbf 19f5 4abf 628c 6cbf
00000200: 5992 3ebf 45cf 84be 9a61 35bf 2bcd 83bf
00000210: 1bb4 c3be 8e7e fbbe 565b 46bf 11cf c23e
00000220: 6f89 d13e 5574 9f3c 981f 723e 334f 213f
00000230: ddfc ff3e 9dc5 14be 80e3 cc3d 98bd b33e
00000240: f1f1 cd3e a7a5 56be baa9 6f3e c060 2c3f
00000250: c3d6 ee3e b330 4fbe 91f7 b4be a6b1 ddbe
00000260: 7087 d7be 2828 97be 676b babe eb24 363d
00000270: 414d 8abe c2f0 d1bc b30b a2be 899e 23be
00000280: 9ce7 8abd 93be abbe 6d92 b6bd 0083 dfbe
00000290: ab47 8bbe dc18 89bf c937 c7bf fd31 a33d
000002a0: 2610 973e a684 77bf 3265 c8bf 2cef 6fbe
000002b0: 3650 b83c 6d35 7bbf 53b6 8cbf 76f4 d3bd
000002c0: b11c 22be 5d99 aabf 9bf9 58bf 3327 653e
000002d0: 16c4 3fbf 7bb8 49bf eaaa bcbe 43b6 d53d
000002e0: a5ea 1dbf 1800 34bf 42b0 a6bd e72c 31bd
000002f0: b046 6ebf 6b9d 1fbf 6f44 af3e c696 18be
00000300: 3c8b 83bf ab32 63bf b701 4c3d bcaa 8cbe
00000310: f4ba 0fbf a758 3cbe 4715 47be 99d7 c5be
00000320: cbc7 9dbe e176 cfbe 10a1 97be da0f a4be
00000330: c220 28be e90c aabd edb2 66be 5e01 e8be
00000340: 6238 aebe 0837 77be 3403 083f 2282 dd3e
00000350: 3969 253e dfbc 083f e10c 863e b9be 0f3e
00000360: db1c b2bd 0294 a33d bbb4 883e c58e da3d
00000370: 64f0 a6bc b2fa bc3e 76cb a53e a6aa d23e
00000380: 499c e13e 630f 66bf f4a3 59bf db0f 00bf
00000390: af4b 7abe e62f d2be c754 b9be 2f88 5ebe
000003a0: 8f01 08bc db49 ae3c 0067 8dbd 2264 3bbe
000003b0: 34ec 3fbe d4a1 90be 5015 06bf 2247 0dbf
-0.052231193 -0.3122533 -0.5583683 -0.768365 -0.20033129 -0.13567269 -0.39286545 -0.66837084
-0.14204305 -0.39538184 -0.7031538 -0.3524495 -0.24602918 -0.22152804 -0.9315065 -0.5830907
-0.75606394 -0.1695982 0.6901796 0.024854662 -0.56158525 0.1753424 0.66802794 -0.07905958
-0.33125663 -0.037922725 0.5288322 -0.59524834 -0.43803856 0.21638106 0.3591905 0.020346018
-0.8521522 -0.15057303 0.36521706 0.31898153 -0.78991836 -0.040077824 0.3789933 0.16233611
-0.67634165 -0.41661778 0.3120531 0.2967025 -0.3487132 0.8466549 0.5759972 0.36090648
0.3878029 0.32010004 0.3139837 0.20218803 0.29906124 -0.005446309 0.26455155 0.08147596
0.04672388 0.2375819 0.56884307 0.52648205 0.11997282 0.55939096 0.5824279 0.19240697
0.10877172 0.42544454 0.38420752 0.1141155 -0.018171133 0.16179992 0.3931201 0.3212642
0.1778417 0.13548693 0.09950857 -0.10706988 0.35377187 -0.7021031 -0.9734449 -0.0016944291
-0.36492354 -1.1098365 -0.86914617 0.21600038 -0.38443023 -1.0652834 -0.9895353 0.059343886
-0.073541865 -1.064817 0.5428929 0.34663987 0.18511298 0.29917717 0.3335968 0.22108202
0.37476337 0.043675117 0.3180103 0.346803 0.30852827 0.20950045 0.33220837 0.14279576
0.17007132 -0.8305009 -0.74093425 -0.35051218 -0.22614536 -0.24278793 -0.36200514 -0.38596758
-0.38930795 -0.27244696 -0.42937973 -0.3841917 -0.30841082 -0.6166486 -0.64972967 -0.57627255
-0.6347248 -0.36868635 -0.75484055 -0.39757058 -0.46875542 -0.5619149 -0.7928024 -0.9240171
-0.7444206 -0.25939384 -0.70852053 -1.0296987 -0.38223347 -0.4911999 -0.7748312 0.38048604
0.40925166 0.019464651 0.23644865 0.63011473 0.49997607 -0.14528508 0.1000433 0.35105586
0.4022365 -0.20961629 0.2340459 0.6733513 0.46648225 -0.20233421 -0.35345128 -0.43299598
-0.42095518 -0.29522824 -0.36410066 0.0444688 -0.27012065 -0.025627498 -0.3164955 -0.15978445
-0.06782457 -0.33543834 -0.08914647 -0.43654633 -0.27203116 -1.0710711 -1.5563899 0.07968519
0.29504508 -0.9668678 -1.5655882 -0.2343108 0.022499185 -0.98128396 -1.0993141 -0.103493616
-0.15831257 -1.3328053 -0.8475587 0.22378235 -0.7490858 -0.7879712 -0.36849147 0.10435154
-0.61686164 -0.70312643 -0.08139087 -0.043255713 -0.9307661 -0.62349576 0.34231898 -0.14901266
-1.0276866 -0.8874919 0.049806323 -0.2747401 -0.5614464 -0.18393193 -0.1944171 -0.3864105
-0.30816492 -0.40520385 -0.29615068 -0.32043344 -0.16418746 -0.08303244 -0.22529192 -0.45313543
-0.34027392 -0.24142087 0.5312989 0.43263346 0.1615342 0.53413194 0.261817 0.14037599
-0.0869691 0.079872146 0.26700386 0.106717624 -0.020378299 0.36910015 0.3238179 0.4114582
0.4406455 -0.8986723 -0.850158 -0.50024194 -0.24442933 -0.4105217 -0.36197492 -0.21731637
-0.008301153 0.021275451 -0.06904411 -0.18299916 -0.18742448 -0.28248465 -0.5237627 -0.55186665

model.fe.conv2.weight f4 [16, 16, 1, 1]
00000000: 33c8 873e e753 b4be d076 4cbe 85f3 00bf
00000010: 103f 0bbd a54d 78be deb5 f4be 5bec 173f
00000020: 13fd 813e 8415 b0be b359 75be b650 2a3f
00000030: 394d 91be c3a9 9a3e 10ee e0be 6d29 223f
00000040: e5b3 103f 5119 47bf c7fe 8a3f 5078 c83e
00000050: 2fad 9ebe c614 1a3f 68dd a03d 58e0 cfbe
00000060: 84d2 b23e dabc febe 6f43 d23e 9af2 893e
00000070: 64b3 af3e d399 ebbe 2e70 193e dba7 03bf
00000080: b17d 9dbe a671 623f 4be6 d03e eae0 3ebf
00000090: 33cd 3c3e 7bf6 143f 7461 98be 6dd8 603e
000000a0: 5a3d 513e 17b6 a83d e751 2ebe 8a17 4dbb
000000b0: 7ee7 d53e 2278 f83e e508 f6be 6a45 593f
000000c0: 0734 203f 34be 4bbf c049 963f 1cff d33e
000000d0: 3d54 c3be 8b8e 163f e966 773e bb48 cdbe
000000e0: f311 833e 89f8 dbbe 2fb3 ef3e ebb1 003f
000000f0: 3b36 2b3f a061 94be 20a9 d53e 8eff fdbe
00000100: 8767 563e 11e6 55be 47e3 38bd aae7 1dbf
00000110: 56c3 763d 9226 66be 0e70 8abe efa2 303e
00000120: 18b8 b53e 86f0 9dbe 4eed fdbd e5ae 163f
00000130: d7aa a6be aec9 e13e 7ada 17bf 4fdf 0e3f
00000140: 478b 103d 0010 213f ea5a 0f3f b0f2 28bf
00000150: 590f c33d d9f9 6f3e cd54 0fbf 0afe 523f
00000160: 89fa d33e 40e4 d8bc 19ca 37be f6d0 e1bd
00000170: 5edd a13e 6d00 af3e e2c2 11bf dcf3 1e3f
00000180: 3bb9 293f 8296 00bf 7e98 9b3f 155a c23e
00000190: 741b 0abf 0f60 3e3f e2eb 803e 34f5 01bf
000001a0: e3bc 2b3e 3b33 cbbe f784 0c3f 8053 023f
000001b0: 1c9c c63e 9938 95be 787c 8a3e 502d 02bf
000001c0: 0a11 1f3f ff2f 5cbf f81a a53f a113 b13e
000001d0: fd78 ccbe 7408 da3e 690c 2a3e bf54 0ebf
000001e0: e881 f13e e8c0 22bf a3f3 a43e b732 a83e
000001f0: cf58 1f3f 152f 27be 9135 d63e 751c d1be
00000200: b0a7 093f cd7b 1cbf 4b6c a13f 90c6 b83e
00000210: e284 15bf 0737 013f c9e5 e53d 3cac 0fbf
00000220: aa3c c63e 3ad7 a3be 6f0f a83e b9ea 073f
00000230: a649 1d3f 8bff 60be 04fc 883e cc4a 24bf
00000240: 09a3 aabe f7c3 983f 74b6 d73e 5882 46bf
00000250: 916d 9a3e 2a2a 6d3f f737 9abe 5326 fc3e
00000260: db29 a13e 4b3a 51bd f938 89be 4a1f 4bbe
00000270: 03b4 1f3f f9ed 953e 04c0 14bf e151 273f
00000280: d545 a93d a30a b5be 69a4 24bd 16b0 5ebe
00000290: e6a4 0c3e 9004 53be 954d acbe 7f7f e73e
000002a0: 2d45 df3e 71d6 54be dcac 5dbd 658f cb3e
000002b0: 8015 2ebe e6f9 d13e 3a2b 13bf 4eec 273f
000002c0: e6b3 293f b547 37bf c163 8e3f 4819 cb3e
000002d0: a6ae 61be f8e0 133f 4895 793e e94f f5be
000002e0: 3602 aa3e 965a d3be 85b9 d23e 67d8 b13e
000002f0: ec63 e13e d865 afbe 7f1f a93e acd9 d5be
00000300: af20 073f c797 1dbf 55a8 7a3f d7ad 763e
00000310: d96d f2be 832b b83e 743f 4c3e ad02 eebe
00000320: f1d6 863e 5353 bcbe d9cd b53e 7ac4 903e
00000330: de82 d83e 20ca 73be 65b5 a33e 6439 7ebe
00000340: 60a8 9d3e 3897 33bf 4271 873f fcb3 8f3e
00000350: b218 aebe 6d55 fd3e 92fd b13e 9c7e bebe
00000360: 3f20 ba3e cc5b 9abe 59d7 463e 917e fe3e
00000370: bc3e 133f 8fc3 d1be 647d 903e a2b3 00bf
00000380: 1c2e 8abe 0787 933f 7548 dd3e 0659 16bf
00000390: 753a 5b3e 6d16 4e3f d723 92be 9720 0a3f
000003a0: 0b81 e43e 7187 2f3e 8ce5 c1be 199d c9bd
000003b0: 01d8 fd3e eb9f 533e 261c b9be 49e6 243f
000003c0: 8f6f aabd 37c9 a63f 9b25 e53e f7db cfbe
000003d0: ac5a 6f3e 99ff 403f 424c a1be dd92 e73e
000003e0: 0c40 003e 28e7 8a3e 3ab3 babe 7e6f 9e3d
000003f0: bfc1 0b3f b2b8 b73e 32c1 30bf 866f 803f
0.26519927 -0.35220262 -0.19967198 -0.5037158 -0.033995688 -0.24248369 -0.47795004 0.59345025
0.25388393 -0.34391415 -0.23959999 0.66529405 -0.2837923 0.30207643 -0.43931627 0.6334446
0.565245 -0.77773005 1.0859002 0.3915429 -0.30991504 0.6018795 0.0785473 -0.40600848
0.34926236 -0.49753457 0.41067073 0.26942903 0.34316552 -0.46015796 0.149842 -0.51428
-0.30759957 0.88454664 0.408007 -0.7456194 0.18437652 0.581886 -0.2976185 0.2195756
0.2043356 0.08237856 -0.17023431 -0.0031294548 0.41778177 0.48529154 -0.4805366 0.8487154
0.6257939 -0.795871 1.1741257 0.4140557 -0.38150206 0.58811253 0.24160351 -0.4009455
0.25599632 -0.42963055 0.46816394 0.5027148 0.66879624 -0.28980732 0.41730595 -0.49609035
0.2093793 -0.20888545 -0.045138624 -0.61681616 0.06024488 -0.22475651 -0.27038616 0.17249654
0.35492015 -0.30847567 -0.12398778 0.5886062 -0.32552215 0.44099182 -0.59317744 0.5580949
0.035289075 0.6291504 0.559981 -0.6599531 0.09524412 0.23435153 -0.5598877 0.8241888
0.4140208 -0.026476026 -0.17948188 -0.11026184 0.31614202 0.34180012 -0.5693799 0.6209085
0.66298264 -0.50229657 1.2155912 0.37959352 -0.5394814 0.74365324 0.25179964 -0.50764775
0.16771273 -0.39687523 0.5489039 0.5090866 0.38790977 -0.29144743 0.27048087 -0.5085039
0.62135375 -0.86010736 1.2898855 0.34585288 -0.39936057 0.42584574 0.16606297 -0.5559806
0.47169423 -0.635756 0.3221713 0.32851192 0.62244886 -0.16326554 0.41837743 -0.40842023
0.53771496 -0.61126405 1.2611173 0.3608899 -0.5840589 0.5047459 0.11225469 -0.56122184
0.38718158 -0.32000142 0.32824275 0.53092533 0.61440504 -0.21972482 0.26754773 -0.6417663
-0.3332751 1.1934804 0.42131388 -0.7754264 0.30161718 0.9264246 -0.30120823 0.4924799
0.31477246 -0.051080983 -0.2680128 -0.19836155 0.6238405 0.2928312 -0.5810549 0.6535931
0.082652725 -0.35359678 -0.040195856 -0.21746859 0.13734779 -0.20607209 -0.3365294 0.4521446
0.43607464 -0.20784928 -0.05411993 0.3975784 -0.17000389 0.4101097 -0.57487833 0.6559495
0.6629013 -0.7159379 1.1124192 0.39667726 -0.2203928 0.5776515 0.24373353 -0.4791253
0.33204812 -0.4128005 0.41157165 0.34735414 0.44021547 -0.34257388 0.33031842 -0.41767633
0.52784246 -0.6155972 0.97913104 0.24089752 -0.47349432 0.35970697 0.1994608 -0.46486416
0.26335862 -0.3678232 0.35508612 0.282749 0.42287344 -0.23807573 0.3197433 -0.2482658
0.30792522 -0.70152617 1.0581439 0.28067005 -0.34003216 0.49479237 0.3476377 -0.3720597
0.36352727 -0.3014816 0.19418086 0.49705938 0.575176 -0.40969512 0.28220665 -0.502741
-0.26988304 1.1525582 0.43219343 -0.5872959 0.21409018 0.8050297 -0.2854297 0.5395598
0.44629702 0.1714151 -0.37870443 -0.09844417 0.4957886 0.20666473 -0.36154288 0.6441389
-0.08322059 1.3030156 0.44755253 -0.40597507 0.23374432 0.7539001 -0.31503493 0.45229235
0.12524432 0.27129483 -0.36464864 0.07736109 0.5459251 0.358831 -0.6904479 1.0034034

model.fe.bn.weight f4 [16]
00000000: 6f53 a53f 0142 ad3f acf7 a33f 459a 9f3f
00000010: 4637 9e3f 8213 9e3f fb04 a63f cb30 b33f
00000020: fbfd 9f3f d614 aa3f d0e1 993f 5085 a53f
00000030: 0135 a63f e1cb a53f 5a79 a13f e3b7 9e3f
1.2916087 1.3535768 1.2809958 1.2468954 1.2360618 1.2349703 1.297027 1.3999265
1.2499384 1.3287609 1.2022038 1.2931309 1.2984926 1.2952844 1.2615159 1.2399868

model.fe.bn.bias f4 [16]
00000000: 53a5 8abe f44e b9be f359 8abe 8276 a1be
00000010: e777 6dbe eedc 68be e238 b0be a755 c2be
00000020: 515a 9dbe db77 9dbe d0ca 4ebe d9d7 a9be
00000030: bd94 abbe 8f3e a6be b4ee 86be aff1 87be
-0.27079257 -0.3619305 -0.2702175 -0.31535727 -0.2319027 -0.22740528 -0.34418398 -0.37955973
-0.30732968 -0.30755505 -0.20194554 -0.3317249 -0.33511916 -0.32469603 -0.2635399 -0.26551577

model.fe.bn.running_mean f4 [16]
00000000: 67f7 4cc1 0364 95c1 21d8 54c1 d80c b9c1
00000010: 9cdb 43c1 fc45 3cc1 d068 b7c1 b04c aac1
00000020: d24f bcc1 2999 83c1 b00d 2ac1 8621 9ec1
00000030: 636c 7ec1 e6c3 a5c1 3f18 82c1 7103 85c1
-12.810401 -18.673834 -13.302766 -23.131271 -12.241116 -11.767086 -22.926178 -21.287445
-23.538975 -16.449785 -10.628342 -19.766369 -15.901462 -20.720654 -16.261839 -16.62668

model.fe.bn.running_var f4 [16]
00000000: 50dd 0342 a176 f042 0fab 2442 e5da 2243
00000010: 3d2c b641 1001 0e42 c41f 1d43 fe78 1743
00000020: 072b 1b43 5cae 8f42 b321 7f41 7474 fe42
00000030: d706 b542 9117 ef42 a5b1 6642 39a5 7442
32.966125 120.2317 41.16705 162.85506 22.7716 35.501038 157.12408 151.47263
155.16808 71.840546 15.945727 127.22745 90.51336 119.54603 57.67348 61.16135

model.classifier.weight f4 [1, 16]
00000000: fc0d 33bf c061 123f 1370 0dbf 3dd3 fa3e
00000010: 65b3 3abf 1100 e9be 7463 e83e b130 133f
00000020: 69a7 033f 8721 1abf 56c6 16bf 3cfb 103f
00000030: f3fe 0d3f 2815 0f3f 91ec 28bf dacc 0bbf
-0.69943213 0.57180405 -0.55249137 0.48989287 -0.72929984 -0.45507863 0.45388377 0.5749617
0.5142732 -0.6020741 -0.58896387 0.56633353 0.55467147 0.55891657 -0.6598597 -0.54609454

exp_avg f4 [40, 1, 1, 25]
00000000: dc11 b6b8 0f42 e0b7 e6da dc37 e1b4 5638
00000010: b99a 2a38 93ac ad35 d6c2 5bb8 a925 d9b8
00000020: 94f5 0fb9 27e8 16b9 4911 fcb8 33ae 94b8
00000030: 6ec1 15b7 1dc8 4538 e877 a638 b728 a338
00000040: d7ba 4538 f5ed f836 1ae1 60b7 836f f636
00000050: 28f9 9a38 dda6 2d39 ae03 7e39 aa6c 8839
00000060: 1f1c 4b39 ba26 3639 efc6 5d38 b6da 2ab8
00000070: 316f 8ab8 2c22 dcb7 ca53 2e38 7a7d c338
00000080: 2a8a d638 56f6 9238 39cd a337 fd09 c2b7
00000090: 7628 3ab8 b496 46b8 bade 3bb8 5cf4 4cb8
000000a0: b9bf 82b8 3b30 a9b8 b25e d1b8 8d13 00b9
000000b0: 677f 21b9 6084 4cb9 fbf0 6cb9 08d7 5ab9
000000c0: feca d4b8 f30d ed38 5b2d b0b8 3443 70b8
000000d0: 820d 0cb8 a898 81b7 788e 92b6 02c2 2536
000000e0: 0fa7 2637 d324 c237 3ece 3d38 9798 9e38
000000f0: a92e e638 3062 1339 b44d 2839 768d 2c39
00000100: a3bd 1e39 24aa 0239 4fb0 be38 70f4 6e38
00000110: 9475 dc37 66d7 26b6 614c 11b8 ffbd 9fb8
00000120: 8ce5 07b9 ff4e 48b9 34fd 82b9 63ed 8a38
00000130: c084 b438 74bb cc38 20a4 cb38 145c b338
00000140: 6205 8e38 b491 5738 f139 3938 163c 5138
00000150: 3f60 8938 ef64 a938 1264 aa38 8bbb 6438
00000160: 0903 07b6 6b7c a3b8 50ae 1eb9 47fc 4db9
00000170: 89e0 4bb9 7824 15b9 3f47 66b8 57ce 2238
00000180: 2ff6 e138 d529 0939 aa53 dc38 a11b 4438
00000190: 438c f537 3405 cd38 93ce 2439 e801 5339
000001a0: 04db 6a39 2449 6739 5c5c 4739 71db 0f39
000001b0: 9443 9638 b650 cc36 c44a 45b8 4096 a6b8
000001c0: 6d4d bcb8 9beb b0b8 2699 9cb8 c84b 9ab8
000001d0: 32ed bbb8 e5a0 00b9 3a4a 2ab9 30ed 47b9
000001e0: df96 44b9 d1b7 11b9 c5d8 37b8 e52d b038
000001f0: 1160 6539 1f60 d1b9 5dfa 78b9 8e2f 54b8
00000200: e063 d338 cb65 3939 3fb2 3139 bdf1 d038
00000210: 2c76 d136 25b6 8fb8 da58 c1b8 c2f7 5cb8
00000220: 6dfd 2138 21fc 1d39 de6f 7e39 2c71 9239
00000230: c52d 8039 0753 1c39 5d50 ef37 c7ad 93b8
00000240: 5241 e6b8 b705 a6b8 96d0 6eb6 4b2e 8838
00000250: f2ae 9238 49aa abb7 b759 f537 7e45 ce37
00000260: 4612 ab37 81b2 6d37 e596 8c36 fd90 19b7
00000270: 56a8 c3b7 9e3f 11b8 af66 26b8 61d7 1ab8
00000280: 246e e2b7 4735 52b7 956c 3636 755a 7b37
00000290: a6a7 b537 0f6c b737 1298 8c37 5664 1837
000002a0: ef4a 0f36 afe7 e8b5 cee7 1cb6 e11c 04b6
000002b0: 643e 91b6 4321 52b7 ed43 deb7 5922 c039
000002c0: 21e2 bc39 2862 a639 b50f 8239 5b5c 2f39
000002d0: 9c03 ba38 de4e ba37 f917 efb7 92e0 89b8
000002e0: 872d c3b8 ed82 eeb8 e589 06b9 6258 0db9
000002f0: 46aa 08b9 6158 f1b8 13c6 c1b8 1df1 90b8
00000300: 0318 62b8 b382 60b8 fb57 90b8 3194 c5b8
00000310: a6cf f6b8 ee63 02b9 6788 d5b8 d19a 3db8
00000320: 024c ae38 61ba 0e39 288e 7339 9537 9239
00000330: 0971 6a39 6f00 9d38 e705 e9b8 4bd1 8bb9
00000340: bb85 b5b9 0d54 b3b9 d7b4 8eb9 1f8a 29b9
00000350: 7dff f8b7 140c e638 117b 7739 ff64 a339
00000360: bb8a 9839 f0db 1a39 cb1b cab8 7c8f bdb9
00000370: 66a0 0cba 78f7 0aba 9610 acb9 560c 83b7
00000380: 7ce3 8439 d338 a138 7eb8 3a39 66b5 1039
00000390: d3a8 0937 0c42 fbb8 74f4 2eb9 a01d deb8
000003a0: cdcc f937 e2ea 3239 ff41 8339 2977 7a39
000003b0: bcc1 1f39 a85f 1e38 172a 68b8 62bb cfb8
000003c0: 2d93 c7b8 7e38 87b8 32b0 f9b7 19bb 1cb6
000003d0: a37b 9137 acef f937 6262 e037 1fa3 14b7
000003e0: 564d beb8 2e97 5db9 29d8 bdb7 e4cb 83b7
000003f0: c7f4 ccb7 70cc 10b8 b01b 07b8 131d 4db7
-8.681763e-05 -2.6733642e-05 2.6327976e-05 5.1190033e-05 4.0675255e-05 1.293973e-06 -5.2395124e-05 -0.00010354381
-0.00013729028 -0.00014391598 -0.00012019516 -7.089637e-05 -8.926128e-06 4.715483e-05 7.937831e-05 7.7800294e-05
4.714247e-05 7.418678e-06 -1.3403851e-05 7.344353e-06 7.389701e-05 0.00016560727 0.00024224698 0.00026020902
0.00019370065 0.000173713 5.2875777e-05 -4.073485e-05 -6.601064e-05 -2.6241956e-05 4.1562867e-05 9.3216964e-05
0.0001023005 7.007706e-05 1.9526678e-05 -2.3131253e-05 -4.4383538e-05 -4.7347232e-05 -4.4791705e-05 -4.8864968e-05
-6.234594e-05 -8.0675316e-05 -9.983535e-05 -0.00012214314 -0.00015401618 -0.0001950427 -0.00022596486 -0.00020870205
-0.00010146758 0.00011303639 -8.400782e-05 -5.7283047e-05 -3.339118e-05 -1.5449084e-05 -4.3677246e-06 2.4699843e-06
9.933267e-06 2.314375e-05 4.525319e-05 7.562449e-05 0.00010975946 0.0001405559 0.00016050675 0.00016455897
0.000151387 0.00012461148 9.092746e-05 5.6971272e-05 2.6280795e-05 -2.4861306e-06 -3.4641827e-05 -7.6171e-05
-0.00012960116 -0.00019102915 -0.00024984183 6.6245695e-05 8.6077955e-05 9.762394e-05 9.710365e-05 8.552536e-05
6.77209e-05 5.139569e-05 4.41614e-05 4.9885442e-05 6.550596e-05 8.077348e-05 8.124871e-05 5.45341e-05
-2.0118334e-06 -7.79562e-05 -0.0001513299 -0.00019644304 -0.00019443234 -0.00014223333 -5.4902626e-05 3.881598e-05
0.00010774691 0.00013080922 0.00010506001 4.6755773e-05 2.927159e-05 9.776131e-05 0.00015717214 0.00020123238
0.00022397569 0.00022057124 0.00019012525 0.00013719291 7.165145e-05 6.0890698e-06 -4.703809e-05 -7.943483e-05
-8.97896e-05 -8.436219e-05 -7.467186e-05 -7.3574076e-05 -8.961036e-05 -0.00012266969 -0.00016240115 -0.00019066478
-0.0001874822 -0.00013896755 -4.3832482e-05 8.4008825e-05 0.0002187493 -0.00039935202 -0.0002374439 -5.0589028e-05
0.00010079867 0.00017680896 0.00016946437 9.96324e-05 6.2424424e-06 -6.8526984e-05 -9.219507e-05 -5.268283e-05
3.8621412e-05 0.00015066612 0.00024265001 0.0002793161 0.00024448163 0.0001490825 2.8528442e-05 -7.041875e-05
-0.000109794215 -7.916561e-05 -3.5586177e-06 6.493608e-05 6.9944086e-05 -2.0464084e-05 2.9248053e-05 2.4589473e-05
2.0393298e-05 1.4167862e-05 4.1898916e-06 -9.153268e-06 -2.3324199e-05 -3.4629942e-05 -3.9673116e-05 -3.691705e-05
-2.6992588e-05 -1.252938e-05 2.7183316e-06 1.4981827e-05 2.1654949e-05 2.1865619e-05 1.6760114e-05 9.083267e-06
2.1352278e-06 -1.7352776e-06 -2.338074e-06 -1.9686343e-06 -4.3286e-06 -1.252472e-05 -2.6496093e-05 0.00036646685
0.00036026633 0.0003173512 0.00024807235 0.00016723706 8.8698434e-05 2.2209653e-05 -2.8502183e-05 -6.5744985e-05
-9.306805e-05 -0.00011373111 -0.00012830606 -0.00013479733 -0.00013033403 -0.000115082374 -9.239851e-05 -6.911366e-05
-5.390496e-05 -5.3527485e-05 -6.882843e-05 -9.421295e-05 -0.000117688716 -0.00012434993 -0.000101820384 -4.5205295e-05
8.311124e-05 0.00013611607 0.00023227243 0.00027888702 0.00022358088 7.486424e-05 -0.00011111405 -0.0002666808
-0.00034622647 -0.00034204163 -0.00027219087 -0.0001616855 -2.9682875e-05 0.000109695044 0.00023601601 0.0003116503
0.00029095061 0.00014768518 -9.6372874e-05 -0.00036155793 -0.00053644774 -0.0005301158 -0.00032818754 -1.5622161e-05
0.0002534649 7.6876626e-05 0.00017807071 0.00013800486 8.205144e-06 -0.00011980915 -0.00016684999 -0.00010591303
2.977848e-05 0.00017062903 0.00025035438 0.00023886249 0.00015235593 3.7759222e-05 -5.535231e-05 -9.905432e-05
-9.516473e-05 -6.447824e-05 -2.976516e-05 -2.3354717e-06 1.734292e-05 2.9794719e-05 2.6748694e-05 -8.859467e-06
-9.074311e-05 -0.00021132521 -2.2631213e-05 -1.571136e-05 -2.4432678e-05 -3.4522673e-05 -3.2212294e-05 -1.2225722e-05
