ckpts/finetuning/subject_01-session_06.ckpt (torch, 64013 bytes, 50 tensors)

model.input_block.temp_cov.weight f4 [40, 1, 1, 25]
0.42776012 0.011280202 -0.4780372 -0.48863652 -0.38743085 -0.06913452 0.20719153 0.44777733
0.27581954 0.28416464 -0.06998408 -0.24981743 -0.4619767 -0.436081 -0.39435413 -0.16391845
0.2658926 0.44676155 0.24529263 0.28629905 0.332205 0.1469877 -0.27777988 -0.21336184
-0.43320683 -0.6008215 0.102174476 0.28683254 0.49783358 0.54045105 0.3931286 0.27570814
-0.47315887 -0.4492144 -0.46504322 -0.43807527 -0.03467853 0.6176383 0.5224888 0.52858067
0.45262706 0.02420371 -0.22592555 -0.5268441 -0.51405764 -0.42461613 0.3061344 0.5751026
0.45002508 0.5496852 0.59152293 0.64626426 0.50143045 0.41235924 0.40329343 -0.25491676
-0.25172454 -0.47756815 -0.46282232 -0.4031775 -0.13216132 -0.038554277 -0.15704148 0.046134803
0.038037118 -0.18576239 -0.21249904 -0.14412807 0.13971359 0.4472253 0.26637405 0.4536735
0.66107154 0.7410596 0.6158819 -0.048516 -0.27085477 -0.4695159 -0.25213432 -0.3595724
-0.31184992 0.30145022 0.35911193 -0.0004154537 0.16931999 -0.106444895 -0.2649025 -0.346431
-0.13260886 -0.17061476 0.17950526 0.26560053 0.30779767 0.17010766 -0.31137684 -0.36886334
-0.19976659 -0.24539629 -0.4021504 -0.29345956 0.34642324 0.06283585 -0.37012997 -0.40018022
-0.51287484 -0.29430392 -0.41042483 -0.36486435 -0.09561303 0.1319944 0.07776019 0.24718216
-0.042674143 0.21413325 0.15123917 -0.1215666 0.06983362 0.2146514 0.31326625 0.39926764
0.35150376 -0.012819822 -0.35707256 -0.30927512 -0.718548 -0.0994536 -0.31981897 -0.48658735
-0.49184018 -0.56932515 -0.37912256 -0.0869643 0.08051791 0.36062855 0.45606703 0.120182
-0.054887187 -0.21741341 -0.1919728 -0.038697015 0.15188774 0.21516925 0.3754433 0.22555819
-0.07989208 -0.29664695 -0.19055386 -0.3985717 -0.53565896 -0.585279 0.104139805 0.3520856
0.5926763 0.75017303 0.7092778 0.35657427 0.6161284 0.24602568 0.17786402 -0.10620625
-0.21214396 -0.30177942 -0.5119719 -0.5637051 -0.4684345 -0.4688732 -0.57996446 -0.36022994
-0.46153557 0.0068605393 0.41822743 0.28825864 0.6490097 0.63170284 0.45310953 0.20215228
0.0026933732 -0.09659229 0.1327686 -0.22004889 -0.06775673 -0.1045931 0.088779934 0.006131639
0.05447842 0.041569177 -0.07354815 -0.07553904 -0.19831552 0.07134533 0.12814628 0.12859504
-0.14762452 -0.03813221 -0.1693691 -0.10203954 -0.07620014 0.121430874 -0.08666564 0.012759744
0.88376987 0.7065454 -0.13836107 -0.5249032 -0.579436 -0.30407083 -0.3643819 0.30026856
0.3997254 0.3575745 0.31510684 0.2046229 -0.12456436 -0.35757744 -0.3473386 -0.34496963
-0.5372422 -0.14864083 0.46354482 0.2260081 0.3785037 0.44637477 -0.09916424 -0.60058945
-0.99124974 -0.19946945 -0.63446546 -0.5856862 -0.57175 -0.46342942 -0.16807497 0.43061063
0.39783975 0.46280563 0.18133907 -0.41677743 -0.3611371 -0.60811156 -0.45707768 -0.07949764
0.19940038 0.40458405 0.22364613 0.21649826 -0.05511827 -0.68873364 -0.39673293 -0.69343716
-0.45149416 -0.29995745 -0.4941461 -0.5936186 -0.5644993 -0.7878575 -0.7570402 -0.5559304
00000000: 6003 db3e 99d0 383c 4bc1 f4be 912e fabe
00000010: 565d c6be 6696 8dbd 042a 543e 1243 e53e
00000020: 3838 8d3e 077e 913e d053 8fbd 24d0 7fbe
00000030: 3688 ecbe 0246 dfbe c9e8 c9be 3dda 27be
00000040: 1323 883e eebd e43e fe2d 7b3e ca95 923e
00000050: c616 aa3e f283 163e 2a39 8ebe 877b 5abe
00000060: 49cd ddbe 70cf 19bf da40 d13d b7db 923e
00000070: 0be4 fe3e 005b 0a3f 2748 c93e 9e29 8d3e
00000080: e141 f2be 6eff e5be 251a eebe 674b e0be
00000090: 130b 0ebd 8b1d 1e3f d3c1 053f 1051 073f
000000a0: bcbe e73e dc46 c63c 0759 67be 41df 06bf
000000b0: 4899 03bf 4967 d9be a6bd 9c3e ed39 133f
000000c0: b069 e63e 2bb8 0c3f 0c6e 173f 9371 253f
000000d0: bf5d 003f c020 d33e 7a7c ce3e 7384 82be
000000e0: 0ae2 80be d083 f4be 0cf7 ecbe 486d cebe
000000f0: 4c55 07be 17eb 1dbd 7bcf 20be d9f7 3c3d
00000100: cfcc 1b3d 7f38 3ebe 5999 59be 4f96 13be
00000110: 1411 0f3e b7fa e43e 2e62 883e e547 e83e
00000120: fc3b 293f 15b6 3d3f 70aa 1d3f b7b8 46bd
00000130: 7aad 8abe 6364 f0be c017 81be e019 b8be
00000140: cbaa 9fbe af57 9a3e 85dd b73e 40d1 d9b9
00000150: 3862 2d3e c8ff d9bd 4da1 87be 675f b1be
00000160: 9eca 07be a3b5 2ebe 3ad0 373e cbfc 873e
00000170: a897 9d3e b430 2e3e c96c 9fbe a8db bcbe
00000180: 9d8f 4cbe 2a49 7bbe a8e6 cdbe 5540 96be
00000190: 635e b13e 15b0 803d ad81 bdbe 6ce4 ccbe
000001a0: c44b 03bf 01af 96be 3423 d2be 80cf babe
000001b0: c4d0 c3bd 8a29 073e bc40 9f3d 521d 7d3e
000001c0: 15cb 2ebd bf45 5b3e 71de 1a3e e9f7 f8bd
000001d0: ee04 8f3d 94cd 5b3e 6f64 a03e cf6c cc3e
000001e0: 4df8 b33e 3b0a 52bc 37d2 b6be 4f59 9ebe
000001f0: c3f2 37bf 54ae cbbd 50bf a3be fa21 f9be
00000200: 7ad2 fbbe 4bbf 11bf 5a1c c2be 571a b2bd
00000210: 93e6 a43d 4ea4 b83e 9e81 e93e fb21 f63d
00000220: 63d1 60bd 9fa1 5ebe 8594 44be c380 1ebd
00000230: 7688 1b3e 5455 5c3e 1b3a c03e baf8 663e
00000240: 759e a3bd 1ce2 97be 8d20 43be 9711 ccbe
00000250: f220 09bf d8d4 15bf 4047 d53d 9044 b43e
00000260: a2b9 173f 570b 403f 3b93 353f e790 b63e
00000270: 97ba 1d3f 28ee 7b3e fc21 363e aa82 d9bd
00000280: 443c 59be d582 9abe 9710 03bf fa4e 10bf
00000290: a6d6 efbe 2610 f0be 8d78 14bf 0f70 b8be
000002a0: 644e ecbe 60ce e03b e821 d63e a396 933e
000002b0: 8025 263f 47b7 213f f9fd e73e 0201 4f3e
000002c0: 4e83 303b 2ed2 c5bd 7ef4 073e 7f54 61be
000002d0: 0ac4 8abd e834 d6bd 41d2 b53d eaeb c83b
000002e0: c424 5f3d 7144 2a3d 6aa0 96bd 36b4 9abd
000002f0: 3913 4bbe 801d 923d c738 033e 6bae 033e
00000300: e22a 17be 8530 1cbd 186f 2dbe 1bfa d0bd
00000310: d20e 9cbd c0b0 f83d c17d b1bd 3f0e 513c
00000320: be3e 623f 29e0 343f 86ae 0dbe 0e60 06bf
00000330: eb55 14bf 2caf 9bbe 4490 babe cdbc 993e
00000340: cfa8 cc3e 0114 b73e af55 a13e aa88 513e
00000350: 991b ffbd 6414 b7be 5dd6 b1be dc9f b0be
00000360: b488 09bf 4d35 18be bf55 ed3e ab6e 673e
00000370: 3dcb c13e 3c8b e43e 9f16 cbbd 3bc0 19bf
00000380: 8bc2 7dbf b841 4cbe 546c 22bf 88ef 15bf
00000390: 355e 12bf 9f46 edbe d81b 2cbe ff78 dc3e
000003a0: a7b1 cb3e dcf4 ec3e f3b0 393e da63 d5be
000003b0: f6e6 b8be 33ad 1bbf 1606 eabe a9cf a2bd
000003c0: 9d2f 4c3e a425 cf3e 7e03 653e b8b1 5d3e
000003d0: b2c3 61bd d950 30bf 9420 cbbe 1985 31bf
000003e0: 3e2a e7be 0694 99be b800 fdbe 63f7 17bf
000003f0: 0783 10bf 07b1 49bf 63cd 41bf 7451 0ebf

model.input_block.bn1.weight f4 [40]
1.3956096 1.5032754 1.5046663 1.294267 1.342469 1.3494012 1.587266 0.912195
1.5761186 1.5202763 1.7002351 1.8948883 1.2699215 0.75241643 0.9958263 1.5711026
1.1500002 1.2725803 1.446529 1.3171008 1.4267263 1.4103498 1.4329126 0.86421937
1.2606893 1.2680275 1.4218899 1.322681 1.3303452 1.5592444 1.3716294 1.464273
0.016156448 1.4487628 0.95539284 1.1695632 1.4834349 1.3678426 1.2843162 1.4528906
00000000: 56a3 b23f 546b c03f e898 c03f 8baa a53f
00000010: 06d6 ab3f 2eb9 ac3f 882b cb3f 9d85 693f
00000020: 41be c93f 6a98 c23f 4ea1 d93f b38b f23f
00000030: ca8c a23f 5d9e 403f 79ee 7e3f e419 c93f
00000040: 3533 933f e9e3 a23f dd27 b93f c296 a83f
00000050: f89e b63f 5886 b43f ae69 b73f 7b3d 5d3f
00000060: 445e a13f ba4e a23f 7d00 b63f 9c4d a93f
00000070: c048 aa3f 5295 c73f 8d91 af3f 4c6d bb3f
00000080: 875a 843c 0f71 b93f a094 743f 3fb4 953f
00000090: 32e1 bd3f 7715 af3f 7964 a43f 52f8 b93f

model.input_block.bn1.bias f4 [40]
-0.26332578 -0.07768875 0.032728072 0.012578262 0.079359844 0.16016011 -0.4293658 -1.5224587
-0.12420744 -0.102251984 0.09524441 0.42152947 0.31278116 -2.342897 1.6012939 -0.20118874
1.5124073 -0.8150953 -0.061006162 0.047706246 -0.035108108 0.01269302 0.049998477 -1.9699936
0.01275645 0.12443535 0.13494536 -0.09582147 -0.15849498 0.4064136 -0.10453653 -0.15639895
2.8195112 0.6172411 -1.6670744 -0.1874871 0.051529232 0.010727763 0.0947813 -0.38083237
00000000: a3d2 86be 481b 9fbd df0d 063d 0e15 4e3c
00000010: 6a87 a23d 0301 243e d6d5 dbbe eddf c2bf
00000020: 7860 febd 7d69 d1bd 800f c33d b6d2 d73e
00000030: da24 a03e 06f2 15c0 33f7 cc3f 6c04 4ebe
00000040: 9096 c13f 16aa 50bf 99e1 79bd a067 433d
00000050: 85cd 0fbd 62f6 4f3c 34cb 4c3d c028 fcbf
00000060: 6e00 513c f6d7 fe3d 1e2f 0a3e 0c3e c4bd
00000070: 824c 22be 7215 d03e 4017 d6bd 0c27 20be
00000080: df72 3440 8303 1e3f b262 d5bf 9efc 3fbe
00000090: 5110 533d 80c3 2f3c b31c c23d 76fc c2be

model.input_block.bn1.running_mean f4 [40]
-6.263718e-07 -1.0499824e-06 6.967104e-06 -4.184688e-06 -4.7801404e-06 -7.0151527e-06 1.5667043e-05 8.5063924e-08
5.529232e-06 -6.2141366e-06 -1.3081252e-05 -9.495312e-06 -2.1193373e-06 1.6743186e-07 1.8901435e-06 1.4031714e-05
1.6755268e-06 -3.5342546e-07 1.7718512e-06 1.4690384e-06 4.513872e-06 9.042295e-06 -8.19735e-06 -7.532518e-08
-7.1956806e-06 -4.2285637e-06 -1.1378504e-06 -1.0852034e-06 -1.4806477e-06 1.4159453e-05 -2.381927e-06 -1.19035285e-05
-8.8324765e-07 -7.814723e-06 3.940012e-07 1.2152104e-06 4.3656764e-06 -1.320924e-06 -6.8377362e-06 5.255713e-07
00000000: f123 28b5 1fed 8cb5 f8c6 e936 326a 8cb6
00000010: 1865 a0b6 b463 ebb6 b86c 8337 63ac b633
00000020: be87 b936 0783 d0b6 8d77 5bb7 0e4e 1fb7
00000030: f039 0eb6 52c7 3334 d6b0 fd35 c169 6b37
00000040: aae2 e035 6dbe bdb4 58d0 ed35 c62b c535
00000050: de75 9736 5cb4 1737 5a87 09b7 75c2 a1b3
00000060: 6d72 f1b6 16e3 8db6 3eb8 98b5 4ea7 91b5
00000070: abba c6b5 638e 6d37 32d9 1fb6 44b5 47b7
00000080: 5118 6db5 fb1b 03b7 1d87 d334 501a a335
00000090: e07c 9236 9a4a b1b5 b56f e5b6 fc14 0d35

model.input_block.bn1.running_var f4 [40]
0.03646145 0.06671658 0.07720152 0.023719102 0.03685604 0.046220303 0.11582802 0.0009194233
0.05501652 0.06539528 0.11996178 0.096326865 0.012209331 0.00023181134 0.0069852774 0.1027938
0.0052580154 0.014931685 0.054390904 0.023822615 0.04103742 0.06774748 0.043834224 6.4994136e-05
0.030368835 0.020275528 0.030488765 0.019987293 0.03436373 0.09639369 0.026956566 0.07234218
0.00017149383 0.04643926 0.00056519464 0.00927445 0.06475498 0.03316023 0.0312765 0.059316985
00000000: 9a58 153d b4a2 883d d51b 9e3d 904e c23c
00000010: 5cf6 163d 8051 3d3d 3e37 ed3d 7405 713a
00000020: 0159 613d f6ed 853d 86ae f53d 0547 c53d
00000030: a509 483c 6212 7339 c1e4 e43b 8e85 d23d
00000040: 6e4b ac3b 07a4 743c ffc8 5e3d a527 c33c
00000050: db16 283d 31bf 8a3d 848b 333d 764d 8838
00000060: 10c8 f83c dd18 a63c 93c3 f93c 64bc a33c
00000070: fcc0 0c3d 0e6a c53d 04d4 dc3c 2328 943d
00000080: 06d3 3339 1837 3e3d 9229 143a ddf3 173c
00000090: 429e 843d 05d3 073d ca1b 003d 5ef6 723d

model.input_block.spat_conv.weight f4 [40, 1, 24, 1]
-0.20846786 -0.15993617 0.032740224 -0.105960004 0.057014607 0.44241694 -0.48168084 -0.30751923
-0.09387136 -0.039073836 -0.0062560258 0.148531 -0.03564806 -0.36944655 -0.7849576 -0.012441123
-0.099725865 -0.15027012 -0.32488993 -0.020639995 0.046239104 -0.23200099 -0.3777127 0.06985018
0.11272751 0.018559704 0.07440355 0.1052462 0.34620193 0.2810159 0.17822845 0.52831733
0.11378921 0.13321738 -0.07645628 0.094132125 0.028282207 -0.62766296 -0.9206053 0.14839481
0.11803379 0.19973077 -0.051715255 -0.005827656 0.0067726714 0.0412994 0.20710601 0.20314305
0.29144296 0.3138349 -0.12200679 -0.06585965 0.06330008 0.08623497 0.19657148 0.14005816
0.27870595 -0.12968235 -0.31374407 -0.07300813 0.0072216135 0.54290026 0.8838163 0.10791378
-0.1309114 -0.47832718 -0.48030964 -0.49048036 0.177373 0.15500604 0.08498401 0.15728506
0.064899944 0.0655012 0.41689053 0.16238837 -0.0021440014 -0.08288401 0.07825865 0.12959693
0.19928126 -0.43708694 -0.63250446 0.16756646 0.06650819 -0.017386787 -0.0652196 0.108183034
0.08339639 -0.2835257 -0.45563814 0.24210538 -0.123286426 0.0824247 -0.110990085 -0.20790991
0.2107362 0.110549875 0.28037792 0.3886039 0.19556479 -0.18433279 -0.21547751 0.0514326
-0.027439244 -0.13582435 -0.8764137 0.11978681 0.18468408 -0.1450016 0.024545765 -0.042889755
0.13247424 0.083819054 -0.4018963 -0.15138292 0.005209466 -0.33960432 0.039602652 -0.10080948
-0.1952463 -0.1725431 -0.07076089 -0.16206169 0.0645483 0.45971474 -0.07945135 -0.17614637
0.020594772 -0.1316647 0.14209996 -0.12460493 0.017693974 0.32444176 -0.9528752 -0.18004723
0.08558827 -0.026064772 0.2949132 0.014093564 -0.17191026 -0.10503924 -0.4892237 0.02198634
0.058055863 -0.15425283 -0.4087223 -0.73245174 -0.024047941 0.39863467 0.1995561 -0.375265
-0.18968533 0.20022985 0.014493592 -0.65186757 -0.013834534 0.3976445 -0.79929715 -0.21966837
-0.3249666 -0.11824429 0.26590934 0.055543598 -0.1483475 -0.42830172 -0.54790354 -0.22516753
-1.0914391 -1.1478679 -1.2329237 -0.8861605 -1.15304 -1.1751738 -1.067457 -1.080579
-0.9573747 -1.2131057 -1.5057889 -1.2714696 -1.0193472 -1.2145554 -0.7827874 -1.0847789
-1.2885916 -1.0678114 -1.3515227 -0.90008456 -0.69882 -1.2440228 -0.9410609 -1.1272606
0.13352251 0.077036455 0.1738848 0.0931389 0.38711628 0.6111145 -0.041393686 0.44042283
0.121362135 0.14963675 0.14801647 0.102178775 0.10238055 -0.24877723 -1.1725689 -0.0047260704
0.004378201 -0.02283822 -0.0441159 0.032595385 -0.0014747373 -0.03401338 -0.31594718 0.24806163
0.04301193 -0.06197556 -0.014531125 -0.09698602 -0.18673237 -0.641179 0.18548132 0.21278897
0.10928031 0.13878784 0.18410483 -0.016454076 -0.07015825 -0.52116144 0.96167916 0.20730282
0.047072697 0.22547078 0.10829033 0.0044705844 0.019880412 0.14521733 0.45728216 -0.053835213
-0.29605675 -0.21451493 -0.011724621 -0.06154475 -0.47865903 -0.73199636 -0.18480039 -0.049487457
-0.05045654 0.19707425 0.73321795 -0.19119039 -0.30359006 -0.40853542 0.9124552 0.21061912
00000000: 9978 55be 4fc6 23be 9d1a 063d 8f01 d9bd
00000010: 2688 693d 7984 e23e df9e f6be 2973 9dbe
00000020: a13f c0bd e30b 20bd 59ff ccbb 8318 183e
00000030: b303 12bd 1928 bdbe fbf2 48bf dad5 4bbc
00000040: 133d ccbd 69e0 19be f957 a6be 3515 a9bc
00000050: 3765 3d3d ab91 6dbe 8f63 c1be 9c0d 8f3d
00000060: aedd e63d 850a 983c e360 983d 528b d73d
00000070: 6141 b13e 51e1 8f3e 8581 363e ce3f 073f
00000080: 510a e93d 236a 083e 1c95 9cbd 58c8 c03d
00000090: 16b0 e73c 85ae 20bf caac 6bbf cff4 173e
000000a0: b3bb f13d 3986 4c3e 60d3 53bd ecf5 bebb
000000b0: 49ed dd3b 8f29 293d 9913 543e bb04 503e
000000c0: 0338 953e f8ae a03e b2de f9bd 6de1 86bd
000000d0: 79a3 813d f69b b03d 094a 493e 686b 0f3e
000000e0: 8cb2 8e3e 73cb 04be 10a3 a0be 4985 95bd
000000f0: 49a3 ec3b 83fb 0a3f c941 623f e601 dd3d
00000100: a30d 06be 4de7 f4be 25eb f5be 3e20 fbbe
00000110: 45a1 353e e7b9 1e3e 190c ae3d 560f 213e
00000120: 43ea 843d 7e25 863d ad72 d53e 2349 263e
00000130: 6082 0cbb 18bf a9bd 1246 a03d 0fb5 043e
00000140: 6310 4c3e dcc9 dfbe d0eb 21bf 8b96 2b3e
00000150: 7235 883d bc6e 8ebc db91 85bd 118f dd3d
00000160: bacb aa3d 482a 91be 6749 e9be 79ea 773e
00000170: 987d fcbd 48ce a83d c54e e3bd 56e6 54be
00000180: 3bcb 573e f967 e23d b28d 8f3e 17f7 c63e
00000190: 2342 483e bcc1 3cbe 23a6 5cbe fdaa 523d
000001a0: 44c8 e0bc 8a15 0bbe a65c 60bf c952 f53d
000001b0: d31d 3d3e 4d7b 14be 3314 c93c 2bad 2fbd
000001c0: 54a7 073e 53a9 ab3d 5ac5 cdbe 2004 1bbe
000001d0: 2bb4 aa3b 9ee0 adbe 6436 223d 3375 cebd
000001e0: a5ee 47be 23af 30be 16eb 90bd 80f3 25be
000001f0: e631 843d bb5f eb3e 64b7 a2bd b75f 34be
00000200: 5eb6 a83c 1cd3 06be a782 113e df30 ffbd
00000210: f4f2 903c 3b1d a63e a1ef 73bf 4d5e 38be
00000220: e748 af3d ca85 d5bc ddfe 963e b1e8 663c
00000230: 3e09 30be d01e d7bd 877b fabe b21c b43c
00000240: fccb 6d3d 74f4 1dbe 0d44 d1be f581 3bbf
00000250: 3000 c5bc d819 cc3e 6f58 4c3e bc22 c0be
00000260: df3c 42be 0e09 4d3e 8876 6d3c cbe0 26bf
00000270: 3eaa 62bc 0f98 cb3e bd9e 4cbf bff0 60be
00000280: 0662 a6be 102a f2bd 4525 883e af81 633d
00000290: 68e8 17be 5d4a dbbe 6843 0cbf 5192 66be
000002a0: 47b4 8bbf 56ed 92bf 72d0 9dbf 6adb 62bf
000002b0: d196 93bf 186c 96bf 6ea2 88bf 6a50 8abf
000002c0: 8216 75bf 0c47 9bbf b1bd c0bf 84bf a2bf
000002d0: f879 82bf 8d76 9bbf c164 48bf 09da 8abf
000002e0: 92f0 a4bf 0bae 88bf b2fe acbf f16b 66bf
000002f0: dee5 32bf 243c 9fbf 5ee9 70bf 134a 90bf
00000300: 20ba 083e 4ac5 9d3d db0e 323e 9cbf be3d
00000310: 1b34 c63e 0072 1c3f 6d8c 29bd 1a7f e13e
00000320: b68c f83d 603a 193e a191 173e 1b43 d13d
00000330: e5ac d13d 75bf 7ebe bd16 96bf 27dd 9abb
00000340: 0377 8f3b 3817 bbbc e0b2 34bd bd82 053d
00000350: f94b c1ba 9d51 0bbd d4c3 a1be de03 7e3e
00000360: 472d 303d 16da 7dbd f513 6ebc 9ba0 c6bd
00000370: c536 3fbe 4f24 24bf d1ee 3d3e 5ae5 593e
00000380: 5bce df3d 661e 0e3e fa85 3c3e b3ca 86bc
00000390: 21af 8fbd d66a 05bf 9b30 763f 3147 543e
000003a0: 4dcf 403d d0e1 663e 52c7 dd3d fb7d 923b
000003b0: 3fdc a23c dab3 143e e320 ea3e 5082 5cbd
000003c0: c094 97be cda9 5bbe a018 40bc 5916 7cbd
000003d0: cc12 f5be 1d64 3bbf 503c 3dbe 5cb3 4abd
000003e0: 84ab 4ebd d5cd 493e 2cb4 3b3f 6ac7 43be
000003f0: 2870 9bbe 8e2b d1be aa96 693f 8aac 573e

model.input_block.bn2.weight f4 [40]
1.3905903 1.5035163 1.5037986 1.2938567 1.3426629 1.349698 1.5855311 1.0141662
1.5785083 1.5210757 1.6984825 1.8935846 1.2660934 0.95346475 1.1227405 1.5702885
1.2024698 1.2843188 1.4486046 1.3169314 1.4268147 1.4106648 1.4327362 1.0987986
1.2601705 1.268533 1.4229299 1.3229916 1.3320104 1.5524713 1.3729708 1.4631102
1.9932425 1.4524683 1.0453836 1.1655655 1.4839582 1.3682977 1.2855519 1.4482037
00000000: ddfe b13f 3973 c03f 797c c03f 199d a53f
00000010: 61dc ab3f e7c2 ac3f aff2 ca3f 33d0 813f
00000020: 8f0c ca3f 9cb2 c23f e067 d93f fb60 f23f
00000030: 590f a23f 4416 743f f6b5 8f3f 37ff c83f
00000040: 88ea 993f 8f64 a43f e06b b93f 3591 a83f
00000050: dda1 b63f aa90 b43f e663 b73f 6fa5 8c3f
00000060: 444d a13f 4a5f a23f 9122 b63f ca57 a93f
00000070: 517f aa3f 61b7 c63f 82bd af3f 3247 bb3f
00000080: 9222 ff3f 7bea b93f 21cf 853f 4031 953f
00000090: 58f2 bd3f 6124 af3f f78c a43f bd5e b93f

model.input_block.bn2.bias f4 [40]
0.23247348 -0.06347331 0.037811268 -0.009758264 -0.0858933 -0.1922924 0.40123698 1.1398599
-0.20872937 -0.104453735 0.13234703 0.48631987 0.28069338 1.985574 1.2864003 0.22143717
1.2079425 0.6974171 0.014501716 -0.04368625 -0.040958267 -0.021103382 0.11943762 1.8501879
-0.15074539 -0.13055806 -0.063183226 -0.1283268 -0.15380928 0.34561574 -0.13840452 0.21521886
-1.261109 0.55823034 1.2063366 -0.20637864 0.11415346 0.04658829 -0.09536046 0.3250797
00000000: 870d 6e3e 4bfe 81bd fddf 1a3d 20e1 1fbc
00000010: d4e8 afbd 4de8 44be ef6e cd3e eee6 913f
00000020: 27bd 55be d7eb d5bd fb85 073e ebfe f83e
00000030: 0bb7 8f3e 4a27 fe3f c4a8 a43f 6dc0 623e
00000040: dc9d 9a3f ed89 323f 9b98 6d3c 5af0 32bd
00000050: dbc3 27bd 00e1 acbc b69b f43d f5d2 ec3f
00000060: 005d 1abe 03b1 05be 3566 81bd 1a68 03be
00000070: 2e80 1dbe 8cf4 b03e eab9 0dbe 5562 5c3e
00000080: 056c a1bf 2fe8 0e3f 3d69 9a3f ec54 53be
00000090: 4ac9 e93d 5dd3 3e3d 584c c3bd d970 a63e

model.input_block.bn2.running_mean f4 [40]
0.7936348 -0.0976042 0.038795583 -0.006872705 -0.062979884 -0.25532633 1.6195519 40.348072
-0.1165947 -0.14184348 0.043973025 1.672395 1.106533 91.25932 50.04622 0.28676036
37.71986 12.073808 -0.09216751 -0.009031811 -0.03862458 -0.00773474 -0.02014134 76.93626
0.0052358992 -0.06380465 -0.11989061 -0.112850234 -0.28360906 1.8536626 -0.05936645 0.07322306
-147.93839 3.2551672 46.573025 -0.5721361 0.06562487 0.00072246615 -0.041514482 1.44559
00000000: a62b 4b3f b6e4 c7bd 1ee8 1e3d 6e34 e1bb
00000010: 99fb 80bd 22ba 82be 7a4d cf3f 6d64 2142
00000020: 34c9 eebd 6b3f 11be 0f1d 343d 0a11 d63f
00000030: e0a2 8d3f c684 b642 542f 4842 41d2 923e
00000040: 23e1 1642 512e 4141 52c2 bcbd 29fa 13bc
00000050: cf34 1ebd b473 fdbb 74ff a4bc 5ddf 9942
00000060: e891 ab3b 03ac 82bd 3589 f5bd 061e e7bd
00000070: 3535 91be d144 ed3f 3c2a 73bd f9f5 953d
00000080: 3af0 13c3 a954 5040 c74a 3a42 8377 12bf
00000090: 5566 863d e263 3d3a 170b 2abd 1809 b93f

model.input_block.bn2.running_var f4 [40]
3.97467 5.673362 5.9455223 2.3365264 3.1146083 3.5241733 7.3882236 17.227413
7.7777886 5.79514 10.189425 15.697714 2.4021914 26.426054 33.640697 5.2168627
39.914406 12.566046 5.166227 3.3868685 5.3448596 3.9515083 4.294428 32.97416
1.8024622 1.9768564 4.632968 3.5764031 3.839348 6.6159844 3.152503 4.770303
0.02936247 8.044085 25.744257 2.2457328 5.7509203 3.0471816 2.442235 4.479374
00000000: fe60 7e40 2e8c b540 b841 be40 a689 1540
00000010: be55 4740 0e8c 6140 546c ec40 bed1 8941
00000020: a5e3 f840 c971 b940 e307 2341 d629 7b41
00000030: 81bd 1940 8f68 d341 1390 0642 8af0 a640
00000040: 5aa8 1f42 860e 4941 bb51 a540 74c2 5840
00000050: 1709 ab40 83e5 7c40 f46b 8940 8ae5 0342
00000060: 15b7 e63f a109 fd3f 4641 9440 cae3 6440
00000070: e1b7 7540 25b6 d340 9cc2 4940 52a6 9840
00000080: 9089 f03c 92b4 0041 3df4 cd41 16ba 0f40
00000090: 8a07 b840 0605 4340 944d 1c40 0857 8f40

model.channel_expansion.conv.weight f4 [16, 40, 1, 1]
0.3594334 0.28783458 0.0053675696 0.20464122 0.1697665 0.2995408 -0.18275659 0.10473783
0.39027566 -0.22008224 -1.1430658 0.16744417 0.20428216 0.1358712 0.18310182 -0.5004062
0.28287593 0.27949005 0.3075967 -0.060637947 0.12822218 -0.7617235 0.31565043 0.20004001
-0.054488074 0.03101811 0.0892872 -0.17187867 -0.110499285 0.44824398 -0.23921385 0.10540661
-0.19789405 0.15073042 0.12455532 0.18563288 0.23985358 0.27437723 0.102674656 0.33975086
-0.09511028 -0.39313874 -0.040573172 0.31787625 0.3159264 -0.16849893 -0.03439968 0.04234977
-0.26273724 -0.3309627 -0.96248764 -0.18294638 -0.16262583 0.0018538737 0.05104138 -0.42639634
-0.0142597975 0.065168105 -0.29181466 0.24896426 -0.06176681 -0.39055672 0.037285946 -0.08749483
0.3723695 0.43803388 0.36574373 0.022169204 0.25066996 0.260338 0.2975766 0.24975762
0.0038462118 -0.027018715 -0.051603634 0.4808307 -0.27308172 -0.17715475 0.35656366 -0.11655011
0.23869748 0.4171337 0.4391851 0.64213437 0.6634043 -0.40979442 0.9819779 0.41022888
0.038716655 0.21890391 0.046077184 -0.09865462 0.4548472 0.48432547 0.35662067 0.32011053
0.66040504 0.4059502 -0.021282874 0.38422996 0.49674186 0.3208575 0.022153016 0.5014855
-0.41678858 0.35309064 0.1697985 0.6284762 -0.19689812 0.2854708 0.27028897 0.9884156
-0.89202553 1.1516247 0.5763471 0.18373965 0.43409103 0.32924545 0.6715167 -0.35953575
-0.08495674 -0.2698313 -0.21244776 0.23659422 0.05226672 -0.10770562 -0.036380075 0.07301604
-0.40175557 -0.2776885 -0.19308156 -0.2107391 0.099313974 -0.1618496 -0.052611664 -0.08881756
0.023977583 0.025392376 -0.24977948 0.28005168 -0.31069908 -0.09678748 -0.1150535 -0.052881915
0.20465207 0.29567268 0.20039509 -0.015209917 0.3221779 0.014477905 0.23264793 -0.017852185
0.05076673 0.14306653 0.033475015 0.06299203 -0.22145939 -0.17019853 0.18455933 0.006112766
0.17350678 0.4821422 -1.003393 0.03925916 0.046720788 0.23105504 0.27470508 0.2727946
0.66922456 0.20861694 0.01568824 0.09368274 0.048558176 0.20865554 0.071789175 0.1444703
0.23270877 0.032054957 0.37434587 -0.0020428868 0.14409795 0.3394885 0.12862378 0.053506646
-0.18822038 -0.009581431 0.045370556 -0.11518864 -0.20809047 0.07056616 -0.026108386 0.24439676
-0.16959792 0.13487165 0.14007784 0.015291481 0.34020734 0.041170504 0.099635854 0.1475597
0.6872751 0.53791666 0.20737632 0.70816636 1.1089845 -0.98163235 0.9354861 0.83747274
0.22856948 0.68335146 0.42131785 -0.44677085 0.66346335 0.9241908 0.68978775 0.70966536
0.9337075 0.6699112 -0.38767692 0.4531712 0.5412361 0.55994064 0.034244597 0.7539949
-0.18687698 0.37715262 0.56969285 0.5355718 0.22794405 -0.055463318 0.47967693 1.2234771
-1.0705647 1.1934844 0.7884714 0.2398063 0.5344091 0.58552223 0.8413557 -0.15948646
0.076335855 -0.2157365 0.06624323 0.19821437 -0.4935628 0.038055386 -0.09486278 0.057772752
-0.34017077 -0.14123222 0.14868358 0.076305225 0.11011404 -0.06405242 0.18306774 0.16691579
00000000: a807 b83e 0e5f 933e 70e2 af3b 788d 513e
00000010: 45d7 2d3e 695d 993e 8b24 3bbe ca80 d63d
00000020: 36d2 c73e 3d5d 61be fb4f 92bf 7c76 2b3e
00000030: 582f 513e d221 0b3e 0b7f 3b3e 9f1a 00bf
00000040: 1dd5 903e 5219 8f3e 517d 9d3e 7f5f 78bd
00000050: ad4c 033e 5000 43bf ef9c a13e 4ad7 4c3e
00000060: e32e 5fbd b119 fe3c 35dc b63d f600 30be
00000070: 734d e2bd 3c80 e53e 7af4 74be 6cdf d73d
00000080: bda4 4abe 1359 1a3e dc16 ff3d 8c16 3e3e
00000090: 2d9c 753e 2c7b 8c3e 1747 d23d d3f3 ad3e
000000a0: 2ec9 c2bd 7b49 c9be 0e30 26bd adc0 a23e
000000b0: 1bc1 a13e fc8a 2cbe aee6 0cbd f476 2d3d
000000c0: 7f85 86be f173 a9be 9765 76bf 4c56 3bbe
000000d0: 6387 26be aefd f23a c410 513d 9f50 dabe
000000e0: eda1 69bc db76 853d bb68 95be 7df0 7e3e
000000f0: 32ff 7cbd 0df7 c7be 26b9 183d 7d30 b3bd
00000100: 37a7 be3e fa45 e03e c342 bb3e 319c b53c
00000110: d057 803e 064b 853e f65b 983e 76c0 7f3e
00000120: ba10 7c3b 5a56 ddbc 555e 53bd 712f f63e
00000130: 5ed1 8bbe 0e68 35be 838f b63e d3b1 eebd
00000140: 1d6d 743e 8c92 d53e dfdc e03e eb62 243f
00000150: ddd4 293f 93d0 d1be e762 7b3f 8509 d23e
00000160: 5b95 1e3d 5928 603e 6ebb 3c3d 6f0b cabd
00000170: bbe1 e83e 82f9 f73e fc96 b63e 87e5 a33e
00000180: 4e10 293f b4d8 cf3e 6c59 aebc cab9 c43e
00000190: f354 fe3e 6f47 a43e 3e7a b53c 5b61 003f
000001a0: 5065 d5be 4cc8 b43e a8df 2d3e d1e3 203f
000001b0: a99f 49be 3b29 923e 5163 8a3e ce08 7d3f
000001c0: c95b 64bf 7068 933f 7c8b 133f 3f26 3c3e
000001d0: 2e41 de3e dc92 a83e 85e8 2b3f 1215 b8be
000001e0: cdfd adbd 5427 8abe e88b 59be c145 723e
000001f0: a115 563d c494 dcbd 4603 15bd 6f89 953d
00000200: e8b2 cdbe 302d 8ebe 2cb7 45be fecb 57be
00000210: 2065 cb3d e7bb 25be 547f 57bd fbe5 b5bd
00000220: a36c c43c ac03 d03c 31c6 7fbe ef62 8f3e
00000230: f313 9fbe 8438 c6bd 2ba1 ebbd b59a 58bd
00000240: 5090 513e 6962 973e 5f34 4d3e 0433 79bc
00000250: 80f4 a43e bc34 6d3c 423b 6e3e bf3e 92bc
00000260: c6f0 4f3d 0880 123e 191d 093d f701 813d
00000270: 40c6 62be 8648 2ebe 1ffd 3c3e 994d c83b
00000280: c3ab 313e 58db f63e 2f6f 80bf 37ce 203d
00000290: 4c5e 3f3d b199 6c3e 25a6 8c3e bcab 8b3e
000002a0: 4d52 2b3f ae9f 553e a084 803c bddc bf3d
000002b0: f0e4 463d cca9 553e 3406 933d 06f0 133e
000002c0: 354b 6e3e 0f4c 033d 43aa bf3e f4e1 05bb
000002d0: 6a8e 133e 70d1 ad3e f4b5 033e c929 5b3d
000002e0: d8bc 40be 6ffb 1cbc 7ad6 393d 06e8 ebbd
000002f0: ab15 55be fe84 903d 41e1 d5bc 2543 7a3e
00000300: 14ab 2dbe cb1b 0a3e 9170 0f3e 1f89 7a3c
00000310: a82f ae3e 67a2 283d e20d cc3d e419 173e
00000320: 43f1 2f3f e8b4 093f 755a 543e 644a 353f
00000330: 34f3 8d3f 424c 7bbf 047c 6f3f 9d64 563f
00000340: 1e0e 6a3e 1ff0 2e3f f9b6 d73e 26bf e4be
00000350: bcd8 293f c597 6c3f ee95 303f a1ac 353f
00000360: 7407 6f3f 4d7f 2b3f 977d c6be 0e06 e83e
00000370: 738e 0a3f 4558 0f3f 1044 0c3d cf05 413f
00000380: ae5c 3fbe 261a c13e 64d7 113f 3c1b 093f
00000390: 2a6a 693e 812d 63bd 3798 f53e e69a 9c3f
000003a0: 4408 89bf 19c4 983f 43d9 493f c88f 753e
000003b0: 09cf 083f c9e4 153f 1663 573f 6b50 23be
000003c0: f955 9c3d 07ea 5cbe 88aa 873d b5f8 4a3e
000003d0: 43b4 fcbe f7df 1b3d 6b47 c2bd 1fa3 6c3d
000003e0: dd2a aebe 2e9f 10be 8240 183e ea45 9c3d
000003f0: 7883 e13d ea2d 83bd 1c76 3b3e f9eb 2a3e

model.channel_expansion.bn.weight f4 [16]
1.3925315 1.4685 2.1151514 1.2327797 1.29796 1.5142217 1.1543365 1.2193147
0.005453217 1.2817916 1.2729144 1.5200245 1.5519024 1.2884728 1.3356432 1.2221873
00000000: 793e b23f cff7 bb3f a45e 0740 bacb 9d3f
00000010: 8e23 a63f 04d2 c13f 4cc1 933f 8112 9c3f
00000020: e6b0 b23b bf11 a43f dcee a23f 2a90 c23f
00000030: bda4 c63f adec a43f 5bf6 aa3f a270 9c3f

model.channel_expansion.bn.bias f4 [16]
0.24942908 -0.07127232 0.73416716 -0.034053545 0.20780504 1.148469 0.07919823 -0.015484915
0.97888404 0.48672557 0.24151817 1.3285214 0.6735422 0.13545328 0.10165155 -0.074184395
00000000: 566a 7f3e 39f7 91bd 61f2 3b3f bb7b 0bbd
00000010: d8ca 543e 0801 933f ae32 a23d 71b4 7dbc
00000020: 2598 7a3f 1834 f93e 8a50 773e fd0c aa3f
00000030: 436d 2c3f 44b4 0a3e b02e d03d fded 97bd

model.channel_expansion.bn.running_mean f4 [16]
2.2681327 -0.86492556 8.569561 -0.8204073 2.5890388 12.566674 0.6989722 0.22692083
11.8880205 4.6874704 3.192627 10.343527 7.046081 2.2523942 1.2535486 -0.85822356
00000000: 1629 1140 c36b 5dbf ec1c 0941 3606 52bf
00000010: d0b2 2540 1911 4941 d8ef 323f ef5d 683e
00000020: 5535 3e41 c2ff 9540 0054 4c40 167f 2541
00000030: 7f79 e140 3a27 1040 4874 a03f 8ab4 5bbf

model.channel_expansion.bn.running_var f4 [16]
15.689415 10.76489 32.23585 2.9920228 4.969034 62.008137 1.4461615 1.6751817
30.761627 13.523058 4.167579 48.48264 29.037884 3.758304 3.638087 2.464159
00000000: d807 7b41 fd3c 2c41 83f1 0042 4d7d 3f40
00000010: 5402 9f40 5508 7842 d21b b93f 5b6c d63f
00000020: d017 f641 725e 5841 cf5c 8540 39ee 4142
00000030: 964d e841 0e88 7040 6bd6 6840 c8b4 1d40

model.fe.conv1.weight f4 [16, 1, 1, 15]
0.03219436 -0.33975595 -0.4807052 -0.6205699 -0.16005066 -0.15188837 -0.30098584 -0.5686715
-0.15656279 -0.37314454 -0.5703916 -0.2891072 -0.31883615 -0.16281962 -0.72324663 -0.54441375
-0.53130937 -0.13076602 0.5813262 0.022930637 -0.45677087 0.12976323 0.58496755 -0.0077623692
-0.2906834 -0.14698026 0.5130544 -0.36763284 -0.37271124 0.07235128 0.29619294 -0.029115861
-0.73776233 -0.1299368 0.3180491 0.28701428 -0.68139 -0.023210984 0.322282 0.120447196
-0.57841694 -0.3883659 0.23577261 0.234262 -0.2684007 0.6847679 0.4797278 0.341043
0.37509406 0.32431096 0.34435776 0.27543032 0.35780397 0.02641896 0.29728565 0.13687305
0.070648514 0.19161895 0.500009 0.47476995 0.07275042 0.5069343 0.52717274 0.18163924
0.11598223 0.43190518 0.37400663 0.11233576 0.007568456 0.19798018 0.39162424 0.28530785
0.1795199 0.1599106 0.07260273 0.021820158 0.24130943 -0.5614385 -0.7337098 0.10417171
-0.31282896 -0.8991628 -0.710595 0.23389293 -0.24875802 -0.8089986 -0.8888875 -0.009830042
0.09991311 -0.7886807 0.47229925 0.2660491 0.11014162 0.2486967 0.30661348 0.18340734
0.33901024 0.020833451 0.3018049 0.31894928 0.26162213 0.15668187 0.2804821 0.073274046
0.05410498 -0.62558633 -0.6234242 -0.27958822 -0.14865442 -0.21240452 -0.3803807 -0.41737854
-0.38890946 -0.26746568 -0.44041348 -0.39026737 -0.26969045 -0.51850766 -0.5388071 -0.44386992
-0.5267782 -0.2602425 -0.64657176 -0.29133216 -0.36089662 -0.4525735 -0.6843586 -0.8176717
-0.634525 -0.14967154 -0.601632 -0.9245339 -0.27257344 -0.38097057 -0.6705816 0.3734214
0.27812985 -0.08097485 0.31952038 0.6249768 0.43274117 -0.17946906 0.086684644 0.29430336
0.4070761 -0.12028395 0.15138361 0.5310788 0.49184358 -0.006549956 -0.2536609 -0.33378926
-0.33615655 -0.2564283 -0.3585988 0.051368613 -0.26928926 -0.03139041 -0.33629325 -0.17225097
-0.074180365 -0.3309641 -0.08227367 -0.40584517 -0.2203545 -1.0266383 -1.1796706 0.23108885
0.24319273 -0.8584303 -1.2798725 -0.116987005 0.0974534 -0.73000556 -0.96774465 -0.07876691
0.006840631 -0.9298387 -0.7922134 0.15121637 -0.74524605 -0.5598733 -0.27001357 0.027504753
-0.5269303 -0.59309775 -0.1313488 -0.030053966 -0.75622016 -0.5665203 0.16791299 -0.07508378
-0.8045878 -0.86337847 -0.16405137 -0.18577859 -0.5265944 -0.17956513 -0.14340699 -0.363762
-0.32890993 -0.43443173 -0.28023 -0.30909193 -0.17112087 -0.09345719 -0.19657849 -0.40502205
-0.282036 -0.18757933 0.42892754 0.38942438 0.16483375 0.4968153 0.2476326 0.16810201
-0.03827458 0.08755124 0.2714694 0.12100656 0.0064791115 0.36361256 0.28770572 0.35659012
0.39387015 -0.6994269 -0.7107599 -0.43080425 -0.21724272 -0.41260806 -0.37034076 -0.24553703
-0.046787858 -0.016649922 -0.0881645 -0.18669447 -0.16875255 -0.21904622 -0.4232671 -0.41317144
00000000: 3cde 033d 7ef4 adbe fe1e f6be abdd 1ebf
00000010: 52e4 23be a088 1bbe d11a 9abe 7594 11bf
00000020: ff51 20be cd0c bfbe 2f05 12bf dc05 94be
00000030: 7e3e a3be 30ba 26be b126 39bf b35e 0bbf
00000040: e403 08bf 87e7 05be cbd1 143f 08d9 bb3c
00000050: dfdd e9be a7e0 043e 6fc0 153f 795b febb
00000060: 74d4 94be fe81 16be 8857 033f 5f3a bcbe
00000070: 02d4 bebe e82c 943d 9aa6 973e 6384 eebc
00000080: fedd 3cbf 270e 05be 55d7 a23e 89f3 923e
00000090: 936f 2ebf f624 bebc 2502 a53e 05ad f63d
000000a0: 2213 14bf e5d7 c6be 606e 713e 61e2 6f3e
000000b0: d16b 89be f34c 2f3f e29e f53e 309d ae3e
000000c0: 540c c03e 160c a63e a94f b03e 3405 8d3e
000000d0: 1532 b73e 936c d83c d335 983e 7328 0c3e
000000e0: 2bb0 903d c237 443e 9700 003f 0c15 f33e
000000f0: 2cfe 943d 72c6 013f cbf4 063f a3ff 393e
00000100: 1788 ed3d ad22 dd3e cc7d bf3e 4a10 e63d
00000110: d000 f83b 51bb 4a3e f982 c83e df13 923e
00000120: 11d4 373e 9bbf 233e bdb0 943d 30c0 b23c
00000130: d219 773e 6fba 0fbf 68d4 3bbf fa57 d53d
00000140: 1e2b a0be 892f 66bf 8ee9 35bf a181 6f3e
00000150: 6cba 7ebe 881a 4fbf 228e 63bf 2f0e 21bc
00000160: 3f9f cc3d fae6 49bf 35d1 f13e 9637 883e
00000170: ee91 e13d 59aa 7e3e 71fc 9c3e 22cf 3b3e
00000180: c092 ad3e eaaa aa3c 2c86 9a3e 524d a33e
00000190: 56f3 853e 3671 203e 5a9b 8f3e b410 963d
000001a0: 2f9d 5d3d 6d26 20bf ba98 1fbf 3026 8fbe
000001b0: dd38 18be 9280 59be 42c1 c2be a4b2 d5be
000001c0: 241f c7be 43f1 88be e07d e1be 20d1 c7be
000001d0: de14 8abe ebbc 04bf 43ef 09bf eb42 e3be
000001e0: f0da 06bf 813e 85be ba85 25bf 7d29 95be
000001f0: 71c7 b8be b7b7 e7be 2032 2fbf ef52 51bf
00000200: 3b70 22bf 7f43 19be 8e04 1abf 41ae 6cbf
00000210: bf8e 8bbe 930e c3be 3cab 2bbf 1731 bf3e
00000220: 0967 8e3e 24d6 a5bd 2d98 a33e 7bfe 1f3f
00000230: 4090 dd3e bdc6 37be b887 b13d eeae 963e
00000240: 476c d03e 6e57 f6bd 4e04 1b3e c8f4 073f
00000250: ecd2 fb3e 03a1 d6bb d7df 81be 6de6 aabe
00000260: b61c acbe 924a 83be 439a b7be e567 523d
00000270: 48e0 89be 3b93 00bd a12e acbe 8f62 30be
00000280: e0eb 97bd 2074 a9be 197f a8bd f0ca cfbe
00000290: 9ca4 61be e268 83bf 72ff 96bf 8ea2 6c3e
000002a0: 8407 793e 17c2 5bbf ddd2 a3bf e296 efbd
000002b0: a695 c73d a5e1 3abf 1dbe 77bf 8c50 a1bd
000002c0: 5f27 e03b e909 6ebf 7fce 4abf 77d8 1a3e
000002d0: 72c8 3ebf db53 0fbf 383f 8abe a651 e13c
000002e0: e7e4 06bf 41d5 17bf 4d80 06be bc33 f6bc
000002f0: a597 41bf 7907 11bf 62f1 2b3e 86c5 99bd
00000300: 77f9 4dbf 5f06 5dbf 15fd 27be be3c 3ebe
00000310: e4ce 06bf ecdf 37be 48d9 12be 033f babe
00000320: e266 a8be d66d debe 4e7a 8fbe 4c41 9ebe
00000330: 4f3a 2fbe 7c66 bfbd df4b 49be 0d5f cfbe
00000340: 0667 90be cc14 40be 649c db3e a262 c73e
00000350: 2eca 283e 935e fe3e 6693 7d3e ef22 2c3e
00000360: cec5 1cbd 114e b33d 0afe 8a3e 4ad2 f73d
00000370: ba4e d43b 6d2b ba3e 2a4e 933e fb92 b63e
00000380: 59a9 c93e a40d 33bf 5cf4 35bf 6092 dcbe
00000390: e074 5ebe 5d41 d3be 4e9d bdbe 0f6e 7bbe
000003a0: a0a4 3fbd 6b65 88bc 978f b4bd d62c 3fbe
000003b0: 78cd 2cbe a74d 60be 77b6 d8be 358b d3be

model.fe.conv2.weight f4 [16, 16, 1, 1]
0.22892198 -0.29453734 -0.20708951 -0.448291 -0.02552867 -0.25023398 -0.4782539 0.57065266
0.2258892 -0.34454527 -0.21922162 0.6427428 -0.26428542 0.3082575 -0.4098794 0.5740176
0.4866612 -0.6247361 0.78603226 0.36130407 -0.27426374 0.5690667 0.009263528 -0.29318273
0.2913204 -0.47206333 0.370771 0.23919383 0.2974473 -0.37371546 0.07174872 -0.447278
-0.28434393 0.6048306 0.32884368 -0.6984762 0.1998001 0.541128 -0.21742496 0.17046396
0.15898548 0.095187485 -0.1439344 -0.03810319 0.37585604 0.4814653 -0.4536941 0.73502165
0.5489228 -0.6159183 0.80889857 0.35035935 -0.33753142 0.5576504 0.15117404 -0.2436011
0.20036983 -0.39825252 0.4158043 0.4714049 0.62474686 -0.18088408 0.31933606 -0.38688332
0.16838434 -0.14672054 -0.04040486 -0.592099 0.079727985 -0.22853485 -0.25879705 0.14883095
0.33259174 -0.29816395 -0.12779087 0.56681037 -0.3157906 0.45889434 -0.58930767 0.495748
0.053898677 0.30033123 0.5550643 -0.63955635 0.13434206 0.1946442 -0.4839238 0.7755894
0.3821314 0.0041018124 -0.19764203 -0.14709677 0.27778116 0.32183394 -0.5348838 0.5203638
0.57439893 -0.312889 0.8756965 0.3162719 -0.48714647 0.70673174 0.17336206 -0.35105187
0.10256634 -0.35494652 0.48812872 0.46735716 0.33160597 -0.1802201 0.1689319 -0.40013346
0.54087067 -0.7134549 1.001447 0.3290188 -0.35550278 0.3870749 0.10300552 -0.45900017
0.41143486 -0.6040643 0.2715275 0.29449803 0.5784111 -0.084811956 0.35582423 -0.35014632
0.4535448 -0.4372993 0.9257846 0.31502095 -0.53591883 0.47057807 0.036876522 -0.43475333
0.3296623 -0.28117925 0.26179603 0.49659443 0.56651676 -0.12398584 0.1825158 -0.55830324
-0.29135847 0.95914674 0.3837768 -0.7126687 0.2915754 0.8946412 -0.20654416 0.43044147
0.27320704 -0.051364794 -0.19809595 -0.22866684 0.59345776 0.27828163 -0.54708236 0.52380365
0.03752419 -0.30068582 -0.03508761 -0.19540557 0.1768787 -0.21692528 -0.32587266 0.4494858
0.41454503 -0.17875892 -0.08635563 0.3683357 -0.16596964 0.42453912 -0.5663373 0.62478375
0.59078115 -0.5583 0.80364317 0.36536852 -0.18526033 0.5477247 0.17322938 -0.3646978
0.27697033 -0.38941154 0.37437055 0.31907526 0.3999351 -0.255454 0.25537443 -0.34169585
0.44395673 -0.4679755 0.66987264 0.21548726 -0.42873743 0.31838265 0.1394739 -0.35531372
0.19836259 -0.33122116 0.30118242 0.24344787 0.3710904 -0.15785046 0.25320783 -0.17799455
0.23299223 -0.5440618 0.74669296 0.24703166 -0.30060905 0.468025 0.2766511 -0.26136905
0.31562304 -0.2751761 0.13706608 0.4740128 0.5388823 -0.32247782 0.20629296 -0.4277391
-0.23524538 0.93778265 0.4295143 -0.56968063 0.22339182 0.7764873 -0.20188309 0.5117568
0.4143413 0.18477675 -0.35155895 -0.12797442 0.46392784 0.19800133 -0.34028518 0.5632865
-0.04051952 1.0224417 0.37908232 -0.3179454 0.21689503 0.7208176 -0.22682133 0.3832589
0.08080428 0.26494935 -0.29295197 0.050478842 0.5210045 0.35369885 -0.6566638 0.8579095
00000000: 866a 6a3e 99cd 96be 460f 54be 6686 e5be
00000010: 8021 d1bc ab1e 80be b2dd f4be 4b16 123f
00000020: 804f 673e 3d68 b0be a27b 60be cb8a 243f
00000030: 6b50 87be edd3 9d3e b6db d1be d1f2 123f
00000040: a82b f93e b4ee 1fbf 6939 493f d9fc b83e
00000050: 4c6c 8cbe 5bae 113f 0dc6 173c 0c1c 96be
00000060: f327 953e 49b2 f1be b2d5 bd3e 3aef 743e
00000070: 034b 983e a257 bfbe fef0 923d 9f01 e5be
00000080: 8795 91be 2ed6 1a3f 335e a83e 56cf 32bf
00000090: 6698 4c3e 5d87 0a3f a6a4 5ebe 1b8e 2e3e
000000a0: 17cd 223e a8f1 c23d 8a63 13be 1712 1cbd
000000b0: 3470 c03e 9f82 f63e 984a e8be 612a 3c3f
000000c0: 3486 0c3f d2ac 1dbf fa13 4f3f 4d62 b33e
000000d0: ebd0 acbe 2dc2 0e3f 5ecd 1a3e 9172 79be
000000e0: c02d 4d3e c1e7 cbbe 4de4 d43e fc5b f13e
000000f0: 69ef 1f3f ad39 39be 0480 a33e 9215 c6be
00000100: f26c 2c3e e93d 16be 917f 25bd cd93 17bf
00000110: 6d48 a33d 0a05 6abe 0c81 84be 2467 183e
00000120: 7749 aa3e f2a8 98be 9cdb 02be 7c1a 113f
00000130: 4eaf a1be 33f4 ea3e dedc 16bf afd2 fd3e
00000140: dcc4 5c3d 04c5 993e b218 0e3f f7b9 23bf
00000150: f790 093e cf50 473e dcc4 f7be 078d 463f
00000160: baa6 c33e 7f68 863b ac62 4abe 89a0 16be
00000170: 5539 8e3e 6bc7 a43e 25ee 08bf 9036 053f
00000180: cf0b 133f fd32 a0be a52d 603f 64ee a13e
00000190: 436b f9be 5fec 343f d385 313e 12bd b3be
000001a0: 4d0e d23d 8dbb b5be 02ec f93e 7049 ef3e
000001b0: 42c8 a93e 9e8b 38be 7cfc 2c3e 4bde ccbe
000001c0: 8076 0a3f fba4 36bf 6a2f 803f 2775 a83e
000001d0: 7604 b6be ae2e c63e 8ff4 d23d 1202 ebbe
000001e0: 97a7 d23e f5a3 1abf a705 8b3e 72c8 963e
000001f0: c012 143f e4b1 adbd 982e b63e 6146 b3be
00000200: 0637 e83e b2e5 dfbe 3800 6d3f 6d4a a13e
00000210: fa31 09bf 9cef f03e d60b 173d fd97 debe
00000220: 7fc9 a83e baf6 8fbe 210a 863e a041 fe3e
00000230: 3e07 113f 4aec fdbd 6ce5 3a3e f6ec 0ebf
00000240: f02c 95be a48a 753f 657e c43e 7571 36bf
00000250: 5f49 953e 3507 653f 5080 53be d362 dc3e
00000260: cbe1 8b3e e463 52bd aad9 4abe a427 6abe
00000270: d9ec 173f ee7a 8e3e 970d 0cbf ff17 063f
00000280: f7b2 193d 7ef3 99be 07b8 0fbd 6618 48be
00000290: b11f 353e a921 5ebe c8d8 a6be 0123 e63e
000002a0: 3f3f d43e 940c 37be 38db b0bd 7f96 bc3e
000002b0: f2f3 29be 315d d93e 7bfb 10bf d4f1 1f3f
000002c0: 6f3d 173f c0ec 0ebf 8fbb 4d3f 9511 bb3e
000002d0: e2b4 3dbe b037 0c3f 0b63 313e acb9 babe
000002e0: 0ecf 8d3e f360 c7be 7fad bf3e d55d a33e
000002f0: 4bc4 cc3e deca 82be 70c0 823e c2f2 aebe
00000300: 4c4e e33e 7c9a efbe c67c 2b3f b1a8 5c3e
00000310: 7983 dbbe 0d03 a33e 3fd2 0e3e aeeb b5be
00000320: 901f 4b3e d295 a9be 9534 9a3e 664a 793e
00000330: 90ff bd3e 8da3 21be 75a4 813e 3444 36be
00000340: 8495 6e3e a247 0bbf 4527 3f3f def5 7c3e
00000350: 6ee9 99be f9a0 ef3e 37a5 8d3e 2ad2 85be
00000360: 5899 a13e e2e3 8cbe 0d5b 0c3e ceb1 f23e
00000370: 31f4 093f d01b a5be 763e 533e 9f00 dbbe
00000380: 2ae4 70be 8612 703f 4ce9 db3e 97d6 11bf
00000390: d3c0 643e dfc7 463f 71ba 4ebe 7e02 033f
000003a0: 8b24 d43e 1e36 3d3e 89ff b3be ba0b 03be
000003b0: f387 ed3e dcc0 4a3e dc39 aebe 8b33 103f
000003c0: ccf7 25bd 5fdf 823f 1417 c23e bdc9 a2be
000003d0: bb19 5e3e 8187 383f da43 68be 833a c43e
000003e0: b77c a53d 71a7 873e cdfd 95be e7c2 4e3d
000003f0: 8d60 053f 0418 b53e 1e1b 28bf f59f 5b3f

model.fe.bn.weight f4 [16]
1.2581257 1.2662724 1.2466332 1.1451969 1.1976967 1.2205447 1.2130799 1.3173295
1.1556494 1.2889161 1.1746114 1.2042397 1.2095464 1.2078226 1.2236612 1.2009659
00000000: 430a a13f 3715 a23f ad91 9f3f d095 923f
00000010: 204e 993f cf3a 9c3f 3446 9b3f 419e a83f
00000020: 52ec 933f 34fb a43f ab59 963f 8724 9a3f
00000030: 6bd2 9a3f ee99 9a3f eea0 9c3f 40b9 993f

model.fe.bn.bias f4 [16]
-0.24539772 -0.31287324 -0.22841994 -0.26923752 -0.21126568 -0.19598484 -0.28888538 -0.32754153
-0.25838062 -0.2702764 -0.18104541 -0.28525162 -0.27867946 -0.28461507 -0.23443145 -0.22587621
00000000: 8a49 7bbe ec30 a0be ebe6 69be 80d9 89be
00000010: 0856 58be 40b0 48be c9e8 93be 86b3 a7be
00000020: 774a 84be ab61 8abe f863 39be 800c 92be
00000030: 13af 8ebe 11b9 91be cc0e 70be 184c 67be

model.fe.bn.running_mean f4 [16]
-8.619672 -11.571256 -7.739511 -14.757464 -8.312594 -7.4368563 -14.0008545 -13.658548
-14.927211 -10.171328 -7.13281 -12.378729 -9.56138 -13.0967245 -10.072176 -10.01995
00000000: 2dea 09c1 dd23 39c1 13aa f7c0 931e 6cc1
00000010: 6300 05c1 bafa edc0 8003 60c1 6a89 5ac1
00000020: dbd5 6ec1 c2bd 22c1 fb3f e4c0 460f 46c1
00000030: 6afb 18c1 2f8c 51c1 a227 21c1 b751 20c1

model.fe.bn.running_var f4 [16]
24.871508 56.548096 22.038261 76.36748 17.74886 21.293648 72.68455 74.04952
74.55687 42.579952 11.911301 60.19117 38.07866 58.09591 35.552 31.803532
00000000: d9f8 c641 4031 6242 5c4e b041 26bc 9842
00000010: aafd 8d41 6459 aa41 7d5e 9142 5b19 9442
00000020: 1e1d 9542 df51 2a42 b094 3e41 c2c3 7042
00000030: 8c50 1842 3662 6842 3f35 0e42 a26d fe41

model.classifier.weight f4 [1, 16]
-0.62900776 0.46653205 -0.5033344 0.3793468 -0.63692105 -0.42724353 0.35718024 0.46411347
0.39569297 -0.5516518 -0.53333384 0.4712728 0.42487475 0.46605465 -0.5867829 -0.50884104
00000000: a706 21bf 4add ee3e 86da 00bf be39 c23e
00000010: 420d 23bf aabf dabe 54e0 b63e 48a0 ed3e
00000020: 4598 ca3e 0d39 0dbf 9188 08bf ab4a f13e
00000030: 2f89 d93e b79e ee3e 6737 16bf 6843 02bf

exp_avg f4 [40, 1, 1, 25]
-5.4502434e-05 7.930762e-05 0.0001442298 0.00012875439 5.8017984e-05 -2.3806775e-05 -7.7135235e-05 -8.3575906e-05
-4.8693175e-05 7.2766798e-06 6.2148225e-05 0.000101516045 0.000120085475 0.00011752542 9.426937e-05 5.1579722e-05
-4.129675e-06 -5.6909637e-05 -8.324888e-05 -6.1708866e-05 1.267693e-05 0.00011891546 0.00021241562 0.00024162348
0.00017318512 0.00065737905 0.0002578489 -9.21218e-05 -0.0002661896 -0.00024652696 -0.00010547173 5.0273535e-05
0.00014196486 0.00015178154 0.00011287952 7.247098e-05 5.2794436e-05 3.7965543e-05 -9.349358e-06 -0.00011224784
-0.00025575672 -0.00038882237 -0.00045337746 -0.00042137006 -0.00031307913 -0.00018509802 -9.261386e-05 -5.1391184e-05
-2.4326017e-05 5.4090295e-05 -0.000120898425 -0.00010469592 -9.011382e-05 -8.593798e-05 -8.955449e-05 -8.7603556e-05
-6.370036e-05 -9.093659e-06 6.9465175e-05 0.00015048239 0.00020576984 0.0002137887 0.00017042292 9.2034854e-05
6.7551514e-06 -5.73881e-05 -8.5817686e-05 -8.2852705e-05 -6.716995e-05 -5.998997e-05 -7.269821e-05 -0.00010037182
-0.00012489216 -0.0001253092 -9.0023495e-05 -2.4299407e-05 0.0002499335 0.00044876948 0.0004994416 0.00038376948
0.00014984059 -0.000106521344 -0.0002827444 -0.0003142792 -0.00019997086 -1.4878653e-06 0.00018717287 0.00028325978
0.00025188355 0.00011954249 -4.3064058e-05 -0.00015706087 -0.00017323463 -9.443999e-05 2.9389868e-05 0.00012646252
0.00013965381 5.38999e-05 -9.593277e-05 -0.00024155948 5.1352716e-05 8.2275394e-05 0.00013454398 0.00019139492
0.00022746048 0.00022241083 0.00017276319 9.501285e-05 1.8383229e-05 -2.8092143e-05 -3.115491e-05 -2.4781858e-07
3.571001e-05 4.1797528e-05 -6.2139675e-06 -0.000108117376 -0.00023702136 -0.00034906442 -0.00040120908 -0.00036933593
-0.00025792726 -9.772907e-05 6.7912675e-05 0.00020067365 0.00028223524 -0.00055187393 -0.0003222044 -9.529684e-05
5.8524685e-05 0.000109715584 7.44627e-05 2.9462885e-06 -4.621957e-05 -3.090565e-05 5.559203e-05 0.00018596425
0.00031188576 0.00038558073 0.00037944893 0.00029839465 0.0001766826 6.343357e-05 1.9417153e-06 1.1356331e-05
7.825278e-05 0.00016087842 0.00020607498 0.00017101257 4.1456708e-05 -0.00015890539 2.3174702e-05 -2.420277e-05
-6.659293e-05 -9.5693205e-05 -0.00010613741 -9.7335935e-05 -7.384941e-05 -4.393256e-05 -1.6482614e-05 1.943754e-06
9.4278075e-06 8.718802e-06 5.445541e-06 5.3201056e-06 1.1642778e-05 2.4042432e-05 3.8916598e-05 5.111312e-05
5.592055e-05 5.0787632e-05 3.587431e-05 1.3913794e-05 -1.0528139e-05 -3.206599e-05 -4.5692377e-05 0.00056725496
0.00048859254 0.00031788164 0.000101006226 -0.00010200484 -0.000243186 -0.00030136862 -0.00028742058 -0.00023622964
-0.00019027763 -0.00017960153 -0.00021011088 -0.00026321755 -0.00030516638 -0.00030451838 -0.00024336987 -0.0001248035
2.9710884e-05 0.00018801486 0.00031850475 0.0003975499 0.00041424757 0.0003712753 0.00028251542 0.00016906379
-0.0006181109 -0.00030888044 2.1112886e-05 0.00024120061 0.00031754238 0.00030107267 0.00027023334 0.00026974597
0.00028380987 0.0002576936 0.00015278951 -1.1968303e-05 -0.00016023467 -0.0002039953 -0.00010205277 9.8029974e-05
0.00027708482 0.00031151704 0.00015351233 -0.00012532053 -0.00036168584 -0.00039007785 -0.00014939823 0.00025790252
0.00059878593 -9.7418364e-05 0.00023302952 0.00036936524 0.00032040814 0.00016766395 1.7567772e-05 -4.622084e-05
7.9068195e-06 0.00015678929 0.00034471048 0.0005075599 0.0005952319 0.00058266247 0.00047132568 0.00028486285
6.392948e-05 -0.00014046495 -0.00027793803 -0.00031399677 -0.00024716574 -0.00011638823 7.391026e-06 4.6699544e-05
-4.8109734e-05 -0.0002698169 -4.942729e-05 -8.168743e-06 1.7548462e-05 2.8836745e-05 3.2705848e-05 3.6384907e-05
00000000: 8b99 64b8 f451 a638 643c 1739 3e02 0739
00000010: 5658 7338 a9b4 c7b7 aac3 a1b8 7945 afb8
00000020: e63b 4cb8 342a f436 9355 8238 03e5 d438
00000030: 66d6 fb38 fb77 f638 7cb2 c538 4e57 5838
00000040: a391 8ab6 42b2 6eb8 e795 aeb8 b269 81b8
00000050: 00af 5437 4062 f938 e2bb 5e39 4f5c 7d39
00000060: 0799 3539 f653 2c3a e52f 8739 8431 c1b8
00000070: 5d8f 8bb9 4a40 81b9 b430 ddb8 ccdc 5238
00000080: 67dc 1439 8c27 1f39 bbb9 ec38 90fb 9738
00000090: 986f 5d38 313d 1f38 30db 1cb7 9a66 ebb8
000000a0: 1617 86b9 dbda cbb9 4bb3 edb9 55eb dcb9
000000b0: c524 a4b9 df16 42b9 b039 c2b8 dd8c 57b8
000000c0: b90f ccb7 03df 6238 d98a fdb8 3290 dbb8
000000d0: 7dfb bcb8 9a39 b4b8 33cf bbb8 cdb7 b7b8
000000e0: df96 85b8 f890 18b7 d5ad 9138 cfca 1d39
000000f0: ecc3 5739 782c 6039 8eb3 3239 d602 c138
00000100: 4faa e236 01b4 70b8 05f9 b3b8 35c1 adb8
00000110: 98dd 8cb8 bd9d 7bb8 8e75 98b8 b67e d2b8
00000120: 7cf5 02b9 6f65 03b9 ffca bcb8 94d6 cbb7
00000130: 8209 8339 d248 eb39 f5ec 023a ab34 c939
00000140: 871e 1d39 3664 dfb8 503d 94b9 d7c5 a4b9
00000150: 45af 51b9 aab2 c7b5 d643 4439 7c82 9439
00000160: 3d0f 8439 e3b2 fa38 ae9f 34b8 b5b0 24b9
00000170: 51a6 35b9 150e c6b8 438a f637 069b 0439
00000180: 0970 1239 9412 6238 842f c9b8 214b 7db9
00000190: 8f63 5738 448b ac38 6014 0d39 2fb1 4839
000001a0: 7582 6e39 f436 6939 c427 3539 a341 c738
000001b0: af35 9a37 6ba7 ebb7 54ac 02b8 ed0b 85b4
000001c0: 55c7 1538 c14f 2f38 9381 d0b6 13bd e2b8
000001d0: f088 78b9 a202 b7b9 5f59 d2b9 6ea3 c1b9
000001e0: 693a 87b9 e5f3 ccb8 576c 8e38 ec6b 5239
000001f0: f9f8 9339 a2ab 10ba 8bed a8b9 1ada c7b8
00000200: 6778 7538 1b17 e638 dc28 9c38 dab8 4536
00000210: e3db 41b8 b0a0 01b8 7d2b 6938 66ff 4239
00000220: 9984 a339 c527 ca39 c6f0 c639 da71 9c39
00000230: e043 3939 a307 8538 6a4e 0236 1287 3e37
00000240: a41b a438 79b1 2839 d515 5839 d651 3339
00000250: cde1 2d38 d79f 26b9 4b67 c237 0e07 cbb7
00000260: cfa7 8bb8 e6ae c8b8 1796 deb8 d520 ccb8
00000270: 9adf 9ab8 3a44 38b8 2544 8ab7 7071 0236
00000280: 202c 1e37 f846 1237 d7b8 b636 5c83 b236
00000290: 5a55 4337 bbae c937 613a 2338 4b62 5638
000002a0: 3c8c 6a38 ce04 5538 bf77 1638 4a6f 6937
000002b0: 03a2 30b7 987e 06b8 d1a5 3fb8 d6b3 143a
000002c0: e414 003a 5aa9 a639 4ed3 d338 6eeb d5b8
000002d0: bfff 7eb9 0301 9eb9 f0b0 96b9 69b4 77b9
000002e0: 4385 47b9 6b53 3cb9 3651 5cb9 7600 8ab9
000002f0: bdfe 9fb9 c4a7 9fb9 1a31 7fb9 afdd 02b9
00000300: a33b f937 db25 4539 fcfc a639 3f6e d039
00000310: 5e2f d939 baa7 c239 941e 9439 b746 3139
00000320: b808 22ba 3bf1 a1b9 941b b137 ccea 7c39
00000330: d17b a639 4ad9 9d39 1bae 8d39 b16c 8d39
00000340: 51cc 9439 0d1b 8739 1f36 2039 78cb 48b7
00000350: ab04 28b9 92e7 55b9 2a05 d6b8 7195 cd38
00000360: b245 9139 1c53 a339 27f8 2039 7968 03b9
00000370: a7a0 bdb9 5d83 ccb9 c8a7 1cb9 1737 8739
00000380: d8f7 1c3a 164d ccb8 6359 7439 5da7 c139
00000390: 74fc a739 f3ce 2f39 815e 9337 40dd 41b8
000003a0: 88a7 0437 ce67 2439 42ba b439 c50d 053a
000003b0: 5609 1c3a d1bd 183a 431c f739 a559 9539
000003c0: e111 8638 c649 13b9 36b8 91b9 ef9f a4b9
000003d0: 0696 81b9 7515 f4b8 6e00 f836 41df 4338
000003e0: 6fc9 49b8 3676 8db9 2650 4fb8 7c0c 09b7
000003f0: 0935 9337 70e6 f137 a32d 0938 ff9b 1838
