ckpts/finetuning/subject_01-session_02.ckpt (torch, 63949 bytes, 50 tensors)

model.input_block.temp_cov.weight f4 [40, 1, 1, 25]
0	0x3ea75325	0.32680622
1	0x3dbf870f	0.09351932
2	0xbeab1e89	-0.33421734
3	0xbeb70732	-0.35747677
4	0xbe97dfe7	-0.2966301
5	0xbdaa7c06	-0.08324437
6	0x3dbd31ad	0.092379905
7	0x3ea2dfd5	0.31811395
8	0x3e14aa8f	0.14518188
9	0x3e1b39a1	0.15158702
10	0xbe0cc2df	-0.13746212
11	0xbe51df1b	-0.20495264
12	0xbec189dd	-0.37800494
13	0xbea5473c	-0.3228091
14	0xbe7f9feb	-0.24963348
15	0xbbe3a593	-0.006947228
16	0x3e8f5a47	0.27998564
17	0x3ec1bdc9	0.37840107
18	0x3e0cac3b	0.13737576
19	0x3e2c3c22	0.16819814
20	0x3e85ec21	0.26156715
21	0x3e79381e	0.24337813
22	0xbd5a6257	-0.05331644
23	0x3d8185ae	0.063243255
24	0xbe2781aa	-0.16358057
25	0xbeb10c99	-0.34579924
26	0x3e4dd6b3	0.20101433
27	0x3e218127	0.15771924
28	0x3eb0d741	0.34539226
29	0x3ed82447	0.42215177
30	0x3ea5e024	0.32397568
31	0x3ea0e895	0.31427446
32	0xbea21893	-0.31659374
33	0xbeb16313	-0.346459
34	0xbeca4f46	-0.39513606
35	0xbeccbc16	-0.39987248
36	0xbda8cf35	-0.082426466
37	0x3f04b5e0	0.5184002
38	0x3edfcbf7	0.437103
39	0x3ee011fd	0.43763724
40	0x3ea80c7b	0.32822022
41	0xbdcc95d4	-0.09989515
42	0xbe73c565	-0.23805769
43	0xbeff92cc	-0.49916685
44	0xbeecfe61	-0.46287826
45	0xbeb76299	-0.35817412
46	0x3e8bfb57	0.27340195
47	0x3ef07e35	0.46971288
48	0x3ea2030f	0.3164296
49	0x3ece9cbe	0.4035396
50	0x3f01f7b6	0.507686
51	0x3f1346b9	0.5752979
52	0x3ee501c3	0.44727907
53	0x3ec3d807	0.38250753
54	0x3ed8ffee	0.4238276
55	0xbe2ef2e6	-0.17084846
56	0xbe357e85	-0.17724045
57	0xbecf44a2	-0.4048205
58	0xbec6769e	-0.38762373
59	0xbea66452	-0.32498413
60	0xbd8b3e07	-0.0679894
61	0xbc2c7b56	-0.010527452
62	0xbe33ffdc	-0.17578071
63	0xbc8dfb2a	-0.017331678
64	0xbd25717c	-0.04039143
65	0xbe786f5a	-0.24261227
66	0xbe6ac18a	-0.22925392
67	0xbde95783	-0.11393645
68	0x3e2be1ed	0.16785403
69	0x3ee08825	0.4385387
70	0x3e649471	0.22322251
71	0x3ec38d13	0.3819357
72	0x3f116b66	0.568045
73	0x3f23990c	0.63905406
74	0x3f0b5978	0.54433393
75	0xbdbe284a	-0.09285028
76	0xbe879b67	-0.2648575
77	0xbedb7dcc	-0.42869413
78	0xbe434e86	-0.19072923
79	0xbe93733d	-0.28798857
80	0xbe824263	-0.25441274
81	0x3e8662d1	0.26247266
82	0x3e94f1df	0.29090783
83	0xbd7552c3	-0.05989338
84	0x3e129c3f	0.14317416
85	0xbd8555ad	-0.06510482
86	0xbe1a5f34	-0.1507538
87	0xbe663ded	-0.2248456
88	0xbd72c314	-0.059268072
89	0xbe37e1e5	-0.17957266
90	0x3df8720c	0.12131128
91	0x3e4a5e2e	0.19762489
92	0x3e85293e	0.26008028
93	0x3e43e39c	0.19129795
94	0xbe016562	-0.1263633
95	0xbe579ee3	-0.21056704
96	0xbdc3a9ae	-0.09553848
97	0xbe42cd2c	-0.1902358
98	0xbecde8ad	-0.4021658
99	0xbeb41e6f	-0.3517947
100	0x3e9cd44c	0.3063072
101	0x3d0bc75f	0.034125682
102	0xbebddca1	-0.3708239
103	0xbebd8429	-0.37014893
104	0xbeeaf20e	-0.45887798
105	0xbe6454eb	-0.22298019
106	0xbea90ea5	-0.33018985
107	0xbe966f91	-0.29381993
108	0xbdae38f0	-0.08506954
109	0x3da6921f	0.08133339
110	0x3d06afe6	0.032882594
111	0x3e69ec1f	0.2284398
112	0xbcd707c8	-0.026248828
113	0x3e843c03	0.25827035
114	0x3e4b44e9	0.19850506
115	0xbdd620bb	-0.104554616
116	0x3d19027b	0.03735588
117	0x3e02be0f	0.12767814
118	0x3e3207ca	0.17385784
119	0x3e56a023	0.20959525
120	0x3e3e5d9e	0.185904
121	0xbcd5de29	-0.02610691
122	0xbea3e125	-0.3200771
123	0xbe845f69	-0.25854042
124	0xbf2a9066	-0.66626585
125	0xbeaa582a	-0.3327039
126	0xbebdfd8b	-0.371075
127	0xbee10ee4	-0.43956673
128	0xbeccbbee	-0.3998713
129	0xbeefccf1	-0.46836045
130	0xbe9bc45d	-0.3042325
131	0xbdf55593	-0.119792126
132	0xbdcf9fba	-0.10137887
133	0x3e538a77	0.20658289
134	0x3ec637b3	0.3871437
135	0x3e307f95	0.17236169
136	0x3e08d32c	0.13361806
137	0x3d538ae1	0.051646117
138	0x3da3f206	0.08005147
139	0x3e2df3a6	0.16987476
140	0x3e827e02	0.2548676
141	0x3e66dd27	0.225453
142	0x3ea77508	0.32706475
143	0x3e1882ec	0.14893693
144	0xbdd7c29e	-0.10535167
145	0xbe5bc8aa	-0.21463266
146	0xbdbc92b7	-0.09207671
147	0xbea0fb41	-0.31441692
148	0xbefd0829	-0.49420288
149	0xbf1edb0f	-0.62053007
150	0x3dfdefa1	0.12399221
151	0x3e8c24a4	0.27371705
152	0x3ee78108	0.4521563
153	0x3f13ec78	0.577827
154	0x3f07af0f	0.53001493
155	0x3e46fa12	0.19431332
156	0x3efd667e	0.49492258
157	0x3e380629	0.179711
158	0x3e23fba3	0.1601396
159	0xbdd010c2	-0.10159446
160	0xbe4d0ed9	-0.20025195
161	0xbe912abb	-0.28352913
162	0xbef6b30f	-0.48183486
163	0xbf03a1f6	-0.5141901
164	0xbeca093d	-0.39460173
165	0xbebcf78c	-0.36907613
166	0xbeeb1034	-0.459108
167	0xbe7f4778	-0.24929607
168	0xbec9f2cc	-0.39443052
169	0x3a005211	0.00048950413
170	0x3eb3144f	0.34976432
171	0x3e37b2ee	0.1793935
172	0x3f04a3a9	0.51812226
173	0x3efe4870	0.4966464
174	0x3eaa023b	0.33204827
175	0x3e756a06	0.23966226
176	0x3cebb909	0.028774755
177	0xbdbad32d	-0.0912231
178	0x3deed32c	0.116613716
179	0xbe7954ac	-0.24348706
180	0xbd9ba8f1	-0.076005824
181	0xbdb1137a	-0.08646293
182	0x3e041da4	0.12901932
183	0x3d66bf75	0.05633493
184	0x3dda5504	0.10660747
185	0x3dbf33ce	0.09336053
186	0xbcb897d1	-0.02253333
187	0xbc999277	-0.018746598
188	0xbe08f592	-0.13374928
189	0x3e10898c	0.1411497
190	0x3e47ab44	0.19498926
191	0x3e3ac598	0.18239439
192	0xbdef1ee8	-0.11675817
193	0xbd1f47b4	-0.03888674
194	0xbe57217d	-0.21008869
195	0xbe39b0b0	-0.18133807
196	0xbe4318fa	-0.19052497
197	0xbca2cc52	-0.019872818
198	0xbe71d8ab	-0.23617809
199	0xbe00c76d	-0.12576075
200	0x3f2bbe72	0.6708747
201	0x3f02f2f3	0.5115196
202	0xbe6de9cb	-0.23233716
203	0xbef3843d	-0.47561827
204	0xbf02442d	-0.5088528
205	0xbe77e3b6	-0.24207959
206	0xbea6ce50	-0.3257928
207	0x3e80c0f0	0.251472
208	0x3ea31103	0.31848916
209	0x3e93378a	0.2875331
210	0x3e7f6c17	0.24943577
211	0x3e15ff66	0.14648208
212	0xbdd096c6	-0.10185008
213	0xbe939de0	-0.28831387
214	0xbe83699d	-0.25666514
215	0xbe63560d	-0.22200795
216	0xbeb64928	-0.3560269
217	0xbd6fddbe	-0.05856108
218	0x3ee2455e	0.44193548
219	0x3e25f6a0	0.16207361
220	0x3e94861c	0.29008567
221	0x3ec61e91	0.38695195
222	0xbb6e6937	-0.003637863
223	0xbee669b7	-0.4500253
224	0xbf53a59f	-0.8267459
225	0xbeb16c35	-0.34652868
226	0xbf1d3725	-0.6141227
227	0xbefe42ad	-0.49660245
228	0xbeebffeb	-0.46093687
229	0xbebc6eba	-0.36803228
230	0xbe447d1e	-0.19188353
231	0x3e9739da	0.29536325
232	0x3e8fcc8d	0.28085747
233	0x3ecdbe8b	0.40184435
234	0x3e7b26d2	0.24526528
235	0xbe10b282	-0.14130595
236	0xbcd389bc	-0.025822513
237	0xbe8dc65f	-0.27690408
238	0xbe1a44a9	-0.15065254
239	0x3df600cd	0.120118715
240	0x3e4f9596	0.20271906
241	0x3ea0c47a	0.313999
242	0x3dc65c0d	0.09685526
243	0x3dbe035a	0.09277983
244	0xbd856443	-0.06513264
245	0xbf1635a0	-0.58675575
246	0xbe9668c5	-0.29376808
247	0xbf200896	-0.625131
248	0xbeebb3a7	-0.460355
249	0xbeeabd54	-0.4584757
250	0xbf2d24ba	-0.67634165
251	0xbf2489b1	-0.642726
252	0xbf037de7	-0.51363987
253	0xbf2c8eb3	-0.6740524
254	0xbf1af737	-0.6053347
255	0xbec19bcf	-0.37814185

model.input_block.bn1.weight f4 [40]
0	0x3fa11929	1.2585803
1	0x3fb31927	1.3992051
2	0x3fb7eca3	1.4369091
3	0x3f9e11a8	1.2349138
4	0x3fa4443a	1.2833321
5	0x3fa7d20e	1.3110979
6	0x3fba17c2	1.45385
7	0x3f8c46da	1.0959122
8	0x3fba438e	1.4551866
9	0x3fb616b8	1.4225683
10	0x3fd2a497	1.6456479
11	0x3fd84a5b	1.6897691
12	0x3f9e947f	1.2389067
13	0x3f69353f	0.9109687
14	0x3f927707	1.1442574
15	0x3fbfad66	1.4974792
16	0x3f9eebbc	1.241569
17	0x3f9d0144	1.2266011
18	0x3fadb6af	1.3571376
19	0x3fa11926	1.25858
20	0x3faa8f20	1.3324928
21	0x3fb2fde5	1.3983732
22	0x3faf05fd	1.3673702
23	0x3f8f430e	1.1192338
24	0x3fa32a94	1.2747369
25	0x3f9d8a56	1.2307842
26	0x3faa2d77	1.3295125
27	0x3fa62903	1.2981266
28	0x3fa5a1f5	1.294005
29	0x3fc35e2d	1.5263115
30	0x3fa55545	1.2916647
31	0x3fb23136	1.3921268
32	0x3c1c22cd	0.0095297815
33	0x3faf406d	1.3691536
34	0x3f8bfca5	1.0936476
35	0x3f9acc02	1.2093508
36	0x3faf5263	1.3697017
37	0x3fa013e0	1.2506065
38	0x3f9f3737	1.2438725
39	0x3fb2b51a	1.3961518

model.input_block.bn1.bias f4 [40]
0	0xbe76f5ff	-0.24117278
1	0xbd31fc08	-0.043453246
2	0x3c177b72	0.00924574
3	0xbd07bfbc	-0.033141837
4	0x3d5216f6	0.05129143
5	0x3e14875c	0.1450476
6	0xbe8ad908	-0.27118707
7	0xbfa97938	-1.3240118
8	0xbd7db600	-0.061941147
9	0xbd802a5f	-0.06258082
10	0x3d897c63	0.06713178
11	0x3e831455	0.2560145
12	0x3e94a5c8	0.2903273
13	0xc0062e9c	-2.0965948
14	0x3fa7ba04	1.3103642
15	0xbe082301	-0.13294603
16	0x3f9f8157	1.2461346
17	0xbf212db9	-0.6296039
18	0xbd05625b	-0.032564502
19	0xbc0e6a70	-0.008692369
20	0xbc62e74f	-0.013849094
21	0x3cb040fc	0.021515362
22	0x3d015865	0.03157844
23	0xbfe0e99e	-1.7571294
24	0xbcd8d907	-0.026470674
25	0x3d5295c4	0.05141236
26	0x3d505d79	0.050870392
27	0xbd19e76e	-0.037574224
28	0xbdb60416	-0.08887498
29	0x3ec01168	0.3751328
30	0xbc91c1ad	-0.017792547
31	0xbe0a969e	-0.13534018
32	0x402bfb43	2.6872108
33	0x3eae5b04	0.34053814
34	0xbfc0b050	-1.5053806
35	0xbe12d30e	-0.14338323
36	0x3d6a1cd9	0.057156418
37	0x3c3ece41	0.011645854
38	0x3d0af371	0.03392357
39	0xbe995001	-0.2994385

model.input_block.bn1.running_mean f4 [40]
0	0xb493ef1c	-2.755486e-07
1	0xb6540759	-3.1594739e-06
2	0xb6678b9b	-3.4502943e-06
3	0xb5378253	-6.836246e-07
4	0x35db393d	1.633343e-06
5	0x3653a7a9	3.1539041e-06
6	0xb6089cf5	-2.035694e-06
7	0xb5a7d8e0	-1.2505589e-06
8	0x36b55d27	5.4050647e-06
9	0xb4138cd8	-1.374168e-07
10	0x36994b2e	4.5685074e-06
11	0x361a35d9	2.2979132e-06
12	0xb677460a	-3.6846636e-06
13	0x360334ac	1.955118e-06
14	0xb6935a5a	-4.3914597e-06
15	0x362f356b	2.6108125e-06
16	0x353d6bd5	7.0564903e-07
17	0x35e92fff	1.7373821e-06
18	0xb6147895	-2.2123907e-06
19	0x360f0fe1	2.1317903e-06
20	0x3670cb83	3.5881246e-06
21	0xb67ec666	-3.7964433e-06
22	0x3551c888	7.815038e-07
23	0x35365edf	6.793834e-07
24	0xb3340340	-4.191247e-08
25	0xb4f17015	-4.4971299e-07
26	0xb681616e	-3.855842e-06
27	0xb5d30e63	-1.5724912e-06
28	0xb58997ed	-1.0251512e-06
29	0xb62956a5	-2.5233396e-06
30	0x35135e02	5.4898567e-07
31	0xb58bf44f	-1.042741e-06
32	0xb4822c41	-2.4246586e-07
33	0xb6384863	-2.7460271e-06
34	0x349ea17d	2.9547292e-07
35	0x35c2e4e2	1.452074e-06
36	0x3619fe64	2.2946851e-06
37	0x3551a2e9	7.809563e-07
38	0x359f0c08	1.1849925e-06
39	0xb6ca3f3f	-6.027432e-06

model.input_block.bn1.running_var f4 [40]
0	0x3c927836	0.017879587
1	0x3d3c4747	0.045966413
2	0x3d6d2c86	0.05790379
3	0x3c870be6	0.016485166
4	0x3cc9e087	0.024643196
5	0x3d2ca0cb	0.04214553
6	0x3d8ee97c	0.06978127
7	0x3b8433cb	0.0040344945
8	0x3d15f4fe	0.036610596
9	0x3d512b8c	0.05106692
10	0x3dcceb66	0.10005836
11	0x3d2c9169	0.04213086
12	0x3c24987a	0.010046119
13	0x3a11d70a	0.00055633544
14	0x3c57473b	0.013139541
15	0x3d9f8cde	0.0779054
16	0x3c5c22f9	0.0134360725
17	0x3c559d3a	0.013037974
18	0x3d2c1ad7	0.042017784
19	0x3c9748fb	0.018467417
20	0x3cd743bd	0.026277417
21	0x3d7d0486	0.061771892
22	0x3d06bf20	0.032897115
23	0x3a8f6e0e	0.0010942833
24	0x3d07c7af	0.033149417
25	0x3c64410e	0.013931526
26	0x3cb67fb7	0.022277696
27	0x3c97740a	0.018487949
28	0x3cfc62f0	0.030808896
29	0x3da800a6	0.08203249
30	0x3c8da914	0.017292537
31	0x3d44b29c	0.048021898
32	0x388a4a8d	6.594239e-05
33	0x3cf2536a	0.02958079
34	0x3b937f71	0.004501276
35	0x3c603813	0.013685244
36	0x3d2eff4d	0.042723943
37	0x3c80b97f	0.015713451
38	0x3cb683c2	0.022279624
39	0x3d307b16	0.043086134

model.input_block.spat_conv.weight f4 [40, 1, 24, 1]
0	0xbe41b031	-0.18914868
1	0xbe3be1a7	-0.18347798
2	0xbcc51e4d	-0.0240623
3	0xbd578a91	-0.05262238
4	0xbd95fcc9	-0.073236056
5	0x3e15195e	0.14560458
6	0xbeb6c459	-0.35696676
7	0xbe88c479	-0.26712397
8	0xbc185766	-0.009298181
9	0xbc65aa79	-0.014017695
10	0xbbbf271a	-0.0058335187
11	0x3dd3445d	0.10315774
12	0xbda3ebdc	-0.08003971
13	0xbef5d092	-0.4801069
14	0xbf1cb3e6	-0.61212003
15	0x3d8d04d0	0.068856835
16	0xbdb32b74	-0.087485224
17	0xbe154bbf	-0.14579676
18	0xbe8134f1	-0.25235704
19	0xbc961673	-0.018321251
20	0x3e376d05	0.17912681
21	0xbe89499b	-0.2681397
22	0xbed7ac52	-0.42123657
23	0x3d50b446	0.050953172
24	0x3e2ef18f	0.17084335
25	0x3de34598	0.11097258
26	0x3dc16ffd	0.09445188
27	0x3d374cab	0.04475085
28	0x3e080c33	0.13285904
29	0x3df7e9da	0.121051505
30	0x3dc63822	0.09678675
31	0x3ea609ac	0.32429254
32	0x3d95e842	0.0731969
33	0x3c851c31	0.016248794
34	0xbd356d35	-0.0442936
35	0x3d97394d	0.07383976
36	0x3b44aa36	0.003000868
37	0xbf2a6a15	-0.6656812
38	0xbf445846	-0.76697195
39	0x3e532cbe	0.20622537
40	0x3dc0b9ba	0.094104245
41	0x3e669e2e	0.22521278
42	0x3c7198a9	0.01474587
43	0x3d88b9af	0.06676041
44	0x3ded4ce9	0.11586935
45	0x3aa8a95a	0.0012867854
46	0x3e3d6ac6	0.18497762
47	0x3e754341	0.23951437
48	0x3d82f1e7	0.063937955
49	0x3deba425	0.115059175
50	0xbd9b7792	-0.075911656
51	0xbdb2b63e	-0.08726166
52	0x3d798309	0.06091598
53	0x3e26079a	0.16213837
54	0xbbc61b7e	-0.006045758
55	0xbd8abe23	-0.06774547
56	0x3e38abdf	0.18034314
57	0xbe332714	-0.17495376
58	0xbe988d86	-0.29795474
59	0x3ce856d6	0.02836172
60	0xbd60c53a	-0.05487559
61	0x3f1f7255	0.6228383
62	0x3f51da7f	0.81974024
63	0xbc523fa0	-0.012832552
64	0xbe1c8fb3	-0.15289192
65	0xbed0e533	-0.40799865
66	0xbef2887d	-0.47369757
67	0xbe95386e	-0.29144615
68	0xbd3d7ba6	-0.0462605
69	0x3e693ed9	0.2277788
70	0x3e5e313a	0.21698466
71	0xbd388dc6	-0.04505708
72	0x3c109ef7	0.008826963
73	0xbc8617f7	-0.01636885
74	0x3e90bc55	0.28268686
75	0xbdf4b1d9	-0.11947984
76	0xbdb42c0b	-0.08797463
77	0xbbcf4347	-0.0063251588
78	0x3ca507a9	0.020145254
79	0x3df0b9df	0.11754202
80	0x3e2da6af	0.16958116
81	0xbe818a14	-0.25300658
82	0xbf05ba99	-0.5223785
83	0x3d4027f5	0.046913106
84	0x3e105f46	0.14098844
85	0xbd9b5b97	-0.07585829
86	0xbc4ce2a7	-0.01250521
87	0x3c8a0cfa	0.01685189
88	0x3d2a5054	0.041580513
89	0xbe0f8b45	-0.14017971
90	0xbf174ecd	-0.59104615
91	0x3e8b5685	0.27214447
92	0xbdf86874	-0.12129298
93	0x3c46579b	0.012105848
94	0x3c066a6f	0.008204087
95	0xbe2f68e4	-0.17129856
96	0x3e689ddd	0.2271647
97	0xbb15006f	-0.0022735854
98	0x3e36ab84	0.17838866
99	0x3e7bc8d8	0.24588335
100	0x3dbf1f48	0.09332138
101	0xbd49a854	-0.049232796
102	0xbe1d0d5e	-0.1533713
103	0xbd9be7ee	-0.076125965
104	0x3cbd0889	0.023075359
105	0xbd482ace	-0.048868947
106	0xbf3c6a77	-0.7359995
107	0xbe44bc93	-0.1921256
108	0x3e069b99	0.13145293
109	0xbd862b00	-0.0655117
110	0xbc1a3ecf	-0.009414389
111	0xbd38b0a4	-0.045090333
112	0x3d43c087	0.04779103
113	0x3e278989	0.16361059
114	0xbf161ba8	-0.5863595
115	0xbe3d4ad2	-0.18485573
116	0x3e2c9996	0.16855463
117	0xbe04a378	-0.12952983
118	0x3e3fa75b	0.18716185
119	0xbd9ef1a6	-0.077609345
120	0xbe2f2122	-0.17102483
121	0xbe2b22d6	-0.16712508
122	0xbc4138df	-0.011793344
123	0xbdd53e34	-0.10412255
124	0x3ca8fe11	0.02062896
125	0x3e772647	0.24135695
126	0x3e076d96	0.13225397
127	0xbb0683db	-0.002052537
128	0x3d4fba61	0.050714854
129	0xbdebbb43	-0.11510327
130	0x3dfc489b	0.12318536
131	0xbda31847	-0.07963615
132	0xbc8dcdcf	-0.017310051
133	0x3e58fc0a	0.21189895
134	0xbf3c276a	-0.7349764
135	0xbe2ca430	-0.16859508
136	0x3e14a2ec	0.14515275
137	0x3d989df3	0.074520014
138	0x3eb81a25	0.35957447
139	0xbd69c35e	-0.057071082
140	0xbdb32950	-0.08748114
141	0xbe26f30e	-0.16303656
142	0xbf4569b5	-0.7711442
143	0x3be636a0	0.007025555
144	0x3cf11c59	0.029432463
145	0xbdb9c377	-0.09070485
146	0xbe0217e1	-0.12704422
147	0xbed7e703	-0.42168435
148	0xbdc59724	-0.096479684
149	0x3df84f72	0.12124528
150	0x3eb2ccc1	0.3492184
151	0xbe8caf39	-0.27477434
152	0xbe9a0192	-0.30079323
153	0x3def7a44	0.11693242
154	0xbb8b2d23	-0.004247324
155	0xbf0d9c10	-0.5531626
156	0xbda1f3dc	-0.079078406
157	0x3ebf75dd	0.3739461
158	0xbf2cc0ee	-0.6748189
159	0xbe0a85d9	-0.13527621
160	0xbe509a6d	-0.20371409
161	0x3ca33a36	0.019925218
162	0x3ea028cc	0.31281126
163	0x3df7ca41	0.12099124
164	0xbcb4d45f	-0.022073923
165	0xbeb14669	-0.3462403
166	0xbf261fb8	-0.6489215
167	0xbe0b8bab	-0.13627498
168	0xbf64bb59	-0.8934837
169	0xbf7487a2	-0.9551946
170	0xbf85314d	-1.040567
171	0xbf363c50	-0.7118578
172	0xbf7833ee	-0.9695424
173	0xbf795ed3	-0.97410315
174	0xbf687908	-0.9080968
175	0xbf644919	-0.8917404
176	0xbf42047d	-0.757881
177	0xbf837bb7	-1.027213
178	0xbfa5b1ec	-1.2944922
179	0xbf89cf99	-1.0766479
180	0xbf549810	-0.8304453
181	0xbf82703e	-1.0190504
182	0xbf197536	-0.59944475
183	0xbf66905c	-0.90064025
184	0xbf8c1b29	-1.0945789
185	0xbf630b58	-0.88689184
186	0xbf93f4f7	-1.1559132
187	0xbf358796	-0.7091001
188	0xbf03aa38	-0.5143161
189	0xbf85b924	-1.0447125
190	0xbf3b478d	-0.7315605
191	0xbf6dcc4f	-0.92889875
192	0x3df4b8fb	0.11949345
193	0x3e05b77b	0.13058273
194	0x3e11ada7	0.142264
195	0x3d9fd562	0.078043714
196	0x3e8485f6	0.25883454
197	0x3e9b33fe	0.30313104
198	0x3dd312fa	0.10306354
199	0x3ea5880f	0.32330367
200	0x3e0a1aa4	0.13486725
201	0x3dabec72	0.08394708
202	0x3e0779df	0.13230084
203	0x3d708c83	0.058727752
204	0x3e0b4650	0.13601041
205	0xbedf14dc	-0.43570602
206	0xbf7be8f1	-0.98402315
207	0x3d9c04e8	0.07618123
208	0xbcd1c01d	-0.025604302
209	0x3d5f334c	0.05449228
210	0x3d93999a	0.072070315
211	0x3d7bde94	0.061491564
212	0x3ccb1786	0.02479149
213	0xbdc89c6d	-0.09795461
214	0xbf1bf2e6	-0.6091751
215	0x3e875a82	0.2643624
216	0x3cff9f73	0.031203961
217	0xbcc5a16c	-0.024124824
218	0xbb9521d2	-0.004551151
219	0xbd76d062	-0.060257323
220	0xbe4920cb	-0.19641416
221	0xbed2b765	-0.41155544
222	0xbe3fe4f5	-0.18739684
223	0x3d835f2d	0.06414638
224	0x3da53b37	0.08067935
225	0x3e29355a	0.16524258
226	0x3e54694b	0.20743291
227	0x3d8ced6f	0.06881224
228	0xbde6f4be	-0.112771496
229	0xbf0297a0	-0.5101261
230	0x3f32f295	0.699014
231	0x3e8ca47e	0.27469248
232	0x3d13a834	0.036049083
233	0xbb177539	-0.0023110642
234	0x3e42a99c	0.19010013
235	0x3da739f3	0.0816535
236	0x3c1d3133	0.00959425
237	0x3df51eca	0.11968763
238	0x3f3a0272	0.7265998
239	0xbd8718ef	-0.065965526
240	0xbe55004c	-0.20800894
241	0xbd59e587	-0.05319741
242	0xbd40db75	-0.04708429
243	0xbd5eac35	-0.05436345
244	0xbe954ffa	-0.2916258
245	0xbf107000	-0.564209
246	0xbeb7be70	-0.3588748
247	0xbe19b7f0	-0.15011573
248	0x3d554948	0.05207184
249	0x3db21801	0.08695985
250	0x3f2aaa6a	0.6666628
251	0xbc078c79	-0.008273237
252	0xbe3dec65	-0.18547209
253	0xbeb97487	-0.36221716
254	0x3f504c89	0.81366783
255	0x3e7b0808	0.24514782

model.input_block.bn2.weight f4 [40]
0	0x3fa09586	1.2545631
1	0x3fb30b1a	1.3987763
2	0x3fb7d02a	1.4360402
3	0x3f9df7de	1.2341268
4	0x3fa43bf0	1.2830791
5	0x3fa7d757	1.3112592
6	0x3fb9e0fe	1.4521787
7	0x3f937c2e	1.1522272
8	0x3fba740f	1.4566668
9	0x3fb61df7	1.4227895
10	0x3fd26dab	1.6439718
11	0x3fd8114e	1.6880281
12	0x3f9e3e7a	1.2362816
13	0x3f87fca7	1.0623978
14	0x3f9a8087	1.2070473
15	0x3fbf940f	1.4967059
16	0x3fa2785b	1.269298
17	0x3f9d114b	1.2270902
18	0x3fade83a	1.3586495
19	0x3fa106e2	1.2580225
20	0x3faa7c87	1.3319253
21	0x3fb3045a	1.3985703
22	0x3faef92c	1.3669791
23	0x3fa81f55	1.3134562
24	0x3fa318eb	1.2741979
25	0x3f9d83dd	1.2305866
26	0x3faa34a6	1.3297317
27	0x3fa626ec	1.2980628
28	0x3fa5c10f	1.2949542
29	0x3fc292e8	1.5201082
30	0x3fa56902	1.2922671
31	0x3fb20211	1.3906881
32	0x3fe7b2b6	1.8101413
33	0x3faf4440	1.3692703
34	0x3f94b6e3	1.1618313
35	0x3f9a55bb	1.2057413
36	0x3faf58bd	1.3698956
37	0x3fa018b8	1.2507544
38	0x3f9f4ad1	1.2444707
39	0x3fb22bde	1.3919637

model.input_block.bn2.bias f4 [40]
0	0x3e56bbf5	0.20970137
1	0xbcf273e3	-0.029596275
2	0x3c7c1489	0.015385755
3	0x3d191104	0.037369743
4	0xbd69a150	-0.057038605
5	0xbe356457	-0.17714058
6	0x3e79ba6c	0.2438752
7	0x3f71a532	0.94392693
8	0xbe179142	-0.14801505
9	0xbd84da40	-0.064869404
10	0x3dd298f1	0.102830775
11	0x3ea5a869	0.3235505
12	0x3e844c1c	0.25839317
13	0x3fdf2c6d	1.7435433
14	0x3f7f48da	0.9972054
15	0x3e1da24c	0.15393943
16	0x3f718132	0.9433776
17	0x3f032df0	0.5124197
18	0x3d2d389c	0.042290315
19	0x3c724247	0.01478631
20	0xbca55a40	-0.020184636
21	0xbcf6e378	-0.030137762
22	0x3de010c4	0.10940698
23	0x3fd219ce	1.6414125
24	0xbdfa13e7	-0.12210827
25	0xbd67d575	-0.056600053
26	0x3ca264c1	0.019823434
27	0xbd9897b6	-0.074508116
28	0xbdaffcf3	-0.08593168
29	0x3ea0c715	0.31401888
30	0xbd5eea2d	-0.054422546
31	0x3e401d5a	0.18761197
32	0xbf8f1844	-1.117928
33	0x3e91d2bb	0.28481087
34	0x3f85e06d	1.0459114
35	0xbe263817	-0.16232334
36	0x3df4b43b	0.11948439
37	0x3d49efd1	0.049300972
38	0xbd04fecb	-0.032469552
39	0x3e7a3479	0.24434079

model.input_block.bn2.running_mean f4 [40]
0	0x3f388e28	0.72091913
1	0xbd25a0a0	-0.040436387
2	0x3acc7be2	0.0015600885
3	0x3d0747fd	0.033027638
4	0xbd399df0	-0.045316637
5	0xbe3f696f	-0.18692563
6	0x3f394066	0.7236389
7	0x41e812f7	29.00926
8	0xbcd0b1e9	-0.02547546
9	0xbd97293c	-0.07380912
10	0x3d65363e	0.055959933
11	0x3f1e8262	0.619177
12	0x3f63131b	0.8870103
13	0x428af13f	69.47118
14	0x42005b67	32.08926
15	0x3dee62a1	0.11639906
16	0x41bbea4f	23.489408
17	0x40d7a4ce	6.7388678
18	0xbcc8e666	-0.024523925
19	0x3b47b44c	0.0030472456
20	0xbc522b92	-0.012827771
21	0xbcacf92f	-0.021114914
22	0x3c229d27	0.009925163
23	0x426f948a	59.895058
24	0x3b5dc5d3	0.0033839836
25	0xbc51a732	-0.01279621
26	0xbc8cbf1c	-0.017180972
27	0xbb6bb0de	-0.0035963575
28	0xbd869655	-0.06571642
29	0x3fc85839	1.5651923
30	0xb9d56696	-0.00040702958
31	0x3d6f7e0f	0.05846983
32	0xc30474b3	-132.45586
33	0x3f8015e5	1.0006682
34	0x42113317	36.299892
35	0xbeb5f223	-0.35536298
36	0x3d91ec62	0.071251646
37	0x3b65e39c	0.0035078293
38	0xbc8359aa	-0.016033966
39	0x3f4309bb	0.7618672

model.input_block.bn2.running_var f4 [40]
0	0x400dad57	2.2137048
1	0x40782607	3.877321
2	0x408418cc	4.128027
3	0x3fc7f019	1.5620147
4	0x400fe307	2.2482316
5	0x403a689a	2.9126344
6	0x4091a384	4.5512104
7	0x41d02a0b	26.020529
8	0x40af4252	5.4768457
9	0x407c5830	3.9428825
10	0x4102a2be	8.164732
11	0x410bc97c	8.7366905
12	0x4001d280	2.028473
13	0x42116495	36.348225
14	0x41e4d8f1	28.605928
15	0x4089463a	4.2898226
16	0x41f570d7	30.680098
17	0x40d412df	6.6273036
18	0x404f904e	3.2431827
19	0x401c66dc	2.443778
20	0x40751462	3.829369
21	0x40648cd5	3.5710957
22	0x403c7058	2.944357
23	0x429771ae	75.72203
24	0x3fdedb7d	1.7410733
25	0x3fbbb6b2	1.4665129
26	0x4060685c	3.5063696
27	0x4039abb5	2.9011052
28	0x403633d3	2.846913
29	0x40b27cae	5.5777197
30	0x40155324	2.3331995
31	0x405ba8d8	3.4321804
32	0x3c2eba30	0.010664508
33	0x40779062	3.8681874
34	0x4203d7ed	32.960865
35	0x40166d56	2.3504233
36	0x40529762	3.2904897
37	0x3fdc8232	1.7227232
38	0x3fe29e75	1.7704607
39	0x403e95a2	2.9778829

model.channel_expansion.conv.weight f4 [16, 40, 1, 1]
0	0x3e89386a	0.26800853
1	0x3e3935c5	0.18086918
2	0xbd570af5	-0.052500684
3	0x3e3868a1	0.18008663
4	0x3deb0e0b	0.11477288
5	0x3e7fa09d	0.24963613
6	0xbe6696d9	-0.22518481
7	0x3d62cad4	0.055369213
8	0x3e67de47	0.22643386
9	0xbec2b3d7	-0.38027832
10	0xbf5d3626	-0.8641075
11	0x3e243a20	0.16037798
12	0x3e145c29	0.14488281
13	0x3db46de8	0.088100255
14	0x3e0d0834	0.1377266
15	0xbed3546a	-0.4127534
16	0x3e6fa73c	0.23403639
17	0x3e71f69c	0.2362923
18	0x3e6a920e	0.22907278
19	0xbd183c49	-0.037166867
20	0x3dc37dc0	0.09545469
21	0xbf19bac6	-0.6005062
22	0x3e7409a2	0.238318
23	0x3e241d38	0.16026771
24	0xbd30031b	-0.04297171
25	0x3c25597e	0.010092137
26	0x3e1bee79	0.15227689
27	0xbe33f8ef	-0.1757543
28	0xbd581d74	-0.052762464
29	0x3ed2fbab	0.41207632
30	0xbdf22bbe	-0.118247494
31	0x3d0410b9	0.03224251
32	0xbe0e05c6	-0.1386939
33	0x3dc76405	0.09735874
34	0x3dafd8ac	0.08586249
35	0x3d991154	0.07474008
36	0x3e4a2c50	0.19743466
37	0x3e142931	0.14468838
38	0x3d56ffb6	0.05248996
39	0x3e9ebfde	0.31005758
40	0xbd54daba	-0.051966406
41	0xbe83fb69	-0.25777748
42	0x3d98e44f	0.074654214
43	0x3e65f372	0.22456148
44	0x3e6f47b2	0.23367193
45	0xbde9b5d4	-0.11411634
46	0xbd498349	-0.04919747
47	0x3d826029	0.06365997
48	0xbe80edd9	-0.25181463
49	0xbe8d6ace	-0.27620548
50	0xbf6301df	-0.8867473
51	0xbd355eaa	-0.04427973
52	0xbdd494a8	-0.103799164
53	0x3b4e1863	0.003144764
54	0x3d715c28	0.058925778
55	0xbe93393a	-0.28754598
56	0x3b750dda	0.003739229
57	0x3dc9602b	0.09832796
58	0xbe001bab	-0.12510554
59	0x3e27b146	0.16376218
60	0xbdaa1342	-0.083044544
61	0xbecbc4e2	-0.39798647
62	0x3d7bd1b0	0.06147927
63	0xbddf097b	-0.1089048
64	0x3ec40b8a	0.38290054
65	0x3eb1b7ce	0.34710544
66	0x3e984b38	0.29744887
67	0x3b0a0cb4	0.00210647
68	0x3e43067b	0.19045441
69	0x3e46ddeb	0.19420592
70	0x3e605da2	0.21910718
71	0x3e836698	0.2566421
72	0xbcfe4619	-0.031039285
73	0x3c51abbc	0.012797292
74	0xbd4dbf4a	-0.050231256
75	0x3eb5e2e7	0.35524675
76	0xbe2e9aea	-0.17051283
77	0xbe2bdbcc	-0.16783065
78	0x3e83522a	0.25648624
79	0xbdba7b33	-0.0910553
80	0x3c5b78c8	0.013395496
81	0x3e8b5120	0.2721033
82	0x3eafc1a3	0.3432742
83	0x3edb0837	0.42779705
84	0x3eff7b31	0.49898675
85	0xbec6df0d	-0.3884205
86	0x3f359024	0.70923066
87	0x3e75ec7d	0.24015994
88	0xbe33a690	-0.17544007
89	0x3e59d009	0.21270765
90	0x3d85725c	0.06515953
91	0xbdf3bfb6	-0.119018
92	0x3e78df89	0.24304022
93	0x3ec792ee	0.38979286
94	0x3e77a421	0.24183704
95	0x3e98a5cc	0.29813993
96	0x3ede7151	0.4344583
97	0x3e914ece	0.28380436
98	0xbdfe30ed	-0.124116756
99	0x3ec71ead	0.3889059
100	0x3e819c61	0.2531462
101	0x3eb9b462	0.36270434
102	0xbe12607f	-0.14294623
103	0x3ece41e8	0.40284657
104	0xbea33b4a	-0.3188117
105	0x3e35f414	0.1776889
106	0x3e13a724	0.14419228
107	0x3e9d5914	0.30732024
108	0xbe58b337	-0.21162115
109	0x3e19f274	0.15033895
110	0x3e792b09	0.24332823
111	0x3f3343d8	0.70025396
112	0xbf3dae86	-0.74094427
113	0x3f5e8efc	0.86936927
114	0x3ee535e6	0.44767684
115	0x3dc769f4	0.09737006
116	0x3e589c41	0.21153356
117	0x3dbd0ec4	0.09231332
118	0x3f00010a	0.50001585
119	0xbeac57ae	-0.33660644
120	0xbd6b79cc	-0.0574892
121	0xbe6cd07f	-0.2312641
122	0xbe76d6b5	-0.24105342
123	0x3e668bab	0.22514217
124	0x3d5df24c	0.05418615
125	0xbe09b8e1	-0.13449432
126	0xbd63daa4	-0.055628434
127	0x3db71fdd	0.08941624
128	0xbea9a90a	-0.3313678
129	0xbe62fb7e	-0.22166249
130	0xbe62e214	-0.22156554
131	0xbe4cce8f	-0.20000671
132	0x3e050cab	0.12993114
133	0xbe10085a	-0.14065686
134	0xbd18979e	-0.03725397
135	0xbdbc0786	-0.091811225
136	0x3d314d8b	0.04328684
137	0x3d44f5fa	0.048086144
138	0xbe55b0ad	-0.20868178
139	0x3e6c0fc3	0.23052888
140	0xbe92e3aa	-0.2868932
141	0xbde04d67	-0.10952263
142	0xbde9c377	-0.11414235
143	0xbd2d79f6	-0.04235264
144	0x3e882db1	0.2659736
145	0x3e8d6ad8	0.27620578
146	0x3e097786	0.13424501
147	0x3c9abb0c	0.018888019
148	0x3e8f57a2	0.27996546
149	0x3c86e920	0.016468585
150	0x3e23135c	0.15925354
151	0x3c44ea4c	0.012018751
152	0x3cc24109	0.023712652
153	0x3e29c3a1	0.16578533
154	0x3d1c40d9	0.03814778
155	0x3e0d6e46	0.13811597
156	0xbe3a977b	-0.18221848
157	0xbe0b8265	-0.1362396
158	0x3e4333b5	0.19062693
159	0xbc40a4c9	-0.011758038
160	0x3e0a1207	0.1348344
161	0x3ed3779b	0.4130219
162	0xbf4f7a8e	-0.8104638
163	0x3d345705	0.0440283
164	0x3d4980cf	0.049195107
165	0x3e7e0760	0.24807501
166	0x3e83ffc9	0.25781086
167	0x3e7fc798	0.24978483
168	0x3f09a18b	0.5376212
169	0x3dc47c22	0.09593989
170	0x3d094498	0.03351268
171	0x3dcfd1be	0.10147427
172	0xbaa9a8b9	-0.001294396
173	0x3e389c24	0.18028313
174	0x3d37aaa6	0.044840477
175	0x3e2117eb	0.1573178
176	0x3e5a4fab	0.21319453
177	0x3a9c9159	0.0011945172
178	0x3eaee463	0.3415862
179	0x3cc6055a	0.024172474
180	0x3d769663	0.060202014
181	0x3eb54cb5	0.35410085
182	0x3db7a77f	0.08967494
183	0x3cf3c0d6	0.029755037
184	0xbe553068	-0.20819247
185	0xbd636b83	-0.055522453
186	0x3dd1d422	0.10245539
187	0xbdcedcf3	-0.101007365
188	0xbe4467cd	-0.19180222
189	0x3d7d6237	0.061861243
190	0x3da91758	0.082564056
191	0x3e4ed4d2	0.20198372
192	0xbe075a01	-0.13217928
193	0x3dcdb71e	0.100446925
194	0x3e015165	0.12628706
195	0xbe0c7be9	-0.13719143
196	0x3e9d5824	0.30731308
197	0xbb964b3b	-0.004586605
198	0x3d444c79	0.047924493
199	0x3e19bdc1	0.15013792
200	0x3ed5a0ee	0.41724342
201	0x3eaf7f57	0.3427684
202	0x3d8a4422	0.067512766
203	0x3efd3f0c	0.49462163
204	0x3f70b4c4	0.94025826
205	0xbf6a3f57	-0.915029
206	0x3f39ac40	0.7252846
207	0x3f15d573	0.5852882
208	0xbb651675	-0.0034956012
209	0x3f18bb7b	0.5966107
210	0x3ebb0b69	0.36532143
211	0xbf0febdd	-0.56219274
212	0x3eded538	0.43522048
213	0x3f366d46	0.7126049
214	0x3ee77356	0.45205182
215	0x3f1a3736	0.60240495
216	0x3f33dabf	0.70255655
217	0x3ee282e0	0.44240475
218	0xbef777dc	-0.48333633
219	0x3eae0697	0.33989403
220	0x3e924e15	0.28575197
221	0x3f0327e4	0.51232743
222	0xbd46cc94	-0.048534945
223	0x3f095b74	0.5365517
224	0xbe45809c	-0.19287342
225	0x3e650b73	0.22367649
226	0x3eee896a	0.46589214
227	0x3eba250d	0.36356393
228	0x3de9e93b	0.11421438
229	0xbdddb528	-0.108255684
230	0x3ed0adbd	0.40757552
231	0x3f6c6e83	0.9235613
232	0xbf461237	-0.77371544
233	0x3f685f93	0.90770835
234	0x3f102e32	0.5632049
235	0x3e2363b3	0.15956001
236	0x3e9ddb05	0.3083116
237	0x3ea2eac8	0.3181975
238	0x3f28c8ee	0.65931594
239	0xbe187d71	-0.14891602
240	0x3dcc23b1	0.09967745
241	0xbe43004f	-0.19043086
242	0x3db506f3	0.08839216
243	0x3e361aad	0.17783614
244	0xbed269c4	-0.41096318
245	0x3d805f3b	0.06268164
246	0xbdb603bf	-0.08887433
247	0x3d7cb094	0.061691836
248	0xbeab6364	-0.33474267
249	0xbddf2677	-0.108960085
250	0x3e136c7f	0.14396857
251	0x3d22392c	0.039605305
252	0x3e118b08	0.14213192
253	0xbd5cfa56	-0.053949676
254	0x3e4a9552	0.19783524
255	0x3e27347c	0.16328615

model.channel_expansion.bn.weight f4 [16]
0	0x3fa8f7df	1.3200644
1	0x3faaf9f2	1.3357527
2	0x3fefb7a1	1.8727914
3	0x3f9bca7d	1.217117
4	0x3fa39d2e	1.2782342
5	0x3fc28a81	1.5198518
6	0x3f8cd6e0	1.1003075
7	0x3f96a475	1.1768938
8	0x3d7365fb	0.059423428
9	0x3fa5b57a	1.2946007
10	0x3f9c4882	1.2209628
11	0x3fc9fc35	1.5780092
12	0x3fc15892	1.5105155
13	0x3f9c8ba4	1.2230115
14	0x3fa4c8b6	1.2873752
15	0x3f9972b2	1.1988127

model.channel_expansion.bn.bias f4 [16]
0	0x3e4036b7	0.18770872
1	0xbd3fa2a3	-0.04678596
2	0x3f02a680	0.5103531
3	0xbc25e892	-0.01012625
4	0x3e2c008e	0.16797087
5	0x3f5314b1	0.8245345
6	0x3dbf631f	0.09345078
7	0x3c246ae7	0.010035253
8	0x3f6fdeab	0.9369914
9	0x3ecc49f5	0.39900175
10	0x3e59bfbe	0.2126455
11	0x3f875fc4	1.05761
12	0x3f07f504	0.5310824
13	0x3e1be992	0.15225819
14	0x3df310cc	0.11868438
15	0xbd52bef5	-0.051451642

model.channel_expansion.bn.running_mean f4 [16]
0	0x3fb311f0	1.3989849
1	0xbeba2185	-0.36353698
2	0x40a69253	5.205362
3	0xbefb0893	-0.4902998
4	0x3ff86ee9	1.9408847
5	0x40f7dd5d	7.745772
6	0x3f3e482b	0.7432887
7	0x3ebda818	0.37042308
8	0x411f3e2f	9.952682
9	0x404dcbfd	3.2155755
10	0x40260019	2.593756
11	0x40d70ce4	6.7203236
12	0x40978a89	4.735661
13	0x4001b0fb	2.026427
14	0x3f994554	1.1974282
15	0xbedf22c9	-0.43581226

model.channel_expansion.bn.running_var f4 [16]
0	0x4130ec7a	11.057734
1	0x40fa0d13	7.814096
2	0x418a594f	17.293608
3	0x402f517c	2.7393484
4	0x405143b3	3.269757
5	0x4223b3e4	40.925674
6	0x3f8e29f1	1.110655
7	0x3fc6e21a	1.5537751
8	0x41bf5c8d	23.92019
9	0x41315f9e	11.085844
10	0x4037d7c4	2.8725443
11	0x4208b8dc	34.180527
12	0x41aca0e0	21.578552
13	0x405a4dfd	3.41101
14	0x406747de	3.6137614
15	0x4006f7bb	2.1088703

model.fe.conv1.weight f4 [16, 1, 1, 15]
0	0x3e004859	0.12527598
1	0xbeac1a9d	-0.33614054
2	0xbedde7f4	-0.4334103
3	0xbf021dda	-0.508268
4	0xbdb517e7	-0.0884245
5	0xbe0293ce	-0.12751696
6	0xbe731ebf	-0.23742197
7	0xbefd7f16	-0.4951102
8	0xbe01e11b	-0.12683527
9	0xbea1812d	-0.31543866
10	0xbef17470	-0.47159147
11	0xbe77dd4b	-0.2420551
12	0xbeaebbeb	-0.34127745
13	0xbdaad462	-0.0834129
14	0xbf11d7aa	-0.569697
15	0xbf01b5eb	-0.5066821
16	0xbec5a382	-0.3860131
17	0xbdd8f6e9	-0.105939694
18	0x3efc4750	0.49273157
19	0x3a731b8c	0.0009273819
20	0xbecaf9d2	-0.39643723
21	0x3de18fcf	0.110137574
22	0x3f008909	0.502091
23	0x3b7dfeef	0.0038756689
24	0xbe8979be	-0.26850694
25	0xbe6a2c1d	-0.2286839
26	0x3ee91115	0.45520845
27	0xbe863fc4	-0.26220524
28	0xbea28fbd	-0.3175029
29	0xbd3c49a9	-0.045968685
30	0x3e6ef63d	0.2333612
31	0xbd9ee9ba	-0.077594236
32	0xbf17dceb	-0.5932147
33	0xbda408f2	-0.08009519
34	0x3e8cf42c	0.27530038
35	0x3e88c408	0.2671206
36	0xbf067c55	-0.52533466
37	0x3ca16eb3	0.019706106
38	0x3e8a4937	0.27008983
39	0x3dc8669e	0.09785198
40	0xbedb626f	-0.42848536
41	0xbeaa41a3	-0.33253202
42	0x3e29d513	0.16585188
43	0x3e4abde0	0.19798994
44	0xbe1def9d	-0.15423436
45	0x3f13081f	0.57434267
46	0x3ecc1b75	0.39864698
47	0x3ea2fa22	0.3183146
48	0x3eb9e34d	0.3630623
49	0x3e9f173e	0.3107242
50	0x3eb00665	0.3437988
51	0x3e94fb97	0.29098198
52	0x3ec37db3	0.38181838
53	0x3d0ce9c9	0.034402642
54	0x3e9bdb80	0.30440903
55	0x3e23bf09	0.15990843
56	0x3db58c9a	0.08864708
57	0x3e29c337	0.16578375
58	0x3ee6b953	0.45063266
59	0x3eeaec16	0.45883244
60	0x3d314373	0.043277215
61	0x3ee758b9	0.45184878
62	0x3ef2a1d8	0.47389102
63	0x3e3c5a86	0.18393907
64	0x3dfe45f6	0.12415688
65	0x3ed3538b	0.41274676
66	0x3eaf29d6	0.34211606
67	0x3df70377	0.12061208
68	0x3d0762ee	0.03305333
69	0x3e49611b	0.19665949
70	0x3eba81af	0.36427066
71	0x3e8d2597	0.2756774
72	0x3e453045	0.19256695
73	0x3e213d04	0.15745932
74	0x3d0c5429	0.03425995
75	0x3e398c64	0.18119961
76	0x3e15f8d0	0.14645696
77	0xbee72433	-0.45144805
78	0xbefef281	-0.4979439
79	0x3e6e0691	0.23244692
80	0xbe64e18c	-0.22351664
81	0xbf2e72fa	-0.6814419
82	0xbf140add	-0.57829076
83	0x3e79fea7	0.24413548
84	0xbd87d308	-0.06632048
85	0xbf09021f	-0.5351886
86	0xbf521ca6	-0.82074964
87	0xbdd1ea1f	-0.10249733
88	0x3ea670ae	0.32507843
89	0xbeff8aba	-0.49910527
90	0x3ec51fcf	0.3850083
91	0x3e36e0b8	0.17859161
92	0x3d4619b4	0.048364356
93	0x3e3c7d74	0.18407232
94	0x3e7a14b1	0.24421956
95	0x3dfe17e7	0.12406903
96	0x3e97eea1	0.29674247
97	0xbcbfacae	-0.02339777
98	0x3e7a5509	0.24446501
99	0x3e85171c	0.25994194
100	0x3e5b2b4a	0.21403232
101	0x3dd68c0b	0.1047593
102	0x3e5a4e81	0.2131901
103	0xba790bc3	-0.0009500349
104	0xbcfff144	-0.031242974
105	0xbeee01e1	-0.46485808
106	0xbefd8d19	-0.4952171
107	0xbe3d219a	-0.18469849
108	0xbd86de13	-0.06585326
109	0xbe1a93db	-0.15095465
110	0xbeac2ecd	-0.33629456
111	0xbebce95d	-0.36896792
112	0xbeb52eaa	-0.35387164
113	0xbe6e0695	-0.23244698
114	0xbecbfe0d	-0.39842263
115	0xbeb1265c	-0.34599578
116	0xbe6ae970	-0.22940612
117	0xbee36ead	-0.44420376
118	0xbedecda6	-0.43516272
119	0xbeb1239d	-0.34597483
120	0xbef9d202	-0.48793036
121	0xbe613a17	-0.21994816
122	0xbf1ad482	-0.6048051
123	0xbe7fc6f3	-0.24978237
124	0xbea43843	-0.32074174
125	0xbed2f272	-0.41200596
126	0xbf243819	-0.641481
127	0xbf466341	-0.774952
128	0xbf180762	-0.59386265
129	0xbde01748	-0.109419405
130	0xbf0eff39	-0.5585819
131	0xbf61a8ff	-0.8814849
132	0xbe6d79c3	-0.2319098
133	0xbeae8180	-0.34083176
134	0xbf20bf19	-0.6279159
135	0x3ebb53ed	0.36587468
136	0x3e1b5b4e	0.15171549
137	0xbe4d516e	-0.20050594
138	0x3eb4be9c	0.35301673
139	0x3f1be624	0.6089804
140	0x3ebe6275	0.37184492
141	0xbe669491	-0.22517611
142	0x3d218164	0.039430037
143	0x3e69abfc	0.22819513
144	0x3ecfce43	0.40587053
145	0xbd669ae2	-0.05630005
146	0x3d0d7c24	0.034542218
147	0x3eca6f41	0.39538005
148	0x3f01a014	0.50634885
149	0x3e0d539e	0.13801429
150	0xbe372ea5	-0.17888887
151	0xbe812a87	-0.25227758
152	0xbe877a08	-0.2646029
153	0xbe5b1294	-0.21393806
154	0xbeab56a7	-0.33464548
155	0x3da2a45c	0.07941505
156	0xbe70f84b	-0.23532216
157	0xbbfc1fc5	-0.007694217
158	0xbea83724	-0.3285457
159	0xbe2868eb	-0.16446273
160	0xbd3e9760	-0.04653108
161	0xbe99c870	-0.30035734
162	0xbd6c3d1d	-0.05767547
163	0xbec3d100	-0.38245392
164	0xbe2e33a4	-0.17011887
165	0xbf809f05	-1.0048529
166	0xbf5c75a2	-0.86116993
167	0x3edb64ea	0.4285043
168	0x3e1fdc05	0.15611275
169	0xbf481241	-0.78152853
170	0xbf87c40a	-1.0606701
171	0x3c58d7cb	0.013235043
172	0x3e22c255	0.15894444
173	0xbf07c4a7	-0.5303444
174	0xbf5d2c24	-0.8639548
175	0xbdb7de05	-0.08977894
176	0x3e26bb5e	0.16282412
177	0xbf204325	-0.62602454
178	0xbf3cbb96	-0.73723733
179	0x3c2cc6c7	0.010545439
180	0xbf3fbce9	-0.7489763
181	0xbead0a6a	-0.33797008
182	0xbd475d04	-0.04867269
183	0x3b7cfcb6	0.0038602776
184	0xbef3bbb9	-0.4760416
185	0xbefce1db	-0.49391064
186	0xbd569546	-0.052388452
187	0x3de1b8ba	0.11021562
188	0xbf1f0968	-0.6212373
189	0xbf057ac9	-0.5214048
190	0x3ddadb26	0.106863305
191	0x3df8ab64	0.12142065
192	0xbf1bd70b	-0.60875005
193	0xbf584fbd	-0.8449667
194	0xbe8ed2ca	-0.27895194
195	0xbdae4e98	-0.08511084
196	0xbee51adc	-0.44747055
197	0xbde7b8c4	-0.11314538
198	0xbd80216d	-0.062563755
199	0xbe9af170	-0.30262327
200	0xbe92bb6b	-0.28658614
201	0xbebfb865	-0.3744537
202	0xbe58cc3b	-0.21171658
203	0xbe82543f	-0.254549
204	0xbe071a28	-0.13193572
205	0xbd263abc	-0.040583357
206	0xbe00c938	-0.12576759
207	0xbea8cf47	-0.3297064
208	0xbe5a0dd1	-0.21294333
209	0xbdf76e3f	-0.12081575
210	0x3eab0cb9	0.33408144
211	0x3ea4e46a	0.32205516
212	0x3df64567	0.12024956
213	0x3ee10a34	0.43953097
214	0x3e514c38	0.20439231
215	0x3e184930	0.14871669
216	0xbd8501c3	-0.06494477
217	0x3d408e8d	0.047010947
218	0x3e75d500	0.24007034
219	0x3dda6a32	0.106647864
220	0xbc1beb2d	-0.0095165195
221	0x3ea56a7b	0.323078
222	0x3e6f988e	0.23398039
223	0x3e9bcc9b	0.3042954
224	0x3eb7dc77	0.3591039
225	0xbf0f3373	-0.5593788
226	0xbf1652d0	-0.5872011
227	0xbebac49b	-0.36478123
228	0xbe3e8aba	-0.18607607
229	0xbec56e09	-0.38560513
230	0xbeb0c89a	-0.34528047
231	0xbe6f97f8	-0.23397815
232	0xbd77e0e9	-0.060517225
233	0xbc912066	-0.017715644
234	0xbd97a70b	-0.07404908
235	0xbe32978e	-0.17440626
236	0xbe2f1314	-0.17097121
237	0xbe3c0f6d	-0.1836526
238	0xbeb1e658	-0.3474605
239	0xbeab1c13	-0.33419856

model.fe.conv2.weight f4 [16, 16, 1, 1]
0	0x3e75c477	0.24000727
1	0xbe8884e6	-0.26663893
2	0xbe68e7f9	-0.2274474
3	0xbed1995e	-0.40937322
4	0xbcff039f	-0.031129656
5	0xbe81548e	-0.25259823
6	0xbedbd8bf	-0.42938802
7	0x3f01623d	0.50540525
8	0x3e707680	0.23482704
9	0xbec3616e	-0.3816027
10	0xbe33f0dd	-0.17572351
11	0x3f27ede3	0.6559736
12	0xbe84e00d	-0.25952187
13	0x3e803ae0	0.25044918
14	0xbeb90769	-0.36138466
15	0x3f04b7ba	0.51842844
16	0x3ed387b1	0.41314462
17	0xbefc7740	-0.4930973
18	0x3f07b5a9	0.53011566
19	0x3eaa87c0	0.33306694
20	0xbe7075f9	-0.23482503
21	0x3f003211	0.50076395
22	0xbd7cd264	-0.06172408
23	0xbe4ab569	-0.19795765
24	0x3e6877d7	0.22701965
25	0xbedc25cc	-0.42997587
26	0x3eabc450	0.33548212
27	0x3e30bc12	0.17259243
28	0x3e766eb1	0.24065663
29	0xbe94102f	-0.28918597
30	0x3c452c18	0.012034439
31	0xbec4ff5b	-0.3847607
32	0xbe856518	-0.2605369
33	0x3f178b08	0.5919652
34	0x3e9b6bb9	0.30355623
35	0xbf2dd111	-0.67897135
36	0x3e4757b7	0.19467054
37	0x3f09314e	0.5359086
38	0xbe1dd50e	-0.15413305
39	0x3dd47899	0.10374565
40	0x3e23b000	0.15985107
41	0x3dd27f96	0.10278241
42	0xbde66ec7	-0.11251598
43	0xbd46d2e0	-0.04854095
44	0x3ec2859a	0.37992555
45	0x3ed88ec0	0.4229641
46	0xbed16ef2	-0.40904957
47	0x3f2ab9a7	0.66689533
48	0x3ef2b3de	0.47402853
49	0xbef18b6e	-0.4717669
50	0x3efae18b	0.490002
51	0x3e98ff01	0.29882053
52	0xbe9348ca	-0.2876647
53	0x3efd07dc	0.4942006
54	0x3d8443f6	0.06458275
55	0xbdf946b8	-0.12171692
56	0x3e0cbcd5	0.13743909
57	0xbeb52336	-0.35378426
58	0x3eba93ee	0.36440986
59	0x3ecff74c	0.4061836
60	0x3f10d93f	0.5658149
61	0xbda564ed	-0.08075891
62	0x3e7adc47	0.24498092
63	0xbe988e61	-0.29796126
64	0x3e328f8e	0.17437574
65	0xbdf2371a	-0.11826916
66	0xbd638e95	-0.0555559
67	0xbf0fc1bb	-0.56154984
68	0x3da86d34	0.08223954
69	0xbe6a665c	-0.2289061
70	0xbe4d61ab	-0.20056789
71	0x3da9e47b	0.08295532
72	0x3eaf6ee2	0.34264284
73	0xbeaa9c90	-0.33322573
74	0xbdbdd3fc	-0.092689484
75	0x3f1474f7	0.57990974
76	0xbea1f7ec	-0.31634462
77	0x3ecfc7a6	0.40582007
78	0xbf0c0704	-0.54698205
79	0x3edf5690	0.4362073
80	0x3d8d276c	0.06892285
81	0x3e9a368f	0.3011975
82	0x3f0ecb8e	0.5577935
83	0xbf1fc8f7	-0.62416023
84	0x3e14b2d3	0.14521341
85	0x3e3beb0a	0.18351379
86	0xbed6319c	-0.41834724
87	0x3f347cd0	0.7050295
88	0x3ec34203	0.381363
89	0x3cac9aed	0.021069968
90	0xbe402eb1	-0.18767811
91	0xbe274283	-0.16333966
92	0x3e8cfc62	0.27536303
93	0x3e83b47a	0.2572363
94	0xbef6e664	-0.4822265
95	0x3ee69782	0.45037466
96	0x3efd7829	0.49505737
97	0xbe27961f	-0.1636586
98	0x3f17269a	0.59043276
99	0x3e8854fe	0.26627344
100	0xbee09e86	-0.43870944
101	0x3f23382c	0.63757586
102	0x3dc39b8f	0.09551155
103	0xbe6d98ef	-0.23202871
104	0x3d106d77	0.035260644
105	0xbe9c1961	-0.30488113
106	0x3ee08c43	0.4385701
107	0x3ecae078	0.3962438
108	0x3e88888c	0.26666677
109	0xbdabd0e6	-0.083894536
110	0x3dc42bbd	0.09578655
111	0xbea0de00	-0.31419373
112	0x3eecbb2f	0.4623656
113	0xbf1638a0	-0.5868015
114	0x3f3f8190	0.7480707
115	0x3e9f15c6	0.310713
116	0xbe9efa7d	-0.31050482
117	0x3ea1c4ef	0.3159556
118	0x3d1a02e8	0.037600428
119	0xbebf22cd	-0.37331238
120	0x3eb09bb2	0.34493786
121	0xbf0f7079	-0.56030995
122	0x3e6747d2	0.22585991
123	0x3e698b75	0.22807105
124	0x3f0519c5	0.51992446
125	0xbb4274f0	-0.002967175
126	0x3e9b50d6	0.3033511
127	0xbe979f02	-0.296135
128	0x3ec0f73c	0.37688625
129	0xbe989059	-0.2979763
130	0x3f1eb617	0.619966
131	0x3e8d20c8	0.27564073
132	0xbef9877d	-0.48736182
133	0x3ecea37a	0.40359098
134	0xbd15c133	-0.036561202
135	0xbea851de	-0.3287496
136	0x3e880b32	0.2657104
137	0xbe709257	-0.23493324
138	0x3e553100	0.20819473
139	0x3edcd217	0.43129036
140	0x3f01969d	0.5062044
141	0xbd009db5	-0.0314004
142	0x3decb664	0.11558226
143	0xbef7fbef	-0.48434398
144	0xbe85ef8d	-0.26159325
145	0x3f698e63	0.9123289
146	0x3ebb18de	0.3654241
147	0xbf2b76ba	-0.6697804
148	0x3e8c4ddc	0.27403152
149	0x3f642294	0.8911526
150	0xbe062020	-0.13098192
151	0x3eb10c9c	0.34579933
152	0x3e8c0eb8	0.2735498
153	0xbd426fbb	-0.047469836
154	0xbe1837c6	-0.14865026
155	0xbe741524	-0.2383619
156	0x3f1a36d9	0.6023994
157	0x3e5959ff	0.21225737
158	0xbefbbc9d	-0.49167338
159	0x3edcc981	0.43122485
160	0x3d16fd66	0.036862753
161	0xbe790e88	-0.2432195
162	0xbd9914fb	-0.07474705
163	0xbe33cb14	-0.17557937
164	0x3e499b4f	0.19688152
165	0xbe6ab0bd	-0.22918983
166	0xbe8af8b1	-0.2714286
167	0x3ecc8fbe	0.39953417
168	0x3ed756a2	0.42058283
169	0xbe4a177e	-0.19735524
170	0xbd993491	-0.07480729
171	0x3ebeb00e	0.37243694
172	0xbe339307	-0.17536555
173	0x3ebdb456	0.37051648
174	0xbf067c64	-0.52533555
175	0x3f17f117	0.5935225
176	0x3f049545	0.5179027
177	0xbed9bf7b	-0.425289
178	0x3f091003	0.53540057
179	0x3eabe83d	0.3357562
180	0xbe1470da	-0.14496174
181	0x3ef70c7c	0.48251712
182	0x3dd2198c	0.10258779
183	0xbe89a183	-0.26881036
184	0x3e5b9ef1	0.2144735
185	0xbeb367e0	-0.35040188
186	0x3eab92aa	0.33510333
187	0x3e83b777	0.2572591
188	0x3eb0f1e2	0.34559542
189	0xbe2c2ecd	-0.16814728
190	0x3e487cbf	0.19578837
191	0xbe8e6581	-0.27811816
192	0x3eb8e8a0	0.3611498
193	0xbeafe592	-0.34354836
194	0x3ec6b4e5	0.38809887
195	0x3e44ce96	0.19219431
196	0xbec2b366	-0.38027495
197	0x3e79c0a8	0.24389899
198	0x3da2bd6f	0.07946288
199	0xbe87453e	-0.26420015
200	0x3e00ce8f	0.12578796
201	0xbe8fd31c	-0.2809075
202	0x3e804815	0.25054994
203	0x3e2f4c91	0.17119052
204	0x3e9c2f8e	0.3050503
205	0xbd9f34c6	-0.077737376
206	0x3e4d7db4	0.20067483
207	0xbdf1b7a4	-0.11802605
208	0x3e2173ac	0.15766782
209	0xbed461d0	-0.41480875
210	0x3eecccdd	0.46250048
211	0x3e613aa4	0.21995026
212	0xbe854207	-0.26026937
213	0x3ece91d1	0.40345624
214	0x3e565b33	0.20933227
215	0xbe2d883b	-0.16946499
216	0x3e829297	0.25502464
217	0xbe704d3d	-0.23466964
218	0x3dbeb2e5	0.09311465
219	0x3ed39de7	0.41331407
220	0x3ef8ac09	0.48568752
221	0xbe720b0f	-0.23637031
222	0x3e175658	0.14779031
223	0xbebc2582	-0.36747366
224	0xbe563746	-0.20919523
225	0x3f64d23a	0.8938328
226	0x3ed9cef4	0.42540705
227	0xbf0ac565	-0.5420745
228	0x3e5e2e94	0.21697456
229	0x3f45d1f3	0.7727348
230	0xbe04edc3	-0.12981324
231	0x3ee1ac47	0.4407675
232	0x3ed501a2	0.41602808
233	0x3e4777ca	0.1947929
234	0xbea51053	-0.32239017
235	0xbe0e4d9e	-0.13896796
236	0x3eefead7	0.46858856
237	0x3e0a7556	0.13521323
238	0xbe95b2a7	-0.29237863
239	0x3efa9299	0.4893997
240	0xbc07ed75	-0.00829636
241	0x3f6fe693	0.93711203
242	0x3ecda7e7	0.40167162
243	0xbe8331c1	-0.25623897
244	0x3e4294aa	0.19002023
245	0x3f38c74b	0.72179097
246	0xbe1d5b86	-0.15366945
247	0x3e9525fe	0.29130548
248	0x3da15574	0.07877627
249	0x3e870499	0.26370695
250	0xbe705c20	-0.23472643
251	0x3d34cea7	0.04414239
252	0x3f08bb39	0.5341068
253	0x3e9415e9	0.28922966
254	0xbf194aa2	-0.59879506
255	0x3f41553a	0.7552067

model.fe.bn.weight f4 [16]
0	0x3f995285	1.1978308
1	0x3f9ac06c	1.2089972
2	0x3f96cfb5	1.1782137
3	0x3f8b7609	1.0895396
4	0x3f91d3f5	1.1392809
5	0x3f94232c	1.1573234
6	0x3f959238	1.1685247
7	0x3fa1d152	1.2642004
8	0x3f8cd2b8	1.1001806
9	0x3f9dc2f4	1.232512
10	0x3f8ea428	1.1143847
11	0x3f923127	1.142125
12	0x3f93b6c5	1.1540152
13	0x3f929ab8	1.1453466
14	0x3f95a360	1.1690483
15	0x3f90c443	1.1309894

model.fe.bn.bias f4 [16]
0	0xbe82e2cf	-0.25563666
1	0xbe7a49e6	-0.24442253
2	0xbe6bf191	-0.23041369
3	0xbe4f11a9	-0.2022158
4	0xbe640314	-0.22266799
5	0xbe49682b	-0.19668643
6	0xbe5e7b51	-0.21726729
7	0xbe8398bd	-0.25702468
8	0xbe42fd6f	-0.1904199
9	0xbe8b130d	-0.27162972
10	0xbe413cfc	-0.1887092
11	0xbe5ff105	-0.21869285
12	0xbe4e5ffd	-0.20153804
13	0xbe616c39	-0.2201394
14	0xbe731395	-0.23737939
15	0xbe65dbc6	-0.22447118

model.fe.bn.running_mean f4 [16]
0	0xc0d6c884	-6.711977
1	0xc0c06d8b	-6.013372
2	0xc09bf4d8	-4.873638
3	0xc1003f61	-8.015473
4	0xc0d328ae	-6.598716
5	0xc0ab4f99	-5.3534665
6	0xc0e40114	-7.1251316
7	0xc0f5ac9d	-7.677321
8	0xc1051451	-8.31746
9	0xc0cb134a	-6.3461046
10	0xc0b5d6fc	-5.682493
11	0xc0d16186	-6.5431547
12	0xc0956740	-4.6688538
13	0xc0e41a5e	-7.1282187
14	0xc0cf7fd1	-6.4843526
15	0xc0c0aab0	-6.020836

model.fe.bn.running_var f4 [16]
0	0x41cd2380	25.642334
1	0x41973737	18.90196
2	0x4184bfc4	16.593636
3	0x41ced2f6	25.853008
4	0x419790ee	18.945766
5	0x41652d08	14.323494
6	0x41c374bc	24.432
7	0x41ceaba2	25.833805
8	0x41cd6fdc	25.679619
9	0x420e7eb2	35.623726
10	0x412b1582	10.692751
11	0x41a1b942	20.215458
12	0x4128b177	10.543326
13	0x419f9da2	19.95197
14	0x41ed0a22	29.629948
15	0x41c14998	24.160934

model.classifier.weight f4 [1, 16]
0	0xbeedf8e6	-0.46478957
1	0x3ea6e4fb	0.32596573
2	0xbeb9e743	-0.3630925
3	0x3e8a1b8d	0.26974145
4	0xbef19016	-0.4718024
5	0xbe9aa895	-0.30206743
6	0x3e85ab34	0.2610718
7	0x3ea41db7	0.3205392
8	0x3e908665	0.28227535
9	0xbed02ec5	-0.40660682
10	0xbec826b8	-0.3909204
11	0x3ea80e15	0.32823244
12	0x3e969b25	0.2941524
13	0x3ea53fec	0.3227533
14	0xbede0b27	-0.43367884
15	0xbeb31e53	-0.34984073
