ckpts/finetuning/subject_01-session_04.ckpt (torch, 63949 bytes, 50 tensors)

model.input_block.temp_cov.weight f4 [40, 1, 1, 25]
000000 c3 28 c2 3e b6 4d a2 3d 2e d0 c3 be 9b 54 cf be
       0.37921724 0.079249784 -0.38244766 -0.40494236
000010 00 39 aa be c4 ef a8 bd 7c 78 05 3e 59 f2 b8 3e
       -0.33246613 -0.08248857 0.13034242 0.36122397
000020 b2 ac 40 3e 43 68 44 3e 95 ba 0c be c6 6c 6e be
       0.18815878 0.19180398 -0.1374305 -0.23283681
000030 38 76 d4 be 72 5a bb be b8 c6 98 be 94 67 3d bd
       -0.41496444 -0.36592442 -0.2983911 -0.046241358
000040 97 2f 9f 3e d1 8a db 3e 85 cf 46 3e 8f e6 61 3e
       0.31090996 0.42879346 0.194151 0.22060607
000050 9a 74 90 3e f3 cf 3c 3e 11 b1 2d be e8 0b 95 bd
       0.2821396 0.18438701 -0.16962077 -0.072776616
000060 72 fa 94 be 85 0c f5 be 4a 0a 06 3e 6f c5 57 3e
       -0.29097325 -0.47861114 0.13089862 0.21071409
000070 ff 21 d9 3e b4 28 fd 3e a0 7f c2 3e 4d bb a4 3e
       0.4240875 0.49445117 0.37987995 0.3217415
000080 df d8 c8 be 35 57 d3 be 42 c1 e5 be 95 e0 e0 be
       -0.3922796 -0.4127747 -0.44874007 -0.43921342
000090 f3 9d 7f bd 96 71 18 3f 69 4f 02 3f ab 43 03 3f
       -0.06240649 0.5954832 0.5090242 0.5127513
0000a0 8d 67 d6 3e 1e e0 2b bd 52 ac 83 be ac a2 0a bf
       0.41875878 -0.04196178 -0.25717407 -0.5415447
0000b0 02 c2 04 bf a7 9c d8 be f2 0d 8e 3e bd c3 06 3f
       -0.5185853 -0.42307016 0.27745014 0.5264242
0000c0 4d 5e c6 3e 0b ef f2 3e 74 7b 08 3f f0 b7 1a 3f
       0.3874382 0.47448 0.53313375 0.60436916
0000d0 e4 5e f3 3e ee e2 ce 3e f0 68 d6 3e 8a d9 60 be
       0.47533333 0.4040751 0.41876936 -0.21957985
0000e0 78 3e 65 be 5b cc e4 be 97 4c d8 be d0 a2 b0 be
       -0.22387111 -0.4468716 -0.42245933 -0.34499216
0000f0 69 6d 7c bd 0d 8c dd 3c 4b 88 ed bd 51 50 36 3d
       -0.06162778 0.02704432 -0.115982614 0.04451019
000100 95 ac fa b8 be 26 70 be 99 a9 81 be 7a b0 2a be
       -0.00011953075 -0.23452279 -0.25324705 -0.16668883
000110 cf 9c 0b 3e 58 49 e1 3e 10 66 79 3e 7b 9e d2 3e
       0.13634036 0.4400127 0.2435534 0.41136536
000120 a1 0b 19 3f 6f 05 28 3f 71 16 06 3f 36 5e 90 bd
       0.5978337 0.6563329 0.5237799 -0.07049219
000130 ff 5b 86 be ac a4 e1 be ce b5 5a be 8f 73 a3 be
       -0.26242062 -0.44070947 -0.21358415 -0.31924102
000140 0f 15 94 be 33 a8 84 3e 28 3c 9e 3e a6 16 20 bd
       -0.28922316 0.25909576 0.3090527 -0.0390841
000150 b3 9a 20 3e d1 33 90 bd b2 9a 33 be c8 9c 80 be
       0.15684013 -0.07041133 -0.1753948 -0.25119615
000160 16 3a 96 bd 2e 48 2e be e4 d9 11 3e 67 7b 5e 3e
       -0.07335298 -0.17019722 0.14243275 0.21726762
000170 2f 00 88 3e a6 78 21 3e 6e 2e 70 be 5f 4f 92 be
       0.2656264 0.1576868 -0.23455212 -0.2857618
000180 c8 80 12 be e0 38 5d be 52 32 d0 be d0 dd aa be
       -0.14306939 -0.21603727 -0.4066339 -0.33372355
000190 ef 9f a4 3e ea 29 55 3d 6f f1 b9 be da c1 bf be
       0.3215327 0.052041925 -0.36317012 -0.37452585
0001a0 7d 2b f2 be a1 80 78 be bc b3 b2 be 86 5c 98 be
       -0.47298804 -0.24267818 -0.3490275 -0.2975809
0001b0 34 57 40 bd 9f 87 fc 3d 1b ad 6d 3d 27 d8 6d 3e
       -0.046958163 0.12330555 0.058026414 0.23226987
0001c0 95 99 36 bd ea 22 65 3e 39 2b 22 3e 9a 47 06 be
       -0.04458006 0.223766 0.158368 -0.13113251
0001d0 1a 6e 0f 3d 56 3e 1e 3e a1 94 6a 3e 8c 12 96 3e
       0.03501711 0.15453467 0.2290826 0.29311025
0001e0 98 2f 81 3e 54 fa a8 bc 20 f7 aa be bc 57 8e be
       0.25231624 -0.020627178 -0.33391666 -0.2780131
0001f0 59 a2 2f bf ee 9b 89 be 8c 4e ba be 3e 0d ec be
       -0.686071 -0.26876777 -0.36388052 -0.46103853
000200 0d 0a dd be 64 db fd be 95 51 9d be 2e 8c 6d bd
       -0.4317173 -0.49581444 -0.30726305 -0.057995014
000210 af 15 f5 3c 69 97 9d 3e fd 46 dd 3e cd de 1e 3e
       0.029917566 0.3077958 0.43218222 0.15514679
000220 8e 65 7d 3d 40 e3 45 bd b1 84 a5 bc 13 6b bc 3d
       0.06186443 -0.048312426 -0.020204874 0.0920011
000230 c7 7e 5a 3e 93 7a 61 3e 4f 82 b2 3e 9f 8c 3d 3e
       0.21337424 0.22019415 0.34865043 0.18510674
000240 4d 48 c2 bd 1d e5 7f be a0 21 05 be 36 5f b0 be
       -0.094864465 -0.24989744 -0.13001108 -0.3444764
000250 db 9f 01 bf 3d 19 1a bf a2 7e a4 3d af 3d 8a 3e
       -0.50634545 -0.6019476 0.08031966 0.27000186
000260 a9 bb f4 3e ba 34 1f 3f 1f 37 15 3f 41 f7 7d 3e
       0.47799423 0.6218983 0.58287233 0.24801351
000270 9e 99 0a 3f 93 fd 59 3e 1f 4f 2f 3e d4 73 c8 bd
       0.5414065 0.21288137 0.17120026 -0.097877175
000280 a5 50 46 be 2b 09 8b be a8 9d ee be 15 66 ff be
       -0.19366701 -0.27155432 -0.46604657 -0.4988257
000290 19 6f c5 be 8c 29 bf be cc 53 f7 be 9f 9a 96 be
       -0.38561323 -0.37336385 -0.4830612 -0.29414842
0002a0 be d3 e6 be 7d 94 15 bd f9 9d ad 3e 45 9a 40 3e
       -0.4508342 -0.036518563 0.33909586 0.18808849
0002b0 53 cd 09 3f c6 60 05 3f ba f7 b4 3e c7 89 8c 3e
       0.53828925 0.5210079 0.3534525 0.27448866
0002c0 63 88 8a 3d f6 fb 52 bd a1 2b 1c 3e 38 d4 61 be
       0.06764295 -0.05150982 0.15251018 -0.22053611
0002d0 34 20 9a bd 2d 06 de bd ca a3 ba 3d 74 cb 1b 3c
       -0.075256735 -0.10841022 0.091132715 0.009508956
0002e0 62 ab 63 3d fb 98 25 3d 24 d2 9d bd c6 9e 99 bd
       0.055583365 0.040429097 -0.07706097 -0.07500987
0002f0 d6 e4 3f be c2 78 b7 3d 5a 61 1b 3e 45 28 1b 3e
       -0.18739638 0.089585796 0.15173855 0.1515208
000300 39 fb 06 be 12 1a 10 bd 79 ed 3e be 6f 10 0d be
       -0.13181771 -0.035181113 -0.18645276 -0.137758
000310 d8 98 01 be e3 41 85 3d fa 25 0b be 9a 87 e8 bc
       -0.12655962 0.065067075 -0.13588706 -0.028384972
000320 c1 3d 4a 3f 0f 09 23 3f e2 94 0e be fc a0 f8 be
       0.7900048 0.636857 -0.13923982 -0.4856032
000330 ba f5 0b bf 23 41 91 be 73 d1 b5 be bb 03 95 3e
       -0.54671824 -0.28370008 -0.3551136 0.2910441
000340 ee 52 c5 3e 85 3a b3 3e 8c 30 9d 3e b7 55 41 3e
       0.38539833 0.35005584 0.307011 0.18880354
000350 51 7e 21 be 48 09 bb be 9e 58 ad be cd 48 a0 be
       -0.15770842 -0.3653052 -0.33856672 -0.31305543
000360 b8 de ed be a3 83 9d bd 26 9a f4 3e 61 f7 57 3e
       -0.46458983 -0.07691123 0.47773856 0.21090461
000370 57 72 ac 3e 2a 2b c9 3e 1f c6 c1 bd 58 23 0c bf
       0.33680984 0.39290744 -0.09461617 -0.5474143
000380 a5 33 69 bf 5b 6e 8c be d0 ab 1c bf 56 d8 07 bf
       -0.9109443 -0.27427945 -0.61199665 -0.5306448
000390 e9 bf 02 bf e8 82 d6 be b2 de 59 be 5c bc b3 3e
       -0.5107408 -0.4189675 -0.21276358 0.35104644
0003a0 08 53 ad 3e 9d d0 e0 3e 8f ce 73 3e de fb 65 be
       0.3385241 0.4390916 0.23809265 -0.22459361
0003b0 ba 74 24 be 60 f0 d8 be 50 4b 90 be bc 55 40 3d
       -0.16060153 -0.42370892 -0.2818246 0.046956763
0003c0 46 c7 50 3e 90 a0 b6 3e 1b 3b 1f 3e 82 b4 16 3e
       0.20388517 0.35669374 0.1554989 0.14717296
0003d0 ca 80 9b bd 52 a1 22 bf 17 21 ae be 7c 54 27 bf
       -0.07592924 -0.63527405 -0.3400962 -0.6536329
0003e0 44 1c e8 be f0 6c c8 be fe b9 1a bf 84 6f 1d bf
       -0.45334065 -0.39145613 -0.6044005 -0.61498284
0003f0 9b ff 05 bf a4 93 36 bf 76 cd 2a bf 32 ea e9 be
       -0.5234315 -0.7131903 -0.6671976 -0.4568649

model.input_block.bn1.weight f4 [40]
000000 ce fc a7 3f 0c 13 bc 3f b0 cb ba 3f 70 75 a0 3f
       1.3124025 1.4693313 1.459341 1.2535839
000010 34 39 a6 3f 35 bc a8 3f e7 b7 bc 3f ab 2f 83 3f
       1.2986207 1.3182436 1.4743623 1.0248922
000020 3d 32 c4 3f cc 82 ba 3f 8e 04 d4 3f bf d3 dd 3f
       1.5327832 1.4571166 1.656389 1.7330245
000030 19 ea 9e 3f b8 99 58 3f 19 bc 8c 3f 97 a3 c0 3f
       1.2415191 0.84609556 1.0994903 1.5049924
000040 6e 22 95 3f 1f 08 9e 3f a1 06 b2 3f 27 bd a4 3f
       1.1651132 1.2346228 1.3908273 1.2870225
000050 a7 57 b0 3f 51 b9 b2 3f 48 72 b3 3f dd 9e 81 3f
       1.3776749 1.3962804 1.4019251 1.0126606
000060 8b 4d a1 3f 8c e5 9f 3f 43 c6 ae 3f 0b 9c a7 3f
       1.2601789 1.2491927 1.3654255 1.3094496
000070 5e d6 a7 3f b6 05 c4 3f 64 32 aa 3f 49 f8 b4 3f
       1.3112295 1.5314243 1.3296628 1.4138271
000080 e3 8e 18 3c ff 2d b5 3f 22 d0 7f 3f 2c 73 97 3f
       0.009311411 1.4154662 0.9992696 1.1832023
000090 3a 4e b5 3f 44 86 a5 3f a6 89 a1 3f 2c a7 b3 3f
       1.4164498 1.29316 1.2620132 1.4035392

model.input_block.bn1.bias f4 [40]
000000 d8 60 86 be 25 fd 31 bd 59 95 00 3d ef 04 51 bb
       -0.2624576 -0.043454308 0.03139243 -0.003189381
000010 47 b2 99 3d 01 f1 0a 3e 5e 6a a1 be f3 a1 b2 bf
       0.07504707 0.13568498 -0.31526464 -1.3955673
000020 b0 04 93 bd 0a 2b 78 bd f4 2d b3 3d 62 9c 96 3e
       -0.071786284 -0.06058792 0.08748999 0.29416186
000030 ca 56 8f 3e 10 a2 0a c0 b2 5b b3 3f f2 7a 27 be
       0.27995902 -2.1661415 1.4012358 -0.16355494
000040 96 41 aa 3f bf e8 30 bf f2 04 cb bc 24 b9 d7 3c
       1.3301265 -0.6910514 -0.024782632 0.0263334
000050 4e 11 db bb d9 0d 03 3c ff 22 39 3d d9 c9 e8 bf
       -0.0066854125 0.007998907 0.04519939 -1.8186599
000060 ab 70 02 3b e2 86 bd 3d c1 81 be 3d 69 44 9a bd
       0.001990358 0.092542425 0.09302092 -0.075325795
000070 6c f6 05 be 2b 79 c9 3e 02 b3 83 bd 0e 98 fb bd
       -0.13082284 0.39350256 -0.064306274 -0.122848615
000080 b1 78 2e 40 e1 be e5 3e 93 73 c7 bf bc c3 31 be
       2.7261164 0.44872192 -1.5582145 -0.17359823
000090 ad b2 91 3d b0 6a d2 3c aa e9 89 3d 7a 3c aa be
       0.07114158 0.025685638 0.06734021 -0.33249265

model.input_block.bn1.running_mean f4 [40]
000000 c1 80 04 36 9e d4 80 b6 58 5b e2 36 5a fe 38 b6
       1.9744477e-06 -3.839449e-06 6.7459587e-06 -2.7566189e-06
000010 f1 64 ad b5 df b1 c1 b6 9d 1d 31 37 3f ae a4 b4
       -1.2918882e-06 -5.772555e-06 1.0556917e-05 -3.067416e-07
000020 24 42 e6 36 6c d1 bb b6 a9 46 3a b7 69 c3 07 b7
       6.862234e-06 -5.597414e-06 -1.1102916e-05 -8.0921245e-06
000030 d7 91 26 b6 c5 0f d7 34 58 1d 54 35 a2 b9 11 37
       -2.4820818e-06 4.0058345e-07 7.9018855e-07 8.6858945e-06
000040 2e d6 9c 35 77 b9 6f 36 b4 16 cd 35 da 92 f8 b4
       1.168524e-06 3.572173e-06 1.5280298e-06 -4.6300448e-07
000050 0b 50 a3 36 03 f7 14 37 e1 5f 66 b6 92 68 27 b5
       4.867097e-06 8.878999e-06 -3.432848e-06 -6.236452e-07
000060 03 5f 9f b6 61 31 61 b6 60 c9 0f b6 27 70 da b5
       -4.74963e-06 -3.3556355e-06 -2.1425876e-06 -1.6274906e-06
000070 c0 a8 50 b3 2a bf 4a 37 66 26 00 b6 b4 db 06 b7
       -4.858225e-08 1.2084647e-05 -1.9095837e-06 -8.038176e-06
000080 d9 5c f5 b4 9a b4 46 b6 56 31 87 b3 f5 cd 07 36
       -4.5702362e-07 -2.9609423e-06 -6.2954015e-08 2.023645e-06
000090 f2 2e e1 35 ee fb 0d 36 a9 ad af b6 f6 2d 5e 36
       1.6777469e-06 2.115728e-06 -5.235623e-06 3.310733e-06

model.input_block.bn1.running_var f4 [40]
000000 eb b7 c7 3c 4d 65 73 3d db 3a 84 3d e4 15 98 3c
       0.024379691 0.05942278 0.06456538 0.018565126
000010 8a eb e3 3c a5 3f 35 3d 92 4d a2 3d 9e a6 dd 3a
       0.027822275 0.04425015 0.079249516 0.0016910618
000020 f2 ce 46 3d a3 23 67 3d 76 78 dc 3d a6 54 59 3d
       0.048537202 0.05643047 0.107651636 0.053059243
000030 13 e4 24 3c f2 3d b0 39 e7 59 34 3c 84 34 aa 3d
       0.010064143 0.0003361549 0.0110077625 0.08310798
000040 23 9b e2 3b b4 ea 63 3c 27 a8 3f 3d 59 f7 a9 3c
       0.0069154664 0.013910938 0.046791222 0.020747827
000050 28 de 03 3d 00 60 82 3d ae d2 20 3d 76 ae f2 38
       0.032194287 0.06365967 0.03926342 0.00011571955
000060 32 1e fa 3c 8f 41 8e 3c a4 20 ca 3c b5 7b 99 3c
       0.030531976 0.017365245 0.024673767 0.018735746
000070 90 b7 04 3d 83 05 b3 3d 17 1e ad 3c 56 d7 64 3d
       0.03240162 0.08741286 0.021132512 0.055869423
000080 4e b6 b2 38 0b 14 20 3d cf 96 b4 3a fb c4 2b 3c
       8.521658e-05 0.039081614 0.0013777855 0.0104839755
000090 98 a6 50 3d 73 7b af 3c 9e ea da 3c 4c 77 42 3d
       0.050940126 0.02142117 0.026723202 0.04747705

model.input_block.spat_conv.weight f4 [40, 1, 24, 1]
000000 b0 e3 52 be b3 fc 36 be 41 cc 60 bc 8a b5 a6 bd
       -0.20594668 -0.17869835 -0.013720573 -0.081400946
000010 6d dd b0 bc 92 5e 75 3e 95 73 da be 8f be 8f be
       -0.021589959 0.23961857 -0.42666307 -0.28075072
000020 5d 51 4f bd b1 12 10 bd 6c 5f 62 bc e4 b7 f4 3d
       -0.050614703 -0.035174076 -0.013816696 0.11949137
000030 e7 da 98 bd e7 6e e9 be 99 6e 31 bf 35 6d 14 3b
       -0.07463627 -0.45592424 -0.69309384 0.00226481
000040 31 b7 df bd 27 c2 20 be d4 5a 96 be ce 55 26 bd
       -0.10923613 -0.15699063 -0.2936617 -0.040609173
000050 3e ee eb 3d 64 f1 8a be 15 99 d2 be fc a5 5b 3d
       0.115200505 -0.2713729 -0.41132417 0.053625092
000060 01 17 08 3e fd 40 9d 3d 02 2a bf 3d 87 b2 6c 3d
       0.13290025 0.07678411 0.09334184 0.057787444
000070 ae 00 90 3e 5b 10 3e 3e 4d 0c 1c 3d 69 ac d0 3e
       0.2812552 0.18560927 0.03809767 0.4075654
000080 56 2d 8b 3d b8 ec b7 3d ad 7f 82 bd 68 1c ec 3d
       0.067957565 0.089806974 -0.063720085 0.115288556
000090 ab de fb 3b fe 28 2c bf b7 6d 5d bf 51 ad 30 3e
       0.007686456 -0.6725005 -0.86495537 0.17253615
0000a0 7f 11 cb 3d 9a c4 6d 3e 30 5a 16 bc ad 87 a3 3c
       0.099154465 0.23219529 -0.009176776 0.019962156
0000b0 1a d6 af 3c f0 15 9f 3d 19 7d 5f 3e 01 d0 6e 3e
       0.021464396 0.07767856 0.21825065 0.23321535
0000c0 a0 5d 36 3e 0b 4c 59 3e ba f6 71 bd 3c 02 b0 bd
       0.17809153 0.21220414 -0.059073187 -0.08594176
0000d0 be 0e 26 3d cc 89 c4 3d 8b e0 cf 3d 01 c4 68 bc
       0.040541403 0.09596595 0.1015025 -0.014206887
0000e0 1d eb 44 3e 7a c6 44 be 9a 1f b7 be 32 e4 83 3c
       0.19230314 -0.19216338 -0.35766298 0.016100023
0000f0 43 c5 1c 3b e8 6d 1c 3f 1b bd 5e 3f 33 df 37 3c
       0.0023921288 0.61105204 0.870073 0.011222648
000100 96 67 da bd e5 a8 d3 be 58 86 dd be 76 0e b5 be
       -0.10664289 -0.41339794 -0.4326656 -0.35362595
000110 b6 d3 00 3d 94 f0 43 3e ec 9a f0 3d 97 95 79 3d
       0.031451903 0.19134742 0.11748299 0.060933676
000120 70 7d 56 3d 88 57 78 3d 99 fd bf 3e 17 e9 a0 3c
       0.05236572 0.06063035 0.37498167 0.019642396
000130 2d 81 5a bd b9 99 95 bd a0 70 31 bb ae 1d 1c 3e
       -0.053345848 -0.07304711 -0.0027075186 0.15245697
000140 25 2c 4b 3e 67 19 ae be d8 50 11 bf f9 78 e9 3d
       0.19841059 -0.34003755 -0.5676398 0.11400027
000150 4d 1e d8 3d 49 c9 6c bd c6 1f 91 bc 14 f5 89 3d
       0.105526544 -0.057809148 -0.017715346 0.06736198
000160 45 9e 9c 3d ce 81 68 be 92 dc 05 bf 02 71 8c 3e
       0.07647375 -0.22705767 -0.5228969 0.27429968
000170 c8 8f 20 be 5b 37 5b 3d f0 9d 84 bd 6e dd 24 be
       -0.15679848 0.053519588 -0.06475437 -0.16100094
000180 1c 49 46 3e e7 7d a5 3d d8 ca 8a 3e 51 a7 a5 3e
       0.19363827 0.080806546 0.27107882 0.32354215
000190 42 06 10 3e 90 88 fe bd 28 3e 28 be 78 94 e8 bb
       0.14064887 -0.12428391 -0.1642996 -0.007097777
0001a0 2a 2c b0 bc e1 d5 f9 bd f7 b9 4f bf 8f 59 f1 bc
       -0.021505434 -0.12198997 -0.81143135 -0.02946165
0001b0 ab 63 25 3e ec e8 cf bd 84 30 39 bc a2 1e 1f bd
       0.16151302 -0.10151848 -0.011303071 -0.038847573
0001c0 78 fd b0 3d ad 12 ea 3d f3 e2 ff be 14 4d 28 be
       0.08642095 0.114293434 -0.49977836 -0.16435653
0001d0 bf d9 86 3d 80 a0 4d be e8 c1 00 3e c8 35 89 bd
       0.065845005 -0.20080757 0.1257397 -0.06699711
0001e0 bb f3 5e be 59 ac 3b be 7e d6 4c bd 26 4a d1 bd
       -0.21772663 -0.18327464 -0.050009243 -0.10219221
0001f0 87 b5 5c 3d 6b 71 b1 3e 73 ce 63 3d 20 76 a1 bd
       0.053884055 0.34656844 0.055616807 -0.07883859
000200 a8 f5 66 3d 81 ab 0b be 7a d9 32 3e 48 3e 99 bd
       0.05638662 -0.13639642 0.17465773 -0.07482582
000210 ed 5f 46 3c bf db 8a 3e ba 3a 50 bf 29 a2 2f be
       0.012107831 0.27120778 -0.8133961 -0.17151703
000220 c7 9a e6 3d c3 77 f8 3c 49 ba b7 3e e4 7e a2 bc
       0.1125999 0.030330544 0.35884312 -0.019835897
000230 e2 fa f6 bd 3e 30 ef bd 21 e3 28 bf 84 ad 2d 3d
       -0.12059571 -0.11679123 -0.6597157 0.042401806
000240 8c 68 d7 3c 8c 5e 01 be 8f 5d 87 be 00 e1 0b bf
       0.026294969 -0.12633723 -0.26438567 -0.546402
000250 bd 9b 81 bd 5d 61 66 3e e4 51 83 3e a5 95 a9 be
       -0.06328533 0.22498079 0.25648415 -0.33121982
000260 00 60 8c be 10 f2 07 3e 0c 06 9a bb 2b 60 13 bf
       -0.27416992 0.13275933 -0.004700428 -0.57568616
000270 14 85 af bd 5f 85 d2 3e a9 a3 36 bf 69 66 34 be
       -0.085703045 0.4111738 -0.71343476 -0.17617191
000280 41 91 90 be 31 b4 90 bd 70 d4 91 3e 73 db cb 3d
       -0.2823582 -0.07065619 0.2848239 0.09953966
000290 61 24 94 bd d5 59 b6 be 43 16 1b bf 93 07 21 be
       -0.07233501 -0.3561541 -0.60580844 -0.15725546
0002a0 1f 93 76 bf d0 fd 82 bf 52 4c 8d bf 33 3a 45 bf
       -0.9631824 -1.0233707 -1.1038916 -0.7704193
0002b0 30 06 84 bf 42 f6 85 bf 62 70 75 bf 03 25 75 bf
       -1.0314388 -1.0465777 -0.9587461 -0.957596
0002c0 fc c4 54 bf f9 ec 8b bf c2 bb af bf 5c f6 92 bf
       -0.83113074 -1.0931693 -1.3729174 -1.1481433
0002d0 a6 e1 64 bf 5b ae 8b bf 6b bc 2a bf bc 3c 77 bf
       -0.8940681 -1.0912584 -0.66693753 -0.9657705
0002e0 43 7f 94 bf cb b7 73 bf cc 18 9d bf fe 44 46 bf
       -1.1601337 -0.9520232 -1.2273192 -0.77449024
0002f0 c9 9c 14 bf ac 27 8f bf c5 3e 50 bf a8 21 80 bf
       -0.58051735 -1.1183982 -0.8134578 -1.0010271
000300 88 05 d6 3d 5c 30 d1 3d fe 72 1c 3e 30 a2 87 3d
       0.10450274 0.10214302 0.15278241 0.06622732
000310 dc e5 be 3e e6 0a e5 3e c5 58 35 bd 91 57 bd 3e
       0.37284744 0.44734877 -0.04427411 0.3698087
000320 46 6d 08 3e 65 ae 19 3e a5 84 09 3e 3f 06 db 3d
       0.13322935 0.15007932 0.13429506 0.10694551
000330 21 93 10 3e 7a 49 c6 be 52 9e 8c bf 69 f0 11 3d
       0.14118625 -0.38727933 -1.0985816 0.035629664
000340 83 ea d3 bc af 7b 50 3c a6 60 20 3d 20 cf 19 3d
       -0.02586866 0.012724801 0.03915467 0.037551045
000350 18 42 cf bc d5 27 40 bd e0 ce fc be 2f 29 83 3e
       -0.02530007 -0.046912987 -0.49376583 0.25617358
000360 e3 8b 64 3d 33 e4 e9 bc 4f 88 4d bb 18 99 84 bd
       0.05579747 -0.028551197 -0.0031361764 -0.06474513
000370 0e 37 54 be 50 e7 07 bf 25 3a 03 bd ff 56 e8 3d
       -0.20724127 -0.5308733 -0.032037873 0.11344718
000380 8b 14 bd 3d d1 eb 37 3e a7 15 4e 3e 66 cc b2 bc
       0.09232434 0.1796105 0.20125447 -0.02182598
000390 31 20 dd bd 6b 62 07 bf 40 02 51 3f ec 5e 7e 3e
       -0.10797156 -0.5288455 0.8164406 0.24840897
0003a0 a5 05 25 3d 54 46 04 3e dd 0a 0d 3e fd 81 79 3d
       0.040288586 0.12917453 0.13773675 0.060914982
0003b0 86 90 17 3d 5e ee d0 3d e5 01 20 3f 1d 7e e6 bd
       0.037003063 0.10201715 0.6250289 -0.11254523
0003c0 0e bd 72 be 7b f4 d2 bd a3 45 7d bd fe 72 9e bd
       -0.23704931 -0.10300537 -0.06183399 -0.07736777
0003d0 85 24 c3 be d5 5a 26 bf 38 14 87 be 4a 3a c0 bd
       -0.381138 -0.6498235 -0.26382613 -0.09386118
0003e0 bd 0a a5 3c 18 4e 2b 3e e1 49 3a 3f 69 f0 0c be
       0.020146722 0.16729009 0.7276898 -0.13763584
0003f0 c9 a6 71 be a4 4e cc be fc 03 57 3f 73 9f 71 3e
       -0.2359878 -0.39903748 0.83990455 0.23595981

model.input_block.bn2.weight f4 [40]
000000 64 5f a7 3f 08 0b bc 3f 2e ae ba 3f 24 63 a0 3f
       1.3075986 1.4690866 1.4584405 1.2530255
000010 fa 37 a6 3f 2e c0 a8 3f f2 82 bc 3f dc 02 8c 3f
       1.2985833 1.3183649 1.4727461 1.0938373
000020 5e 6b c4 3f 93 8d ba 3f 78 cb d3 3f 2a 96 dd 3f
       1.5345266 1.4574455 1.6546469 1.7311451
000030 88 86 9e 3f 87 ff 80 3f f8 e1 96 3f b5 89 c0 3f
       1.2384806 1.0077981 1.178771 1.5042025
000040 c8 9f 99 3f 3d 81 9e 3f 51 3c b2 3f a0 b1 a4 3f
       1.2001886 1.238319 1.3924657 1.2866707
000050 cf 4a b0 3f e2 bf b2 3f 69 67 b3 3f 8a 8c 9b 3f
       1.377283 1.3964808 1.4015933 1.2152264
000060 3f 3c a1 3f 28 ed 9f 3f 64 da ae 3f 68 a1 a7 3f
       1.2596511 1.2494249 1.3660398 1.3096132
000070 91 04 a8 3f 1f 35 c3 3f 61 52 aa 3f 26 cd b4 3f
       1.3126394 1.5250586 1.330639 1.4125106
000080 0a 77 eb 3f 9e 67 b5 3f 6a 70 89 3f ac f9 96 3f
       1.8395703 1.4172246 1.0737431 1.1794944
000090 22 55 b5 3f 67 8d a5 3f 07 a6 a1 3f 63 1f b3 3f
       1.4166605 1.2933778 1.2628793 1.3993953

model.input_block.bn2.bias f4 [40]
000000 5f b5 6c 3e 07 a3 f2 bc cd 31 14 3d b3 62 d0 3b
       0.23116063 -0.029618753 0.036180306 0.006359422
000010 51 57 a6 bd ec f3 2b be f0 28 93 3e 4e cc 81 3f
       -0.08122123 -0.16792268 0.2874217 1.0140474
000020 86 e0 21 be 23 0e 81 bd 54 b3 fd 3d 89 12 b9 3e
       -0.15808305 -0.063015245 0.1238772 0.36146954
000030 72 1f 7e 3e 5c e8 e7 3f 4c 37 8b 3f c9 86 3c 3e
       0.24816683 1.8117785 1.087625 0.18410791
000040 d1 6d 83 3f 39 e5 12 3f 17 30 4d 3d 88 de ab bc
       1.0267888 0.57381016 0.05009469 -0.020980135
000050 f4 e8 52 bc 07 b2 86 bc 63 ef 00 3e 90 b1 d9 3f
       -0.012872923 -0.016442312 0.12591319 1.7007313
000060 c1 2c 19 be cd 5d c9 bd 33 45 b3 bc c7 e7 dd bd
       -0.14958479 -0.09832344 -0.021883583 -0.10835224
000070 7a 50 01 be a1 3d aa 3e c2 76 ca bd 7a 1c 39 3e
       -0.12628356 0.33250144 -0.098859325 0.18077269
000080 e1 83 94 bf 24 5e c8 3e e6 8e 8c 3f e5 f3 44 be
       -1.1602746 0.39134324 1.0981109 -0.19233663
000090 63 ee 08 3e bc 06 82 3d 5a 67 8a bd bb ee 8d 3e
       0.13372187 0.06348941 -0.06757994 0.277212

model.input_block.bn2.running_mean f4 [40]
000000 1b af 5c 3f 1f 34 34 bd 11 b8 b2 3c 3f cf 19 3b
       0.8620469 -0.04399502 0.021816285 0.0023469476
000010 59 02 77 bd e8 6e 2b be 83 f9 83 3f 75 6f 03 42
       -0.060304973 -0.16741526 1.031052 32.858845
000020 bf 26 20 bd fe fc 94 bd 42 37 73 3d 0e f0 50 3f
       -0.03909945 -0.07274817 0.05937887 0.81616294
000030 bf 8c 4d 3f 2c b1 96 42 29 17 15 42 e9 2c 47 3e
       0.80292886 75.34604 37.272617 0.19450726
000040 16 f0 dc 41 a0 14 05 41 88 45 e3 bc 58 25 c4 bb
       27.61723 8.317535 -0.027743116 -0.005985897
000050 1c e7 db bb b0 0f d5 bb e8 43 c2 ba 7d 21 81 42
       -0.0067109 -0.0065021142 -0.0014821263 64.56541
000060 83 4e d8 b9 82 68 03 bd 2e 8b 49 bd b9 dc 49 bd
       -0.00041257226 -0.03208209 -0.049204998 -0.049282763
000070 36 8d 36 be 0c e3 de 3f 19 1c 82 bc ce 00 ca ba
       -0.17827305 1.7413039 -0.015882539 -0.0015411617
000080 47 ed 08 c3 4d 8a e7 3f fb fb 1d 42 e4 ff fb be
       -136.92686 1.8089081 39.496075 -0.49218667
000090 f6 6c d4 3d 6d 47 1a 3c a2 23 cd bc 8a 70 82 3f
       0.10372345 0.009416443 -0.025041405 1.0190594

model.input_block.bn2.running_var f4 [40]
000000 bc 03 32 40 6e 9d 99 40 f9 cc 96 40 af a6 f1 3f
       2.781478 4.8004675 4.712521 1.8878993
000010 db 20 23 40 02 17 42 40 d8 27 a7 40 de dc 94 41
       2.5488803 3.0326543 5.2236137 18.607845
000020 aa 4e d7 40 82 e1 8f 40 58 c7 13 41 1c 41 1f 41
       6.7283525 4.496278 9.236168 9.953396
000030 14 47 09 40 e6 9f e8 41 04 4a ed 41 8f 14 8d 40
       2.1449633 29.078075 29.66114 4.4087596
000040 3a 84 f7 41 29 77 04 41 a2 d0 7d 40 e2 6c 3c 40
       30.939564 8.279092 3.965859 2.9441457
000050 7f 3c 88 40 8f 52 70 40 3b c4 6f 40 d7 c3 29 42
       4.257385 3.755039 3.746352 42.44125
000060 73 d3 d8 3f f7 b8 e6 3f 13 fd 79 40 4a cc 48 40
       1.6939529 1.8025197 3.9060714 3.1374688
000070 ff f3 53 40 c4 0a c1 40 6a 03 2e 40 f5 64 7b 40
       3.3117673 6.032564 2.7189584 3.928037
000080 e6 10 19 3c 5e 94 b6 40 78 e9 ca 41 72 4e 0f 40
       0.009342408 5.705611 25.363998 2.239163
000090 c9 a3 85 40 8b 91 08 40 00 31 08 40 58 b9 5e 40
       4.1762433 2.1338832 2.1279907 3.4800625

model.channel_expansion.conv.weight f4 [16, 40, 1, 1]
000000 23 2d 9e 3e 32 83 80 3e 40 67 23 bd 0b 72 51 3e
       0.30893812 0.25100094 -0.03989339 0.2045366
000010 b0 33 29 3e 22 d5 7d 3e 95 a4 4e be 07 6a b1 3d
       0.16523623 0.24788335 -0.2017997 0.08662801
000020 4a 8e a7 3e c6 6c a7 be 90 c7 74 bf 1d 18 33 3e
       0.32725745 -0.32700175 -0.9561701 0.17489667
000030 48 17 38 3e 3d d3 f0 3d eb e8 29 3e 44 4c db be
       0.17977631 0.117590405 0.16592757 -0.42831624
000040 da 29 87 3e 71 b8 86 3e c4 e0 82 3e 87 5c 60 bd
       0.26399118 0.26312593 0.25562108 -0.05477574
000050 7d 0a 04 3e 5f ce 27 bf af 24 8b 3e 76 eb 3c 3e
       0.12894626 -0.6554927 0.27176425 0.18449196
000060 4c 01 1e bd 77 09 a6 3c 49 b1 06 3e 77 d5 36 be
       -0.038575456 0.020268185 0.13153566 -0.17854868
000070 0e 47 ab bd 29 01 dc 3e 62 33 34 be 2a 3a a1 3d
       -0.08363162 0.42969635 -0.17597726 0.07872422
000080 20 4d 2d be 96 d3 08 3e e7 fe e8 3d 94 12 1f 3e
       -0.16923952 0.13361964 0.11376744 0.1553443
000090 7f 56 62 3e 4e c4 4a 3e 32 c8 b3 3d 8f 83 a5 3e
       0.22103308 0.19801447 0.087784186 0.32326934
0000a0 5b f4 a4 bd 1a 54 ad be 53 a0 b8 ba 98 bb 86 3e
       -0.080544196 -0.33853227 -0.0014085866 0.26314998
0000b0 84 73 7f 3e e6 5e 23 be 81 d8 09 bd 9b c7 11 3d
       0.2494641 -0.1595417 -0.03365374 0.03559075
0000c0 7b ae 9a be ca 8d 89 be 9d 44 60 bf 25 e5 0f be
       -0.30211243 -0.2686599 -0.87604696 -0.14052255
0000d0 16 48 0a be ed be 5e bc 7c b2 29 3d 6b c7 a8 be
       -0.13504061 -0.013595325 0.04142998 -0.32964644
0000e0 86 6d e6 bc e2 82 98 3d 93 2a 65 be c6 6b 5f 3e
       -0.028128397 0.07446839 -0.22379522 0.21818456
0000f0 b2 4e b1 bd ce b2 b6 be 2c 64 12 3c 96 e3 ea bd
       -0.08657588 -0.35683292 0.008935016 -0.1146919
000100 53 17 c1 3e 4a 45 c9 3e 46 b3 a3 3e 35 0a 35 3d
       0.37713107 0.39310676 0.31972712 0.044199187
000110 fa 4e 65 3e bc b2 23 3e f0 35 84 3e 92 b1 7c 3e
       0.22393408 0.1598615 0.258224 0.24677113
000120 1c 41 fb bb db 97 85 bc 95 e7 8f bd 3d fd da 3e
       -0.0076676738 -0.016307762 -0.07026593 0.4277133
000130 31 bd 68 be 97 0d 2d be de fa 99 3e b5 09 f0 bd
       -0.22728421 -0.16899715 0.3007421 -0.117206015
000140 05 12 c7 3d c7 08 b0 3e 31 7a ce 3e 1e 14 09 3f
       0.09720234 0.34381697 0.403276 0.5354632
000150 81 31 12 3f be e4 c6 be 28 8b 4f 3f e2 6a 9c 3e
       0.57106787 -0.3884639 0.8107171 0.30550295
000160 2a 9a 6a bd b9 b5 56 3e a8 6e 6c 3d 7e 92 a0 bd
       -0.05727593 0.20967759 0.057722718 -0.07840441
000170 78 f9 aa 3e 70 d7 de 3e 22 16 95 3e 71 66 97 3e
       0.33393455 0.4352374 0.29118448 0.29570344
000180 96 88 00 3f 3e 5c ac 3e 84 8d 91 bd 0c 65 c8 3e
       0.50208414 0.33664125 -0.0710707 0.39139593
000190 14 18 b8 3e 94 44 af 3e 16 24 24 bd 50 21 e3 3e
       0.3595587 0.34232008 -0.040073477 0.44361353
0001a0 4e 33 b1 be c6 fd 8b 3e 62 d6 35 3e ec 32 f6 3e
       -0.34609455 0.2734205 0.17757562 0.48085725
0001b0 b4 f5 61 be 16 7d 5c 3e 32 28 8b 3e 25 8e 52 3f
       -0.22066385 0.21532091 0.27179104 0.82248145
0001c0 95 28 4d bf 9a 4d 80 3f 90 d4 fd 3e 26 a8 2a 3e
       -0.8014005 1.0023682 0.49576235 0.16665706
0001d0 8a de 9d 3e 2b 3c 32 3e 31 80 19 3f 3f 7a ac be
       0.30833846 0.17405765 0.5996123 -0.33687016
0001e0 ad dc a1 bd a0 cf 93 be 83 49 6a be 05 40 63 3e
       -0.07903419 -0.28869343 -0.22879605 0.2219239
0001f0 8b 49 2c 3d 0c 52 9d bd 17 e1 2e bd 72 bd 8c 3d
       0.042062324 -0.07681665 -0.04269513 0.06872071
000200 97 1f d0 be 32 22 73 be f2 cc 5a be ff 98 5a be
       -0.406491 -0.23743513 -0.21367243 -0.21347426
000210 00 fe db 3d a1 2e 24 be a8 fa 64 bd 37 c8 ac bd
       0.10741806 -0.16033413 -0.055903107 -0.084366255
000220 50 81 c1 3c 59 e2 e3 3c 4a e7 6a be 67 bd 82 3e
       0.023621231 0.027817892 -0.22939792 0.25535128
000230 e9 25 9b be 8d 95 c0 bd 1a 8a 05 be 0b ae 6a bd
       -0.3030236 -0.094035245 -0.13040963 -0.057294887
000240 82 96 6c 3e 30 aa 95 3e b1 96 20 3e 7c ae d5 3c
       0.23104289 0.29231405 0.15682484 0.026084177
000250 bd a2 9e 3e f4 7e 0a 3c 79 ac 4a 3e 82 17 9a bb
       0.30983534 0.00845312 0.19792356 -0.0047025094
000260 f1 c3 31 3d 6f 09 16 3e 30 d0 b8 3c b4 89 d9 3d
       0.043399755 0.14652036 0.022560209 0.10621968
000270 f7 92 52 be 68 d2 1c be cb a5 44 3e c7 54 45 bc
       -0.20563875 -0.15314639 0.1920387 -0.012044138
000280 73 2e 23 3e 39 43 f2 3e b0 fc 61 bf 9c 8c 4e 3d
       0.15935688 0.47316912 -0.88276196 0.050427064
000290 e7 22 75 3d 5b 72 57 3e 50 68 86 3e e1 c7 8b 3e
       0.05984774 0.21039717 0.2625146 0.27300933
0002a0 4d 3f 21 3f 40 31 15 3e 20 51 07 3d ce 72 e7 3d
       0.62987214 0.14569569 0.03303635 0.11301194
0002b0 2f dd f8 3c c3 22 51 3e dc 19 8b 3d 1f d1 1c 3e
       0.030378906 0.20423417 0.06792042 0.15314148
0002c0 9b 79 6e 3e 73 55 c9 3c 58 d2 b7 3e eb b1 b9 3a
       0.23288576 0.024576878 0.35902667 0.0014167404
0002d0 8e 64 e8 3d 77 0a b0 3e 74 b9 f2 3d fa 5c 50 3d
       0.11347304 0.34382984 0.118517786 0.05086992
0002e0 f2 f2 3d be 88 49 22 bd 4d 34 aa 3d c5 91 f3 bd
       -0.18549708 -0.039620906 0.08310757 -0.11893038
0002f0 30 39 5b be 4f be 93 3d 1e 0e c2 3c 75 9b 66 3e
       -0.21408534 0.07214033 0.023688372 0.2252024
000300 79 c6 1f be 49 a4 fb 3d 54 b8 14 3e 88 85 77 bd
       -0.15603055 0.12287194 0.1452344 -0.06043008
000310 56 a9 a9 3e a3 d2 69 3c b7 e2 8e 3d 74 56 21 3e
       0.33137006 0.014271411 0.06976836 0.15755635
000320 bf b2 01 3f dc e3 ce 3e 87 1a 20 3e 2f c4 1d 3f
       0.5066337 0.40408218 0.1563512 0.6162748
000330 e2 00 84 3f 0e 83 6a bf 3d 7c 47 3f 76 7d 26 3f
       1.031277 -0.91606224 0.7792395 0.6503519
000340 31 02 da 3d 84 e0 19 3f a2 22 bd 3e 23 77 fd be
       0.10644949 0.6010821 0.36940485 -0.49504957
000350 5a 35 03 3f 26 37 45 3f fb 90 04 3f 27 0e 1d 3f
       0.51253283 0.77037275 0.5178372 0.6134972
000360 3c b4 44 3f bf 80 01 3f 49 59 de be b7 4a c4 3e
       0.76837516 0.50587076 -0.43427494 0.38338253
000370 f3 09 c7 3e 72 5a 00 3f ad 2c 02 3d a7 e3 16 3f
       0.38874778 0.5013801 0.031780887 0.5894112
000380 68 f1 2d be e0 69 a6 3e 66 e8 0a 3f b2 a2 e5 3e
       -0.1698662 0.3250265 0.5426086 0.4485069
000390 25 0a 32 3e f8 5c 89 bd 75 b4 f0 3e 90 bf 85 3f
       0.17386682 -0.067071855 0.47012678 1.0449085
0003a0 82 3b 5a bf 38 59 83 3f 0e ba 1e 3f 26 35 5f 3e
       -0.8524705 1.0261602 0.62002647 0.21797618
0003b0 12 53 c4 3e bb 0e c9 3e 17 ba 43 3f ed 98 07 be
       0.38344628 0.3926905 0.76455826 -0.1324193
0003c0 3d 88 ab 3d cc 10 75 be a5 8a a2 3d df 78 3a 3e
       0.08375595 -0.23932189 0.079366006 0.18210171
0003d0 ea 06 cf be 0b 3a ad 3d 6f 52 b7 bd 7f 58 3d 3d
       -0.40434963 0.084583364 -0.0895127 0.046226975
0003e0 a2 bc c5 be 17 e9 f6 bd 08 48 0f 3e 59 a0 24 3d
       -0.38620478 -0.12056177 0.13992321 0.040191982
0003f0 1b 0c f4 3d b6 b6 8b bd 1b ec 38 3e 05 db 29 3e
       0.119163714 -0.06821959 0.18058817 0.16587456

model.channel_expansion.bn.weight f4 [16]
000000 0a c8 ac 3f b0 b8 af 3f f5 32 ff 3f b9 0d 9c 3f
       1.3498547 1.3728237 1.9937426 1.2191688
000010 a2 64 a5 3f 71 26 c2 3f 16 95 90 3f 6e 75 99 3f
       1.2921336 1.5167981 1.1295497 1.1988962
000020 ba 67 dd 3d de 61 a3 3f bc 92 9e 3f 37 27 c6 3f
       0.108108 1.2764242 1.238853 1.5480717
000030 bd a4 c0 3f bc 86 a1 3f dc 10 a8 3f 2b b9 9a 3f
       1.5050274 1.2619243 1.3130145 1.2087759

model.channel_expansion.bn.bias f4 [16]
000000 f0 5a 64 3e 13 d5 95 bd 3f ce 19 3f 66 f9 08 bd
       0.22300315 -0.07316031 0.6008033 -0.03344097
000010 da f5 48 3e 0f 88 6a 3f c9 60 9b 3d 32 1f 4c bc
       0.19625035 0.9161386 0.0758682 -0.012458609
000020 4c 7a 70 3f 51 dd e0 3e 31 2d 72 3e 15 80 93 3f
       0.9393661 0.4391885 0.23650052 1.1523463
000030 83 08 15 3f 35 12 08 3e 4a e0 c8 3d 1a 9a 96 bd
       0.5821611 0.13288195 0.09808405 -0.07353611

model.channel_expansion.bn.running_mean f4 [16]
000000 54 55 ef 3f 2d 91 52 bf 5d e1 cd 40 81 87 4b bf
       1.8697915 -0.8225277 6.43376 -0.7950364
000010 d3 22 16 40 86 5c 12 41 f1 ba 12 3f b0 c6 f8 3d
       2.3458755 9.147589 0.573165 0.12147272
000020 2c 0b 26 41 d5 15 76 40 70 53 3e 40 ff da fa 40
       10.3777275 3.8450825 2.9738426 7.839233
000030 ec 25 af 40 6d be f2 3f b4 37 7d 3f 27 26 4c bf
       5.473379 1.8964363 0.9891312 -0.79745716

model.channel_expansion.bn.running_var f4 [16]
000000 0b aa 45 41 2b 44 06 41 cd 53 b0 41 85 b8 38 40
       12.354014 8.391643 22.040918 2.8862622
000010 76 a9 7a 40 1e 3b 33 42 d2 e3 98 3f a6 bf cc 3f
       3.916593 44.80773 1.1944525 1.5995986
000020 82 97 cc 41 86 b5 37 41 20 3c 59 40 a3 a7 16 42
       25.573978 11.481817 3.3942947 37.663708
000030 df 43 af 41 5c 06 64 40 eb a7 66 40 e8 24 16 40
       21.90814 3.5628881 3.603999 2.3460026

model.fe.conv1.weight f4 [16, 1, 1, 15]
000000 0b 4d 9e 3d 5a 5c b1 be f9 67 e7 be 8c be 0e bf
       0.077295385 -0.3464077 -0.45196512 -0.557595
000010 79 fb 0a be d3 87 1a be 68 cc 84 be ba 9a 06 bf
       -0.13572492 -0.15090875 -0.259372 -0.52579844
000020 50 3f 23 be a7 19 b6 be fd 5e 02 bf be e7 85 be
       -0.1594212 -0.35566446 -0.5092619 -0.26153368
000030 d6 90 b2 be 57 2e 06 be 89 90 21 bf 29 9e 06 bf
       -0.34876126 -0.13103615 -0.6311117 -0.52585083
000040 92 00 e0 be 01 b8 f2 bd c0 cf 05 3f bf 8a 52 3c
       -0.43750435 -0.11851502 0.52270126 0.012850462
000050 32 92 d4 be 93 74 da 3d 70 82 06 3f 35 43 e5 3b
       -0.41517788 0.10666766 0.5254278 0.006996537
000060 ee f4 8a be 60 f2 51 be e1 b2 f1 3e be 56 95 be
       -0.27139992 -0.20502615 0.47206786 -0.29167742
000070 bf e0 aa be e7 ff 54 bb 25 ea 84 3e 37 df 67 bd
       -0.33374593 -0.0032501162 0.25959888 -0.05660936
000080 c6 f0 25 bf 09 97 d1 bd 41 5c 95 3e 41 3b 8d 3e
       -0.64820516 -0.10233886 0.29171947 0.2758427
000090 d0 17 16 bf 1d f1 9c 3a 56 a2 95 3e 86 a9 d7 3d
       -0.58630085 0.0011973713 0.29225415 0.10530381
0000a0 2d 9e fb be f2 7d b5 be 11 93 49 3e 9a 28 5a 3e
       -0.49144116 -0.3544765 0.19685008 0.21304551
0000b0 4a 38 51 be 20 30 1e 3f 06 92 dd 3e 29 74 aa 3e
       -0.20431629 0.6179218 0.4327547 0.33291748
0000c0 98 e4 bd 3e da 0a a4 3e 23 43 b3 3e 2a c5 97 3e
       0.37088466 0.3203953 0.3501216 0.29642612
0000d0 e1 c0 c2 3e 3b 8e 12 3d 24 f1 9c 3e 82 51 20 3e
       0.3803778 0.035780173 0.30652726 0.15656093
0000e0 fc 16 b3 3d 07 6f 34 3e 6f 35 f1 3e 5d 06 ec 3e
       0.08744618 0.17620479 0.4711108 0.46098605
0000f0 ed 3c 7a 3d 49 5b f6 3e a3 50 01 3f d0 dc 44 3e
       0.06109326 0.4811652 0.50513667 0.19224858
000100 01 10 02 3e 5b 78 db 3e 88 9f bc 3e 0d cf 03 3e
       0.12701418 0.4286526 0.36840463 0.12871952
000110 b3 18 f2 3c b8 27 52 3e b9 b9 c6 3e f5 6e 95 3e
       0.029552793 0.20522964 0.3881357 0.29186216
000120 99 25 47 3e 5a a3 2a 3e 6f 4f 75 3d b2 fe f0 3d
       0.19447936 0.16663876 0.059890207 0.11767329
000130 53 2e 31 3e bf 39 f3 be c2 f1 10 bf 71 bd 29 3e
       0.17302828 -0.47504994 -0.56618893 0.16576172
000140 94 31 8c be 01 14 3e bf 6d 04 1b bf 44 ea 69 3e
       -0.27381575 -0.74249274 -0.6055363 0.22843271
000150 9e 08 1e be 45 d8 20 bf 70 96 54 bf 5c 33 9e bd
       -0.15432975 -0.6283 -0.8304205 -0.0772464
000160 84 a8 6d 3e ad a6 1a bf c5 fb dd 3e 07 45 68 3e
       0.23208815 -0.6041058 0.43356147 0.22682582
000170 61 b1 ac 3d 09 47 64 3e f6 b2 92 3e 02 0b 28 3e
       0.0843227 0.22292723 0.2865216 0.16410449
000180 4c 31 a7 3e e2 62 12 3c e0 db 91 3e 51 af 99 3e
       0.32654798 0.008934708 0.28488064 0.30016568
000190 46 d4 7a 3e 6c 70 0c 3e b2 f2 81 3e 1e 0b 2e 3d
       0.24495038 0.1371476 0.25380474 0.04249107
0001a0 fc 7b 16 3c 50 7b 0a bf 80 6a 0f bf df f6 74 be
       0.009184834 -0.5409441 -0.5602188 -0.23922299
0001b0 aa 4d e5 bd f3 00 45 be ab 1d bf be ad d6 d3 be
       -0.11196454 -0.19238643 -0.37327322 -0.41374722
0001c0 8f 5e c7 be b5 42 87 be b4 e3 dd be 91 4b c3 be
       -0.3893933 -0.2641808 -0.43337786 -0.3814359
0001d0 33 21 87 be 6b e3 f8 be e2 af fa be 66 27 c8 be
       -0.26392516 -0.48611006 -0.48962313 -0.3909256
0001e0 bc 9a fa be f9 a2 63 be 19 b0 1b bf e4 8a 81 be
       -0.48946178 -0.22230138 -0.6081558 -0.25301278
0001f0 e5 48 a5 be c5 23 d4 be 9f 29 25 bf c1 57 47 bf
       -0.32282177 -0.4143354 -0.64516634 -0.77868277
000200 ed a0 18 bf 11 53 e4 bd f6 ed 0f bf 30 a0 62 bf
       -0.59620553 -0.11148656 -0.56222475 -0.88525677
000210 be c7 6f be 8a 66 af be 84 8f 21 bf 05 36 bc 3e
       -0.2341604 -0.3425792 -0.6310961 0.36759964
000220 9a 76 4f 3e 87 7a 0b be f4 40 b5 3e 32 2a 1c 3f
       0.20260087 -0.13620959 0.35401118 0.61001885
000230 be d1 c9 3e bd 57 39 be 14 43 9a 3d b7 28 80 3e
       0.39417833 -0.18099876 0.075323254 0.25031063
000240 f4 8b ce 3e 64 6f 6f bd 51 5d cb 3d ed 08 e5 3e
       0.4034115 -0.05845584 0.09929908 0.44733372
000250 73 26 ff 3e 97 7f d1 3d da 9d 50 be 37 f4 90 be
       0.49834022 0.10229414 -0.20372716 -0.2831132
000260 2a c6 96 be fe 7a 6b be 03 91 ae be 02 c1 8c 3d
       -0.29448062 -0.22996137 -0.3409501 0.06872751
000270 ea c7 81 be 04 d4 a7 bc 51 8c a9 be fa 6e 2b be
       -0.25347835 -0.02048684 -0.33114865 -0.16741553
000280 8e 9f 7d bd a3 2a a1 be ca 40 86 bd 66 6d c8 be
       -0.06191974 -0.31477842 -0.06555326 -0.39145964
000290 ff 2e 46 be 26 0a 81 bf 69 18 7a bf 73 b6 a3 3e
       -0.19353865 -1.0081222 -0.97693497 0.31975135
0002a0 ce e0 40 3e 65 ac 49 bf c6 af 8f bf e9 14 8b bd
       0.18835756 -0.7877868 -1.1225517 -0.06791098
0002b0 6f 77 e1 3d 73 39 14 bf da 22 61 bf 61 18 c6 bd
       0.11009108 -0.5790016 -0.87943804 -0.09672619
0002c0 23 f0 8f 3d 12 84 39 bf b9 b2 3d bf b5 03 9a 3d
       0.07028224 -0.7246715 -0.74100834 0.07520238
0002d0 31 f2 3e bf 0b f9 ce be 80 dd 16 be ae 2a f2 bc
       -0.74588305 -0.4042438 -0.14732933 -0.029561367
0002e0 e2 0b f8 be 4c 5f 03 bf 55 78 d0 bd 81 2c 7e 3c
       -0.48446566 -0.51317286 -0.101792015 0.01551354
0002f0 b8 82 29 bf f9 fc 05 bf 0a 88 d9 3d ab 77 d3 3c
       -0.66215086 -0.5233913 0.106216505 0.025813898
000300 36 4c 2d bf 65 94 58 bf 3d 83 86 be b8 cc 0a be
       -0.67694414 -0.8460143 -0.26272002 -0.13554657
000310 b7 1a fb be c9 70 1c be 39 8f d4 bd 78 c2 ad be
       -0.4904382 -0.15277399 -0.1037888 -0.3393743
000320 60 36 a2 be 64 9e d3 be f7 c6 80 be a9 32 94 be
       -0.3168211 -0.4133178 -0.25151798 -0.289449
000330 08 e2 22 be 17 bb 93 bd 3b 0e 29 be 68 f0 bd be
       -0.15906537 -0.07213419 -0.16509335 -0.37097478
000340 cc 3a 7e be fe 61 1b be 60 19 c1 3e be 3a b5 3e
       -0.24827117 -0.151741 0.37714672 0.3539638
000350 42 ab 15 3e b6 03 f0 3e 90 fa 6a 3e b5 f5 27 3e
       0.14616111 0.4687783 0.22947145 0.16402324
000360 48 35 2d bd e1 2e 96 3d 0f ba 85 3e 89 f4 f4 3d
       -0.04228714 0.0733316 0.26118514 0.11960704
000370 af 7d 8f 3b 54 0d b2 3e 19 39 86 3e c5 3c a8 3e
       0.0043789963 0.34775794 0.26215437 0.32858863
000380 89 53 bf 3e e9 70 20 bf 5f d3 25 bf c5 6e cf be
       0.3736842 -0.6267229 -0.6477565 -0.40514198
000390 2d bf 5b be 0a c8 d4 be 56 e3 be be 6c 12 85 be
       -0.21459647 -0.41558868 -0.3728282 -0.25990617
0003a0 ea 4b a2 bd 1c 5b 1b bd a3 fa c8 bd b2 2f 47 be
       -0.07924636 -0.037928686 -0.0981343 -0.19451788
0003b0 c2 4e 41 be 3a 1d 59 be 55 7b c9 be b8 cb be be
       -0.188777 -0.21202555 -0.39351907 -0.372648

model.fe.conv2.weight f4 [16, 16, 1, 1]
000000 b8 1c 63 3e cd ea 8a be ca f3 4e be cf 9f db be
       0.22178924 -0.27132264 -0.20210186 -0.42895362
000010 cf 2d a4 bc 6d e9 80 be 1f 3f f0 be 31 6c 0d 3f
       -0.020041374 -0.2517809 -0.46923158 0.5524321
000020 f4 62 60 3e 2a 09 b4 be 88 06 48 be 04 b7 22 3f
       0.21912748 -0.35163242 -0.19533741 0.6356051
000030 53 9d 86 be 92 dd 93 3e e5 6d c6 be eb 02 0f 3f
       -0.26291904 0.28879982 -0.38755718 0.5586383
000040 e9 02 e6 3e 22 9c 0b bf ef e3 26 3f b0 f9 ae 3e
       0.44924095 -0.54535115 0.6519155 0.3417487
000050 9a e2 84 be 3e 4b 0a 3f 1a 74 f8 bc 7f 00 74 be
       -0.25954133 0.5402106 -0.030328799 -0.23828314
000060 81 c8 85 3e b5 8e e6 be e8 e3 b2 3e bb 4e 54 3e
       0.26129535 -0.45030752 0.34939504 0.20733158
000070 63 27 8b 3e a6 d7 a6 be e4 31 0f 3d f0 2a d4 be
       0.27178487 -0.32586402 0.03495969 -0.4143901
000080 3c 09 8d be bd ce 0a 3f 3c ea 88 3e fe 31 31 bf
       -0.27546108 0.5422171 0.26741207 -0.6921691
000090 eb 5d 52 3e 0a 4b 06 3f b5 6f 46 be 5c 82 1c 3e
       0.2054364 0.5245825 -0.1937855 0.15284103
0000a0 75 2b 15 3e 38 5f ce 3d 2a 29 fc bd eb 0d 4e bd
       0.14567359 0.10076755 -0.12312539 -0.050306242
0000b0 7b d5 b8 3e 30 d3 ea 3e c5 e9 de be 4e 15 37 3f
       0.36100373 0.45864248 -0.43537727 0.71516883
0000c0 e3 72 02 3f 69 37 08 bf 12 1e 25 3f fa 16 a3 3e
       0.50956553 -0.5320955 0.6449901 0.31853467
0000d0 4b e9 a0 be a7 fb 07 3f fb a0 d7 3d b6 e9 35 be
       -0.31427988 0.53118366 0.105287515 -0.17764935
0000e0 02 1b 2e 3e 41 66 bf be aa 6c c3 3e c5 42 e1 3e
       0.1700249 -0.373827 0.38168842 0.43996254
0000f0 43 a5 18 3f 04 4b 02 be 32 b2 8d 3e 4e 3c af be
       0.5962717 -0.12723929 0.27675015 -0.34225696
000100 70 ed 1f 3e 74 97 fe bd 6b 39 0a bd 68 cc 13 bf
       0.15617919 -0.12431231 -0.033746164 -0.57733774
000110 05 a2 be 3d af 9d 6b be e1 e2 75 be b0 68 03 3e
       0.093082465 -0.2300937 -0.24012329 0.12832904
000120 83 be a6 3e e4 3e 9b be 08 08 e1 bd 5f 02 0f 3f
       0.32567224 -0.3032142 -0.1098786 0.55862993
000130 22 91 a3 be 00 e9 e1 3e bb 0c 12 bf 60 bb f3 3e
       -0.31946665 0.44123077 -0.57050675 0.47603893
000140 8f 98 5a 3d df ae 67 3e bb a5 01 3f 73 14 22 bf
       0.053368147 0.22625302 0.5064351 -0.63312453
000150 5d 44 1e 3e 3c b5 31 3e 52 43 eb be 6c 0e 41 3f
       0.15455766 0.17354292 -0.459498 0.7541263
000160 bb ee bb 3e 70 a8 91 3c 98 19 48 be 74 58 28 be
       0.36705574 0.017780513 -0.19541013 -0.16439992
000170 8e 32 84 3e 69 40 96 3e 30 23 02 bf 01 85 fe 3e
       0.2581982 0.29346016 -0.5083494 0.4971085
000180 b7 4b 08 3f 7a b0 67 be 4d 17 3a 3f 79 97 91 3e
       0.5324053 -0.22625914 0.72691804 0.28435877
000190 a9 1a ef be f1 28 2d 3f b8 bd 07 3e 8d 15 92 be
       -0.46700028 0.67640597 0.13255966 -0.28532067
0001a0 dc c6 8e 3d dc 80 a7 be ba c5 e9 3e 77 48 dd 3e
       0.06971523 -0.327155 0.45658666 0.4321935
0001b0 2d 4a 99 3e 28 be 02 be 6c 34 01 3e 9e a7 b6 be
       0.29939404 -0.12767851 0.12617654 -0.35674757
0001c0 80 08 00 3f f0 7a 23 bf e7 62 5f 3f c5 1c a2 3e
       0.5001297 -0.6385946 0.8726029 0.31662574
0001d0 6e 74 ac be 21 64 b7 3e ee 38 8b 3d eb 0e d3 be
       -0.3368258 0.3581858 0.06797968 -0.4122232
0001e0 74 fc c2 3e 47 f2 14 bf 8a c8 78 3e 20 4b 87 3e
       0.3808323 -0.58182186 0.2429525 0.26424503
0001f0 31 70 0d 3f 12 33 23 bd 4c da a5 3e e4 0e a6 be
       0.55249316 -0.039843626 0.3239311 -0.32433236
000200 a1 1e d3 3e e5 46 b7 be 8e df 44 3f e7 ed 94 3e
       0.41234306 -0.35796276 0.7690362 0.29087755
000210 e7 48 03 bf fd b8 e1 3e ff 4f 3e 39 f9 aa c1 be
       -0.51283115 0.44086447 0.00018149613 -0.37825754
000220 d4 ec 98 3e a2 a4 82 be 90 c7 66 3e 15 f5 ed 3e
       0.29868186 -0.2551623 0.22537065 0.46476045
000230 40 60 09 3f 1b f5 9a bd f1 cc 14 3e e5 d6 05 bf
       0.5366249 -0.075662814 0.14531304 -0.5228103
000240 9c d3 8e be 2c 4b 65 3f 16 15 a7 3e 0f 4d 31 bf
       -0.2789582 0.8956783 0.32633275 -0.6925821
000250 4e ea 94 3e 85 f4 60 3f b0 f5 31 be 3e ab cd 3e
       0.2908501 0.8787311 -0.17378879 0.4016971
000260 bc f7 84 3e fd 5f 43 bd fa cd 2b be 60 80 76 be
       0.25970256 -0.047698963 -0.16777793 -0.24072409
000270 ae 84 14 3f 85 6d 80 3e 4c af 05 bf a2 14 fa 3e
       0.58014953 0.25083557 -0.52220607 0.48843867
000280 e1 80 b5 3c 15 76 85 be 16 1c 1b bd 6a 94 41 be
       0.02215618 -0.26066652 -0.03786858 -0.18904272
000290 b3 7e 4b 3e 99 0c 65 be d6 64 9f be dc e0 e2 3e
       0.1987255 -0.22368087 -0.3113162 0.4431218
0002a0 dc c2 cf 3e 00 c4 30 be 9f 9b a9 bd e8 d2 b5 3e
       0.40578353 -0.17262268 -0.082816355 0.3551247
0002b0 f5 48 32 be e1 7e d0 3e aa 8d 0c bf 45 5e 20 3f
       -0.17410643 0.407218 -0.5490366 0.62643844
0002c0 a1 9a 0d 3f 1e 16 f6 be b8 bc 2a 3f a7 93 b1 3e
       0.5531407 -0.4806375 0.6669421 0.34682962
0002d0 74 f9 2c be 8d 1f 05 3f 4d 75 0c 3e c6 6d a0 be
       -0.16892034 0.5200127 0.13716622 -0.3133375
0002e0 b6 ff 7d 3e e1 42 bd be 51 86 b2 3e 65 ed 94 3e
       0.24804577 -0.36965087 0.348681 0.29087368
0002f0 ec 42 c0 3e 13 c7 55 be 5f b3 62 3e 97 6a 9f be
       0.37551057 -0.20876722 0.22138737 -0.3113601
000300 d1 72 cb 3e 3c 0b cb be e0 73 06 3f 7f 38 50 3e
       0.39736035 -0.3965701 0.5252056 0.20334052
000310 da 3d cf be 5c 60 90 3e fe f2 e5 3d b2 33 9e be
       -0.40476876 0.28198516 0.11227988 -0.30898815
000320 66 fb 23 3e 40 93 9a be f2 ba 88 3e cc 76 52 3e
       0.1601387 -0.30190468 0.26705128 0.2055313
000330 84 5f ac 3e 71 c0 f1 bd 71 bd 67 3e 34 38 1b be
       0.33666623 -0.118042834 0.2263086 -0.15158159
000340 80 56 45 3e b5 34 ef be d7 9d 19 3f f6 58 6b 3e
       0.19271278 -0.467199 0.6000647 0.22983155
000350 a5 ca 91 be e3 98 e1 3e 15 9d 78 3e 0f 38 59 be
       -0.28474918 0.44061956 0.24278672 -0.21212791
000360 88 ea 92 3e cd d3 81 be 7d 41 e1 3d 1a f3 e3 3e
       0.28694558 -0.25356904 0.10998819 0.4452141
000370 f8 92 03 3f e8 a6 8d be e7 40 31 3e 4a 86 cc be
       0.5139613 -0.27666402 0.17309915 -0.39946204
000380 e2 f6 66 be f3 ec 61 3f e1 71 c0 3e e3 15 0f bf
       -0.22555116 0.8825218 0.37586883 -0.5589277
000390 9c 9d 6a 3e b7 9d 42 3f 0d 59 2f be 13 d2 fb 3e
       0.22911686 0.76021904 -0.17123814 0.4918371
0003a0 22 8b cd 3e b3 61 45 3e 80 c3 aa be a8 da 10 be
       0.40145212 0.1927555 -0.3335228 -0.1414591
0003b0 17 af e5 3e b3 c2 30 3e 12 8a a3 be 04 16 0a 3f
       0.44860145 0.17261772 -0.31941277 0.53939843
0003c0 80 0a e4 bc f7 d3 6d 3f e1 67 a7 3e fa 27 90 be
       -0.027837038 0.9290156 0.3269644 -0.281555
0003d0 3d 69 57 3e 97 76 34 3f 6e 2c 47 be 41 78 b2 3e
       0.21036239 0.70493454 -0.19450542 0.3485737
0003e0 62 21 83 3d a3 fe 87 3e 87 84 83 be 46 e8 1f 3d
       0.06402852 0.2656146 -0.25687048 0.039039873
0003f0 8b 55 02 3f 8a 8d a7 3e 38 f8 20 bf 7d 27 50 3f
       0.5091178 0.32725173 -0.6287875 0.81310254

model.fe.bn.weight f4 [16]
000000 cc e0 9d 3f dc ad 9d 3f 43 2c 9d 3f 2b d2 8d 3f
       1.2334228 1.2318683 1.2279133 1.1079763
000010 d9 8d 96 3f 25 47 9b 3f 51 5e 97 3f 15 7d a4 3f
       1.1762038 1.2131087 1.1825658 1.2850672
000020 33 7a 8f 3f bb 6b a2 3f 87 a7 94 3f 33 8b 95 3f
       1.1209167 1.2689127 1.1613625 1.1683105
000030 d5 b5 96 3f 14 ef 95 3f 0b 46 9a 3f 91 21 97 3f
       1.1774241 1.1713586 1.2052625 1.1807119

model.fe.bn.bias f4 [16]
000000 bf b4 74 be 92 e8 8f be 4e 71 5c be df d3 72 be
       -0.23897074 -0.28107125 -0.21527597 -0.23713635
000010 ab b0 51 be 3a b1 39 be 3d 26 82 be 63 32 97 be
       -0.2047755 -0.18134013 -0.25419798 -0.2953063
000020 ca 28 67 be 22 87 83 be 11 ef 30 be 1f 5d 82 be
       -0.22574154 -0.25689036 -0.17278697 -0.2546167
000030 dd 31 74 be 54 31 82 be 9f 1e 63 be dd f7 55 be
       -0.23847146 -0.2542826 -0.2217965 -0.20895334

model.fe.bn.running_mean f4 [16]
000000 95 05 ea c0 7d c9 00 c1 64 18 b1 c0 7e 5e 27 c1
       -7.3131814 -8.049191 -5.5342274 -10.460569
000010 d0 55 e0 c0 46 ff b7 c0 86 ce 19 c1 7b 8a 1e c1
       -7.010475 -5.7499113 -9.612921 -9.908809
000020 91 89 2a c1 56 4c e8 c0 94 50 c0 c0 7e 8d 0a c1
       -10.658586 -7.2593184 -6.009836 -8.659544
000030 83 0d cd c0 4e 6e 13 c1 6a 46 e8 c0 b0 16 e1 c0
       -6.4078994 -9.21443 -7.2585955 -7.0340195

model.fe.bn.running_var f4 [16]
000000 ac 68 b0 41 77 b3 0a 42 88 bc 86 41 56 17 3c 42
       22.05111 34.67526 16.842056 47.02279
000010 30 07 7f 41 58 14 85 41 ca 57 31 42 9d 0c 3c 42
       15.939255 16.634933 44.33573 47.012318
000020 6c ad 39 42 5a 81 04 42 1b f1 23 41 e3 ee 14 42
       46.419357 33.12632 10.246364 37.233288
000030 1f dd ab 41 f9 a3 10 42 0c 4f de 41 be 72 bb 41
       21.48297 36.16013 27.788597 23.431026

model.classifier.weight f4 [1, 16]
000000 f5 ed 11 bf 0c 66 c9 3e 6e e5 f3 be 62 a3 9d 3e
       -0.5700372 0.39335668 -0.47635978 0.30788714
000010 4b d5 13 bf 82 11 d2 be 9a d2 96 3e f2 ad c6 3e
       -0.57747334 -0.41028982 0.2945755 0.38804585
000020 c1 a8 a6 3e a9 63 02 bf 48 b3 00 bf e0 6f ca 3e
       0.32550624 -0.5093332 -0.5027356 0.3953848
000030 f4 7a b3 3e 8e b9 c7 3e 72 ea 09 bf ee c4 ef be
       0.35054743 0.39008754 -0.5387336 -0.46829933
