ckpts/finetuning/subject_01-session_01.ckpt (torch, 63949 bytes, 50 tensors)

model.input_block.temp_cov.weight f4 [40, 1, 1, 25]
0	0x3ea03981	0.31293872
1	0x3deedd79	0.11663336
2	0xbe998f24	-0.2999202
3	0xbea67a07	-0.32514974
4	0xbe89286c	-0.26788652
5	0xbd86c9b2	-0.06581439
6	0x3d92e741	0.071730144
7	0x3e93760c	0.28801
8	0x3de52057	0.11187809
9	0x3de9691f	0.113970034
10	0xbe30cf68	-0.17266619
11	0xbe52111d	-0.2051434
12	0xbebaeec8	-0.365103
13	0xbe9c07c3	-0.30474672
14	0xbe6a83fc	-0.2290191
15	0x3c006e2e	0.007838769
16	0x3e876f65	0.26452175
17	0x3eb6a3c5	0.3567182
18	0x3dec1ec4	0.115293056
19	0x3e1ac947	0.15115844
20	0x3e89027e	0.26759714
21	0x3e94a6da	0.29033548
22	0x3a575cc7	0.0008215424
23	0x3df0e258	0.11761922
24	0xbdeb414f	-0.11487066
25	0xbe96bcc6	-0.29440898
26	0x3e7c1581	0.24617578
27	0x3e0fcf9a	0.14044037
28	0x3e9b0037	0.302736
29	0x3ec1ed45	0.37876335
30	0x3e904e17	0.28184578
31	0x3e8ec0f2	0.2788158
32	0xbe8ff438	-0.28116012
33	0xbe9d051d	-0.30667964
34	0xbeb60eb6	-0.355581
35	0xbeb8d8e4	-0.36102974
36	0xbd71eb47	-0.05906227
37	0x3ef8682d	0.4851698
38	0x3ecd0fd6	0.40051144
39	0x3eccc0b6	0.39990777
40	0x3e9448a7	0.2896168
41	0xbdc28fef	-0.095001094
42	0xbe5291e2	-0.20563462
43	0xbeeda83c	-0.46417415
44	0xbedb2543	-0.42801866
45	0xbea9f29e	-0.33192915
46	0x3e72fd8b	0.23729531
47	0x3ed991de	0.424941
48	0x3e8a62d0	0.27028513
49	0x3eb78a6c	0.35847795
50	0x3f016a12	0.50552475
51	0x3f0f80d2	0.5605594
52	0x3ed9d930	0.42548513
53	0x3eb5cb77	0.35506794
54	0x3ec8395a	0.39106256
55	0xbe2a2b05	-0.16617973
56	0xbe2678e5	-0.16257055
57	0xbec72834	-0.3889786
58	0xbebffebb	-0.3749903
59	0xbea528ea	-0.32257777
60	0xbdba8c55	-0.091087975
61	0xbd5c301a	-0.05375681
62	0xbe64dc4f	-0.22349666
63	0xbd51a197	-0.051179495
64	0xbd2c59ca	-0.042077817
65	0xbe6158c4	-0.22006518
66	0xbe4528c2	-0.19253829
67	0xbd9053aa	-0.07047208
68	0x3e3fb931	0.18722989
69	0x3edc7965	0.43061367
70	0x3e52fde8	0.2060467
71	0x3eb9323f	0.36171147
72	0x3f0cb046	0.5495647
73	0x3f21b418	0.63165426
74	0x3f121854	0.5706837
75	0xbdd590eb	-0.104280315
76	0xbe89bdc3	-0.2690259
77	0xbeda8492	-0.42679268
78	0xbe3adeea	-0.18249097
79	0xbe8aa644	-0.27079976
80	0xbe5f1300	-0.21784592
81	0x3e9eaa39	0.30989245
82	0x3ea07d7e	0.31345743
83	0xbd5123ec	-0.05105965
84	0x3e1053f0	0.1409452
85	0xbda8279b	-0.08210679
86	0xbe3bfd3d	-0.18358321
87	0xbe87549b	-0.26431736
88	0xbdcbba99	-0.099477
89	0xbe537bc3	-0.2065268
90	0x3de42834	0.11140481
91	0x3e4c961b	0.19979136
92	0x3e8bc7ca	0.27300864
93	0x3e60fb7d	0.21970935
94	0xbd937a46	-0.07201056
95	0xbe2e8f0b	-0.17046754
96	0xbd9ce3d7	-0.076606445
97	0xbe3a87ab	-0.18215816
98	0xbecdcc64	-0.40195
99	0xbeb7bb9b	-0.3588532
100	0x3e9d2e5a	0.30699426
101	0x3cd1b78c	0.025600217
102	0xbec1f1ba	-0.37879735
103	0xbec04314	-0.37551177
104	0xbeec5b56	-0.46163434
105	0xbe652e8c	-0.22381037
106	0xbea91af5	-0.3302838
107	0xbe97bd5e	-0.29636663
108	0xbdbef617	-0.09324282
109	0x3d9a4522	0.07532717
110	0x3cf68417	0.030092282
111	0x3e6b1360	0.2295661
112	0xbca74e24	-0.020423003
113	0x3e89675d	0.26836672
114	0x3e5785db	0.21047156
115	0xbdc0c86e	-0.09413229
116	0x3d32b675	0.043631036
117	0x3e040852	0.12893799
118	0x3e2e4097	0.17016827
119	0x3e4bc50d	0.19899388
120	0x3e36ff32	0.17870787
121	0xbcdccc40	-0.026952863
122	0xbea3d616	-0.31999272
123	0xbe84a070	-0.25903654
124	0xbf2b06a5	-0.66807014
125	0xbeaf8bb8	-0.34286284
126	0xbeb74d32	-0.35801083
127	0xbed49516	-0.41519994
128	0xbebd8582	-0.3701592
129	0xbedfcf03	-0.43712625
130	0xbe8dac0e	-0.2767033
131	0xbdf29f4c	-0.1184679
132	0xbe0a56c0	-0.13509655
133	0x3e2eba7b	0.17063324
134	0x3eb6a50b	0.35672793
135	0x3e1ce59e	0.15321967
136	0x3e064343	0.13111596
137	0x3d89a3e2	0.06720711
138	0x3dca7ea1	0.09887434
139	0x3e36532b	0.17805164
140	0x3e7fffd7	0.24999939
141	0x3e57ca51	0.21073271
142	0x3e9d90d4	0.30774558
143	0x3e087c6f	0.13328718
144	0xbdbe4ae9	-0.09291632
145	0xbe3a07fd	-0.1816711
146	0xbd6cc440	-0.057804346
147	0xbe90aad1	-0.28255323
148	0xbeef8a53	-0.4678522
149	0xbf1ad0bb	-0.6047475
150	0x3df31556	0.11869304
151	0x3e82a5ec	0.25517213
152	0x3eda47e6	0.4263298
153	0x3f0c89b9	0.5489765
154	0x3f00350a	0.5008093
155	0x3e2a0147	0.1660205
156	0x3eeed6b7	0.4664819
157	0x3e2ab3bc	0.16670126
158	0x3e2e56d4	0.1702531
159	0xbdaf22e4	-0.08551577
160	0xbe3d0078	-0.1845721
161	0xbe89e8b9	-0.26935366
162	0xbef01abd	-0.468954
163	0xbf0079f5	-0.5018609
164	0xbec37f57	-0.3818309
165	0xbeb5956d	-0.35465565
166	0xbee23e50	-0.44188166
167	0xbe7c08d6	-0.24612746
168	0xbecd75a6	-0.4012882
169	0xbc8a896e	-0.016911235
170	0x3ea75702	0.3268357
171	0x3e1e9e40	0.15490055
172	0x3efccec1	0.4937649
173	0x3ef2708b	0.47351488
174	0x3e9f4fa6	0.31115454
175	0x3e4b80ea	0.19873396
176	0xbc686106	-0.014183288
177	0xbe0515a1	-0.12996532
178	0x3db30dd3	0.08742871
179	0xbe84fae9	-0.2597268
180	0xbd9d2d50	-0.07674658
181	0xbd8a7c33	-0.0676197
182	0x3e28972b	0.16463916
183	0x3dcce06c	0.100037426
184	0x3e1a01a3	0.15039687
185	0x3e09c7c1	0.13455106
186	0x3c88fae3	0.016721195
187	0x3ca371b1	0.019951673
188	0xbdc24c93	-0.094872616
189	0x3e36ea1d	0.17862745
190	0x3e674e7a	0.2258853
191	0x3e4ce6d1	0.20009924
192	0xbde3e94b	-0.111284815
193	0xbd33aaae	-0.043863945
194	0xbe6574b2	-0.22407797
195	0xbe51dba7	-0.20493947
196	0xbe65721b	-0.22406809
197	0xbd7d4951	-0.061837498
198	0xbe9176ce	-0.28410953
199	0xbe351757	-0.17684685
200	0x3f1e4139	0.6181827
201	0x3ee79cd0	0.45236826
202	0xbe97a5f7	-0.2961881
203	0xbeee22d9	-0.46510962
204	0xbef4738d	-0.47744408
205	0xbe51fcf6	-0.20506653
206	0xbe92d783	-0.28680047
207	0x3e89460e	0.2681126
208	0x3e923e09	0.28562954
209	0x3e80cae0	0.2515478
210	0x3e5b4b44	0.2141543
211	0x3df2662c	0.11835894
212	0xbd8027d3	-0.06257596
213	0xbe7a7c6a	-0.24461523
214	0xbe5b6a9e	-0.2142739
215	0xbe398d44	-0.18120295
216	0xbea51721	-0.32244208
217	0xbdc2a896	-0.095048115
218	0x3ece7e9b	0.40330967
219	0x3e01ceef	0.12676595
220	0x3e8739d4	0.26411307
221	0x3ecc6df0	0.39927626
222	0x3d5af1c7	0.053453233
223	0xbecb7996	-0.397412
224	0xbf487076	-0.782966
225	0xbeb4559f	-0.35221574
226	0xbf191f45	-0.5981334
227	0xbef0e29a	-0.47047883
228	0xbedbc63b	-0.42924675
229	0xbeaa8644	-0.33305562
230	0xbe22966e	-0.15877697
231	0x3e9161ac	0.2839483
232	0x3e826e86	0.25474948
233	0x3ec03c69	0.3754609
234	0x3e66d23e	0.22541139
235	0xbe128db1	-0.14311863
236	0xba86dee3	-0.0010289814
237	0xbe784cf2	-0.24248102
238	0xbe008b6b	-0.12553184
239	0x3df41d8b	0.119196974
240	0x3e3ce6ec	0.18447465
241	0x3e93d690	0.28874636
242	0x3d90f0b4	0.070771605
243	0x3d9bd60b	0.07609185
244	0xbd2c4996	-0.042062365
245	0xbf0d24b3	-0.55134124
246	0xbe8573cf	-0.26064917
247	0xbf18e2b4	-0.5972092
248	0xbee229e6	-0.4417259
249	0xbeea2243	-0.45729265
250	0xbf2f2bec	-0.68426394
251	0xbf2282be	-0.63480747
252	0xbefd3d2e	-0.4946074
253	0xbf25fe32	-0.64840996
254	0xbf1379f3	-0.57607955
255	0xbeb2fc06	-0.34957904

model.input_block.bn1.weight f4 [40]
0	0x3f9e60f2	1.2373335
1	0x3fadce2c	1.3578544
2	0x3fb64671	1.4240247
3	0x3f9e7497	1.237933
4	0x3fa49f0a	1.2861035
5	0x3fa4ffc6	1.2890556
6	0x3fb75a23	1.4324383
7	0x3f91c719	1.1388885
8	0x3fb5008b	1.4140791
9	0x3fb2c077	1.3964986
10	0x3fcfd606	1.623719
11	0x3fd73551	1.6813146
12	0x3fa024ce	1.2511232
13	0x3f715c2b	0.9428126
14	0x3f94e043	1.1630939
15	0x3fbda6e9	1.4816562
16	0x3fa3036b	1.2735418
17	0x3f9fa894	1.2473321
18	0x3faadb63	1.3348202
19	0x3fa1d70d	1.2643753
20	0x3fa6973a	1.3014901
21	0x3fb08fff	1.3793944
22	0x3fac67bc	1.3469157
23	0x3f93bada	1.1541398
24	0x3fa49cae	1.2860315
25	0x3f9d21b8	1.2275915
26	0x3faa03a1	1.3282357
27	0x3fa6b145	1.3022848
28	0x3fa5ded1	1.2958623
29	0x3fc17907	1.511506
30	0x3fa543de	1.2911336
31	0x3fb351fd	1.4009396
32	0x3c07eca3	0.008296165
33	0x3fb049c3	1.377251
34	0x3f90e0b7	1.1318578
35	0x3f9d151e	1.227207
36	0x3fabbff5	1.3417956
37	0x3f9d7ca0	1.2303658
38	0x3f9e3e4e	1.2362764
39	0x3fb2e5dc	1.3976398

model.input_block.bn1.bias f4 [40]
0	0xbe6ab996	-0.22922358
1	0xbd535e8f	-0.05160385
2	0xbb278b2e	-0.0025565135
3	0xbd4832c1	-0.048876528
4	0x3d141b59	0.036158893
5	0x3e222867	0.15835725
6	0xbe80c010	-0.25146532
7	0xbfa762d1	-1.3077031
8	0xbd869f1c	-0.065733165
9	0xbd95142e	-0.072792396
10	0x3d5ef606	0.054433845
11	0x3e786db8	0.24260604
12	0x3e9b8951	0.30378202
13	0xc0062e62	-2.096581
14	0x3fa7dc5f	1.3114127
15	0xbdf034eb	-0.11728843
16	0x3f9e8793	1.2385124
17	0xbf23d2ab	-0.6399333
18	0xbd2f4516	-0.042790495
19	0xbccedfc3	-0.025253182
20	0xbcbd4d46	-0.023108136
21	0x3d082103	0.033234607
22	0x3ca8cd0c	0.020605586
23	0xbfe0344f	-1.7515963
24	0xbd291ffe	-0.041290276
25	0x3d09d878	0.033653706
26	0x3d062eff	0.032759663
27	0xbc7ca278	-0.015419595
28	0xbd8f584b	-0.069992624
29	0x3eb97ae8	0.36226583
30	0xba9e1bd2	-0.0012062734
31	0xbe1775cf	-0.14791034
32	0x402b3f17	2.6757257
33	0x3eb15f22	0.34642893
34	0xbfbf0c23	-1.4925579
35	0xbe0102e9	-0.12598766
36	0x3d39d47a	0.04536865
37	0xb9baf315	-0.00035657795
38	0x3c93c333	0.018037414
39	0xbe9208bf	-0.28522298

model.input_block.bn1.running_mean f4 [40]
0	0xb6483710	-2.9834373e-06
1	0xb5823b2a	-9.702974e-07
2	0xb6fc1d21	-7.5135763e-06
3	0xb5406696	-7.1674856e-07
4	0xb6b41b6b	-5.36761e-06
5	0xb60e5293	-2.1207713e-06
6	0x36916493	4.333045e-06
7	0x3672378d	3.6093145e-06
8	0x3627c419	2.4999083e-06
9	0x35a109e8	1.1998318e-06
10	0xb480941c	-2.3949622e-07
11	0x36a0a5f3	4.7876906e-06
12	0x35294b7a	6.306724e-07
13	0x36c09547	5.739424e-06
14	0x365f37af	3.3262002e-06
15	0x378bc9ea	1.6664115e-05
16	0x36d264fe	6.2702447e-06
17	0xb6408d46	-2.8692461e-06
18	0xb584cc20	-9.894175e-07
19	0x358d348c	1.0520612e-06
20	0x35973ed0	1.1268658e-06
21	0xb51b5d9f	-5.7878236e-07
22	0xb711e4fc	-8.695988e-06
23	0x354a08d0	7.526369e-07
24	0xb6f68034	-7.346296e-06
25	0xb63b2587	-2.7887015e-06
26	0xb6a00c1e	-4.769782e-06
27	0x3595b867	1.1155033e-06
28	0xb5e7dbbf	-1.7274796e-06
29	0x367c0092	3.7551258e-06
30	0x3668b07b	3.467342e-06
31	0xb717b2bb	-9.041915e-06
32	0xb4197ffb	-1.4295794e-07
33	0xb7450e22	-1.1745406e-05
34	0xb60dd709	-2.1135804e-06
35	0x3652875f	3.1371235e-06
36	0x351f4b64	5.9341824e-07
37	0xb514a278	-5.537072e-07
38	0xb5a76196	-1.2470871e-06
39	0xb7882219	-1.6228341e-05

model.input_block.bn1.running_var f4 [40]
0	0x3c7dce7e	0.015491126
1	0x3d138edb	0.03602491
2	0x3d64edaf	0.055890735
3	0x3c88ed4e	0.016714718
4	0x3ccd4684	0.025058039
5	0x3d1ab062	0.037765868
6	0x3d832d37	0.064051084
7	0x3be12f3b	0.0068720854
8	0x3ce93c86	0.028471243
9	0x3d386ed8	0.045027584
10	0x3dc00394	0.093756825
11	0x3d299a68	0.04140702
12	0x3c31e253	0.010857183
13	0x3a49fb9d	0.0007705035
14	0x3c7186da	0.014741624
15	0x3d9784f6	0.07398407
16	0x3c93cc30	0.0180417
17	0x3c6e4e78	0.014545076
18	0x3d17fd6f	0.037106927
19	0x3c9b5e47	0.018965853
20	0x3caab190	0.020836622
21	0x3d68cc76	0.056835614
22	0x3cfaeb48	0.030629769
23	0x3b0fa990	0.0021921135
24	0x3d14e7bf	0.036353823
25	0x3c52bc90	0.01286234
26	0x3cb3352d	0.021875942
27	0x3c96bf95	0.0184019
28	0x3cf7c96a	0.030247409
29	0x3da07c9b	0.078362666
30	0x3c898315	0.016786138
31	0x3d507efa	0.050902344
32	0x3807b314	3.2353288e-05
33	0x3d01855d	0.031621326
34	0x3bf1ac12	0.0073752487
35	0x3c7bf1c1	0.015377463
36	0x3d12ed90	0.03587109
37	0x3c52ebfd	0.012873647
38	0x3caa13cb	0.020761391
39	0x3d33e31d	0.043917764

model.input_block.spat_conv.weight f4 [40, 1, 24, 1]
0	0xbe38f359	-0.1806158
1	0xbe32aaa4	-0.17447907
2	0xbd039f67	-0.03213444
3	0xbd4d722d	-0.050157715
4	0xbdc46961	-0.09590412
5	0x3dec5362	0.115393415
6	0xbeab0144	-0.33399403
7	0xbe87d1ad	-0.26527157
8	0xbc2319b0	-0.009954855
9	0xbaa1bd54	-0.0012339749
10	0x3b6dd2fc	0.0036289087
11	0x3dbf1813	0.09330764
12	0xbda22ba8	-0.07918483
13	0xbef3e9d7	-0.47639343
14	0xbf1366ab	-0.57578534
15	0x3dd4c450	0.10389006
16	0xbd94462b	-0.07239946
17	0xbe041dd9	-0.12902011
18	0xbe75bc95	-0.2399772
19	0xbc70ae13	-0.01468994
20	0x3e575f0b	0.2103235
21	0xbe8520fe	-0.26001734
22	0xbed64149	-0.41846684
23	0x3d78ff83	0.06079055
24	0x3dfe33ac	0.124121994
25	0x3db3cbd1	0.08779109
26	0x3da13257	0.0787093
27	0x3d8fa801	0.07014466
28	0x3d8f3794	0.069930226
29	0x3dabff5c	0.08398315
30	0x3da86655	0.08222643
31	0x3e8968df	0.26837823
32	0x3dc76c04	0.09737399
33	0xbcff0fe7	-0.031135513
34	0xbd08a74e	-0.03336268
35	0x3d781b62	0.06057299
36	0xbca78a97	-0.020451827
37	0xbf2401fa	-0.64065516
38	0xbf389888	-0.72107744
39	0x3e696338	0.22791755
40	0x3db07d2a	0.08617623
41	0x3e52aaa3	0.20572905
42	0x3c2c940f	0.010533347
43	0x3db02e08	0.0860253
44	0x3e278102	0.16357806
45	0xbcd41c01	-0.02589226
46	0x3e185782	0.14877132
47	0x3e6a74ab	0.22896068
48	0x3d13ba67	0.03606644
49	0x3db7dfb3	0.08978214
50	0xbd9a3a0c	-0.07530603
51	0xbdc39786	-0.09550385
52	0x3d9a1231	0.07523001
53	0x3e36958a	0.17830482
54	0xbc943640	-0.018092275
55	0xbd993f95	-0.074828304
56	0x3e2a7627	0.16646634
57	0xbe3ccee2	-0.18438295
58	0xbe9cd545	-0.30631462
59	0x3be69245	0.0070364797
60	0xbd92df44	-0.07171491
61	0x3f1f20d5	0.6215947
62	0x3f4a8e7d	0.7912367
63	0x3aff255f	0.0019466094
64	0xbe1d63eb	-0.15370147
65	0xbecf608b	-0.40503344
66	0xbef517a8	-0.4786961
67	0xbe86e99f	-0.26350114
68	0xbd838330	-0.064215064
69	0x3e77d9ff	0.24204253
70	0x3e70133a	0.23444834
71	0xbcf0b90e	-0.029385116
72	0xbc541634	-0.012944747
73	0xbd694f5c	-0.05696045
74	0x3e85d255	0.26137033
75	0xbe302811	-0.17202784
76	0xbd98d71f	-0.07462906
77	0x3d1a1db9	0.037626002
78	0x3c8deb3f	0.017324088
79	0x3ddaccf8	0.10683626
80	0x3e3560e4	0.17712742
81	0xbe81c121	-0.25342658
82	0xbf025bd7	-0.50921386
83	0x3bc51ada	0.006015164
84	0x3e1f5bb5	0.15562327
85	0xbdc30806	-0.09523015
86	0xbd03a706	-0.032141708
87	0xbca713d2	-0.020395193
88	0x3ce5bd43	0.028044349
89	0xbddf6719	-0.10908336
90	0xbf1c5857	-0.61072296
91	0x3e896cc4	0.26840794
92	0xbdc584de	-0.09644483
93	0x3cf75c1d	0.03019529
94	0x3d5a25bf	0.053258654
95	0xbe385126	-0.17999706
96	0x3e689161	0.22711708
97	0xbd08ed98	-0.033429712
98	0x3e15163c	0.14559263
99	0x3e6d0627	0.23146878
100	0x3db6a689	0.08918483
101	0xbcc06ed3	-0.023490345
102	0xbe15688f	-0.14590667
103	0xbe02278c	-0.12710398
104	0x3cfdb758	0.030971214
105	0xbd115bbd	-0.03548788
106	0xbf344d36	-0.70430315
107	0xbe790d36	-0.24321446
108	0x3e14d279	0.14533414
109	0xbd68a466	-0.056797408
110	0xbd02b0e3	-0.031906974
111	0xbd8330ec	-0.064058155
112	0x3d3b66d7	0.045752373
113	0x3e47f7f7	0.19528185
114	0xbf1acddb	-0.6047036
115	0xbe5fe9d7	-0.21866547
116	0x3e581cc5	0.21104725
117	0xbda7609f	-0.08172726
118	0x3e521b7e	0.205183
119	0xbd968192	-0.07348932
120	0xbe1a3faa	-0.15063348
121	0xbe330b7a	-0.17484847
122	0xbcc30612	-0.023806605
123	0xbdeed99b	-0.11662599
124	0xbcc88481	-0.024477245
125	0x3e4e55ca	0.20149913
126	0x3e09736c	0.13422936
127	0x3c805a9d	0.015668208
128	0x3d4990ed	0.049210478
129	0xbdda7949	-0.106676646
130	0x3dcb659c	0.0993149
131	0xbd78e8a4	-0.06076874
132	0xbd09ebec	-0.03367226
133	0x3e2bc88e	0.16775724
134	0xbf2fe98b	-0.68715733
135	0xbdfce89a	-0.12349053
136	0x3e0dc777	0.13845621
137	0x3d8b8d5c	0.068140715
138	0x3eadc24f	0.33937308
139	0xbd7771f3	-0.060411405
140	0xbdadfa06	-0.08494954
141	0xbe122819	-0.14273109
142	0xbf4b8da3	-0.79512995
143	0x3a2360dd	0.00062323903
144	0x3d0c19ea	0.0342044
145	0xbd980e27	-0.07424574
146	0xbdbd5c02	-0.09246065
147	0xbebe6e53	-0.37193546
148	0xbdef53c1	-0.11685897
149	0x3db8600e	0.09002696
150	0x3eb57b94	0.35445845
151	0xbe815288	-0.2525828
152	0xbe900aca	-0.2813323
153	0x3e092977	0.13394724
154	0x3c0e83d9	0.008698427
155	0xbf055f8c	-0.5209892
156	0xbd92debf	-0.07171392
157	0x3ea4d45f	0.32193276
158	0xbf24c97d	-0.64369947
159	0xbdc6124a	-0.09671457
160	0xbe4b982c	-0.19882268
161	0x3d14ff24	0.036376134
162	0x3ea4c1a9	0.32179
163	0x3e1571d7	0.14594208
164	0x3bc44469	0.0059896004
165	0xbea34e80	-0.31895828
166	0xbf2afffa	-0.6679684
167	0xbe0057de	-0.12533519
168	0xbf61bc95	-0.8817838
169	0xbf710a46	-0.941563
170	0xbf839206	-1.0278938
171	0xbf352387	-0.70757335
172	0xbf740c73	-0.95331496
173	0xbf739cdd	-0.9516123
174	0xbf656b04	-0.8961642
175	0xbf61e081	-0.8823319
176	0xbf3dcb9f	-0.74138826
177	0xbf821562	-1.0162776
178	0xbfa2eaa3	-1.2727855
179	0xbf88bb7b	-1.0682214
180	0xbf5137dc	-0.8172586
181	0xbf7f1945	-0.99647933
182	0xbf1881b3	-0.59572905
183	0xbf65d5e7	-0.89779514
184	0xbf8a8d56	-1.0824382
185	0xbf5f3e8b	-0.8720481
186	0xbf91fdf2	-1.1405623
187	0xbf33adee	-0.7018727
188	0xbeff9de8	-0.4992516
189	0xbf83c2f4	-1.029387
190	0xbf36f7d6	-0.7147192
191	0xbf6a87c1	-0.91613394
192	0x3ddd3fae	0.108031616
193	0x3df353d1	0.11881221
194	0x3e0d76f3	0.13814907
195	0x3dc3621d	0.09540198
196	0x3e42a5de	0.19008586
197	0x3e8059c1	0.25068477
198	0x3e201601	0.15633394
199	0x3e94ad71	0.29038575
200	0x3dc7ac94	0.097497135
201	0x3d50037b	0.05078457
202	0x3e17d9cd	0.14829178
203	0x3da01132	0.0781578
204	0x3ddcbe44	0.10778478
205	0xbed7640f	-0.42068526
206	0xbf6e8677	-0.9317393
207	0x3dfd3edc	0.12365505
208	0xbbba01d5	-0.005676488
209	0x3d8adf17	0.06780832
210	0x3d895eba	0.06707521
211	0x3db8346d	0.089943744
212	0x3d4cfb24	0.050044194
213	0xbe030e11	-0.12798335
214	0xbf215671	-0.63022524
215	0x3e903e94	0.28172743
216	0x3d20718e	0.039170794
217	0xbbdc19fc	-0.0067169648
218	0x3c99dced	0.018782103
219	0xbd316278	-0.043306798
220	0xbe1e3d57	-0.15453087
221	0xbebde8d5	-0.370917
222	0xbe5d445b	-0.21608107
223	0x3d893d45	0.06701139
224	0x3d676357	0.056491222
225	0x3e1880f3	0.1489294
226	0x3e46926e	0.19391796
227	0x3d970427	0.07373839
228	0xbdd6c722	-0.104872
229	0xbefab050	-0.4896264
230	0x3f2532d6	0.64530694
231	0x3e87e60e	0.26542705
232	0x3d5427e0	0.05179584
233	0xbd1578dd	-0.036492217
234	0x3e5bb9dc	0.21457618
235	0x3db242a8	0.0870412
236	0xbbd56ab4	-0.006512964
237	0x3dbde278	0.09271711
238	0x3f3cd2f1	0.7375937
239	0xbd947b93	-0.072501324
240	0xbe39e4e3	-0.1815372
241	0xbcc4efaa	-0.024040062
242	0xbc8d7c67	-0.017271234
243	0xbd22327d	-0.03959893
244	0xbe7fa219	-0.24964179
245	0xbf099e81	-0.5375748
246	0xbebf7756	-0.37395734
247	0xbe0c1982	-0.13681605
248	0x3cc93f8e	0.024566438
249	0x3d4e47d1	0.05036146
250	0x3f24e2d0	0.6440859
251	0x3c913bbf	0.017728684
252	0xbe298298	-0.16553724
253	0xbea975a0	-0.33097553
254	0x3f497234	0.78689885
255	0x3e6d35f3	0.23165111

model.input_block.bn2.weight f4 [40]
0	0x3f9de36f	1.2335032
1	0x3fadbbba	1.3572915
2	0x3fb62937	1.4231328
3	0x3f9e57fa	1.2370598
4	0x3fa49449	1.2857753
5	0x3fa50275	1.2891375
6	0x3fb7220c	1.4307265
7	0x3f98e1e5	1.1943938
8	0x3fb52c81	1.4154207
9	0x3fb2c451	1.3966161
10	0x3fcf9e81	1.6220247
11	0x3fd6fcf7	1.6795949
12	0x3f9fd1ea	1.2485936
13	0x3f8c2033	1.0947326
14	0x3f9cf5ef	1.2262553
15	0x3fbd8b33	1.4808105
16	0x3fa696e3	1.3014797
17	0x3f9fc647	1.2482384
18	0x3fab09d9	1.336238
19	0x3fa1c1ee	1.2637308
20	0x3fa68096	1.3007991
21	0x3fb094b6	1.3795383
22	0x3fac5ad6	1.3465221
23	0x3faca064	1.3486447
24	0x3fa489a9	1.285451
25	0x3f9d16b9	1.227256
26	0x3faa075b	1.3283495
27	0x3fa6adad	1.3021752
28	0x3fa5f988	1.2966776
29	0x3fc0ae49	1.5053188
30	0x3fa55311	1.2915975
31	0x3fb322f3	1.3995041
32	0x3fe8368d	1.8141648
33	0x3fb04c96	1.3773372
34	0x3f998f38	1.1996832
35	0x3f9c9ee7	1.2235993
36	0x3fabc814	1.3420434
37	0x3f9d82e9	1.2305576
38	0x3f9e4dcb	1.236749
39	0x3fb25ed0	1.3935184

model.input_block.bn2.bias f4 [40]
0	0x3e4a74fa	0.19771186
1	0xbd18df45	-0.0373223
2	0x3b8d51e0	0.004312739
3	0x3d5ab2dc	0.05339323
4	0xbd2abea2	-0.041685708
5	0xbe433647	-0.19063674
6	0x3e65b5c1	0.22432615
7	0x3f6d95d2	0.9280673
8	0xbe1b641f	-0.15174912
9	0xbd99e9e2	-0.07515313
10	0x3db7ea51	0.08980239
11	0x3e9eb1e9	0.3099511
12	0x3e8b3d6c	0.271953
13	0x3fdf2d2d	1.7435662
14	0x3f7f8f2a	0.99827826
15	0x3e0dbbc9	0.13841166
16	0x3f6f8fe4	0.93578935
17	0x3f05d0e3	0.5227186
18	0x3d043aa8	0.0322825
19	0x3d02eb81	0.031962875
20	0xbcef1c21	-0.029188218
21	0xbd2b4595	-0.041814405
22	0x3dc90e7e	0.09817217
23	0x3fd1688f	1.6360034
24	0xbdd9a149	-0.10626466
25	0xbd1bb530	-0.03801459
26	0x3d1b359e	0.03789293
27	0xbd678b68	-0.056529433
28	0xbd8b345f	-0.06797098
29	0x3e9a2a1a	0.30110246
30	0xbd0f56e2	-0.034994967
31	0x3e4e18af	0.20126604
32	0xbf8d7e59	-1.1054183
33	0x3e94d0f9	0.29065683
34	0x3f844000	1.0332031
35	0xbe14b292	-0.14521244
36	0x3ddcff22	0.1079085
37	0x3d193359	0.037402485
38	0xbc84f29a	-0.016228963
39	0x3e6baa5a	0.23014203

model.input_block.bn2.running_mean f4 [40]
0	0x3f25aec9	0.64719826
1	0xbd15f6ff	-0.036612507
2	0xba8f65b9	-0.001094035
3	0x3d59bc96	0.053158365
4	0xbd05fa56	-0.032709442
5	0xbe5eaec1	-0.21746351
6	0x3f195b12	0.5990459
7	0x41e1f9a2	28.246891
8	0xbcd4a5de	-0.025957998
9	0xbdb06774	-0.08613482
10	0x3d483d33	0.04888649
11	0x3f1b5f09	0.6069189
12	0x3f822a1d	1.0169102
13	0x428b047e	69.50877
14	0x4200b5be	32.177483
15	0x3dc03e35	0.09386865
16	0x41ba0f3a	23.257435
17	0x40e0978e	7.0185003
18	0xbcf25ccf	-0.02958527
19	0x3c2f35eb	0.010694007
20	0xbc92c7ca	-0.017917532
21	0xbd01f857	-0.031730976
22	0x3bbc3118	0.005743157
23	0x426e1b94	59.52693
24	0x3bfb864c	0.0076759215
25	0xbc10c967	-0.008837081
26	0xbc1fddc3	-0.009757462
27	0xb8c29a75	-9.279411e-05
28	0xbd25acbd	-0.04044794
29	0x3fbdf0ef	1.4839152
30	0x3a070e36	0.0005151959
31	0x3dc31dfd	0.09527204
32	0xc303268e	-131.1506
33	0x3f8701cb	1.0547422
34	0x420e9315	35.643635
35	0xbe94b717	-0.29045936
36	0x3d42cdef	0.047559675
37	0x38ad3c65	8.260532e-05
38	0xbc0b8576	-0.008515706
39	0x3f31e8bf	0.6949577

model.input_block.bn2.running_var f4 [40]
0	0x3fffc876	1.9983051
1	0x40532095	3.2988636
2	0x407b8dd6	3.930532
3	0x3fc925fb	1.5714716
4	0x40186549	2.381182
5	0x402e3c37	2.7224252
6	0x408808f0	4.251091
7	0x41f6cc30	30.8497
8	0x4093396e	4.6007605
9	0x4062a8b6	3.5415473
10	0x40f24fde	7.5722494
11	0x410a7851	8.654374
12	0x40094e1c	2.1453924
13	0x4219c39b	38.44102
14	0x41e6bc83	28.842047
15	0x408412b1	4.1272817
16	0x4202c89c	32.695908
17	0x40e1d5c1	7.057343
18	0x4038e5d7	2.8890283
19	0x401bb8c5	2.4331524
20	0x4063e6fa	3.5609727
21	0x404f0de3	3.2352226
22	0x4026d4d5	2.6067402
23	0x42ac5524	86.16629
24	0x3febf398	1.8433714
25	0x3fb96622	1.4484293
26	0x406518fb	3.5796497
27	0x40443ea5	3.0663235
28	0x40394255	2.8946736
29	0x40a8ebb2	5.2787714
30	0x4015a6f7	2.3383157
31	0x406eb60e	3.7298617
32	0x3bf4e329	0.0074733687
33	0x408462e0	4.1370697
34	0x42131ad8	36.776215
35	0x401e12fe	2.4699092
36	0x403fd39e	2.997291
37	0x3fc0d4ad	1.5064903
38	0x3fe019e4	1.7507901
39	0x403a1953	2.9077957

model.channel_expansion.conv.weight f4 [16, 40, 1, 1]
0	0x3e7f8d31	0.24956204
1	0x3e0d7d25	0.1381727
2	0xbd89cbc1	-0.06728316
3	0x3e2a8132	0.16650847
4	0x3dc19e20	0.09453988
5	0x3e650e24	0.22368675
6	0xbe6bc3a5	-0.23023851
7	0x3d287568	0.041127592
8	0x3e318a21	0.17337848
9	0xbecf3338	-0.40468764
10	0xbf515986	-0.81777227
11	0x3e172ce3	0.14763217
12	0x3e065fd0	0.13122487
13	0x3d9a9cd9	0.075494476
14	0x3e004f8e	0.12530348
15	0xbed1b809	-0.4096072
16	0x3e62c5a0	0.221457
17	0x3e630ff6	0.22174057
18	0x3e56acbc	0.2096433
19	0xbd3c5eaa	-0.045988716
20	0x3d8acf96	0.06777875
21	0xbf147077	-0.5798411
22	0x3e64e598	0.22353208
23	0x3e16db18	0.14732015
24	0xbd31aef1	-0.043379728
25	0x3ac2bdd3	0.0014857597
26	0x3e15bfca	0.14623943
27	0xbe2eb514	-0.17061263
28	0xbd51db0d	-0.051234294
29	0x3ecb4674	0.3970219
30	0xbde9d19e	-0.114169344
31	0x3c3f51c3	0.011677208
32	0xbdf284c4	-0.11841729
33	0x3da6df3a	0.08148046
34	0x3d949c50	0.07256377
35	0x3d438316	0.047732435
36	0x3e37534f	0.17902873
37	0x3dfab5db	0.122417174
38	0x3d3326d9	0.04373822
39	0x3e9c4f52	0.30529267
40	0xbd1bb509	-0.038014445
41	0xbe5e3d59	-0.2170309
42	0x3dbbd937	0.0917229
43	0x3e5c0f71	0.21490265
44	0x3e71c52a	0.23610368
45	0xbdbdefe0	-0.09274268
46	0xbd49fa01	-0.049310688
47	0x3d9d2a92	0.07674135
48	0xbe572a2e	-0.21012184
49	0xbe847ab8	-0.25874877
50	0xbf591868	-0.84802866
51	0xbd225e4d	-0.039640713
52	0xbdb89cd8	-0.090142906
53	0x3c4c3385	0.012463455
54	0x3d90f886	0.07078652
55	0xbe8aee7c	-0.27135074
56	0x3c40a510	0.011758104
57	0x3de516db	0.11186
58	0xbdafa3fd	-0.085762
59	0x3e24a937	0.16080175
60	0xbd705b12	-0.0586806
61	0xbec4baf4	-0.38423884
62	0x3ddc66fe	0.10761832
63	0xbdd09c7c	-0.10186097
64	0x3ecd20bf	0.40064046
65	0x3eaa412c	0.33252847
66	0x3e983321	0.29726508
67	0xbbb43315	-0.0054992535
68	0x3e378752	0.17922714
69	0x3e4db49f	0.20088433
70	0x3e5d1ac9	0.21592249
71	0x3e854824	0.260316
72	0xbd5c03c6	-0.053714536
73	0x3cb295f0	0.021800011
74	0xbd1e87be	-0.038703673
75	0x3eb2e279	0.3493841
76	0xbe0eed92	-0.13957813
77	0xbe2296ae	-0.15877792
78	0x3e75b844	0.23996073
79	0xbde5e86f	-0.11225974
80	0x3c4eaba7	0.012614167
81	0x3e78adfa	0.24285117
82	0x3ea6259f	0.32450578
83	0x3ecb81b3	0.3974739
84	0x3efc1a43	0.49238786
85	0xbebf882b	-0.37408575
86	0x3f29a33c	0.662647
87	0x3e6b2b74	0.22965795
88	0xbe47b33d	-0.19501968
89	0x3e49bc4f	0.1970074
90	0x3d747431	0.05968112
91	0xbe0cb802	-0.13742068
92	0x3e61d031	0.22052075
93	0x3ebf3cb3	0.37350997
94	0x3e66e7e4	0.22549397
95	0x3e90a955	0.2825419
96	0x3edff469	0.43741158
97	0x3e8dc1a3	0.27686796
98	0xbe042865	-0.12906034
99	0x3ec73a52	0.38911682
100	0x3e669a67	0.22519837
101	0x3eb4049d	0.3515977
102	0xbe37ddab	-0.17955653
103	0x3ec4e0b6	0.3845269
104	0xbea0a9e4	-0.31379616
105	0x3e173e9b	0.14769976
106	0x3e12e206	0.14344034
107	0x3e77a3a2	0.24183515
108	0xbe38832f	-0.18018793
109	0x3e1ab0e4	0.15106541
110	0x3e80cb02	0.25154883
111	0x3f2f6e16	0.6852735
112	0xbf3a2812	-0.7271739
113	0x3f5c39dd	0.8602579
114	0x3ee73e4f	0.45164725
115	0x3d862185	0.06549362
116	0x3e360340	0.17774677
117	0x3d9f8a93	0.07790103
118	0x3eefc5cb	0.46830592
119	0xbea3499c	-0.31892097
120	0xbd2db2fc	-0.04240702
121	0xbe413181	-0.1886654
122	0xbe6fb697	-0.23409496
123	0x3e6f3c13	0.2336276
124	0x3d739ce9	0.059475813
125	0xbdcdcab5	-0.10048429
126	0xbd5518f3	-0.052025747
127	0x3dd43288	0.103612006
128	0xbe8d4c4b	-0.2759727
129	0xbe4b53b6	-0.19856152
130	0xbe59a7e2	-0.21255448
131	0xbe3f9172	-0.18707827
132	0x3e1335dc	0.14376014
133	0xbe031873	-0.12802295
134	0xbcc225ba	-0.02369963
135	0xbda68d86	-0.08132462
136	0x3d62a094	0.05532892
137	0x3d82c09f	0.06384396
138	0xbe3ba291	-0.18323733
139	0x3e739b0c	0.23789614
140	0xbe863d82	-0.26218802
141	0xbdc59e60	-0.09649348
142	0xbdbabb91	-0.09117807
143	0xbcf1ad5d	-0.029501611
144	0x3e8fa27b	0.2805365
145	0x3e8c4048	0.27392793
146	0x3e0b7e16	0.13622317
147	0x3c9a05a5	0.01880152
148	0x3e8ed4ca	0.2789672
149	0x3cf4b155	0.029869715
150	0x3e232e4e	0.15935633
151	0x3cdabefe	0.0267024
152	0x3af29a60	0.0018509142
153	0x3e3558de	0.17709681
154	0x3d509226	0.050920628
155	0x3e2222b7	0.15833555
156	0xbe224bbf	-0.15849207
157	0xbdf672e9	-0.12033636
158	0x3e3e448d	0.18580838
159	0xbbf6376d	-0.0075139315
160	0x3df1054a	0.11768587
161	0x3ebdcaad	0.37068692
162	0xbf514856	-0.81751
163	0x3d127554	0.035756424
164	0x3d297cb1	0.04137868
165	0x3e605d5c	0.21910614
166	0x3e796b13	0.24357252
167	0x3e6fff57	0.23437248
168	0x3ef8953b	0.48551354
169	0x3d742af6	0.059611283
170	0x3c9f564b	0.019450327
171	0x3db49791	0.088179715
172	0xbc979b7a	-0.018506754
173	0x3e27f6d3	0.1640275
174	0x3ce80957	0.028324766
175	0x3e1346c8	0.1438247
176	0x3e4d583b	0.20053189
177	0xbc89891f	-0.016789017
178	0x3ea4e7e7	0.32208177
179	0x3c4b123f	0.012394487
180	0x3ca558a4	0.020183869
181	0x3eabd490	0.3356061
182	0x3d874dde	0.06606649
183	0x3c5850f7	0.013202897
184	0xbe67db29	-0.22642197
185	0xbd6ae3aa	-0.057346024
186	0x3dc8cb25	0.09804372
187	0xbdd96574	-0.10615054
188	0xbe432b3d	-0.19059463
189	0x3d453f82	0.04815627
190	0x3db073ee	0.08615862
191	0x3e3db259	0.18525065
192	0xbddf74dc	-0.10910961
193	0x3dae2148	0.08502442
194	0x3de50821	0.11183191
195	0xbe307143	-0.17230706
196	0x3e921eb9	0.28539065
197	0xbcacfe34	-0.021117307
198	0x3d44186a	0.047874846
199	0x3e1627dc	0.14663643
200	0x3ed40c9f	0.4141588
201	0x3ea1b3c6	0.3158247
202	0x3d70f05d	0.05882298
203	0x3eeb61fb	0.4597319
204	0x3f6df0da	0.92945635
205	0xbf66082f	-0.8985624
206	0x3f3278dc	0.69715667
207	0x3f159e4d	0.5844467
208	0xbd0ad229	-0.03389183
209	0x3f13e996	0.577783
210	0x3eb62fe0	0.355834
211	0xbf0eb27b	-0.5574109
212	0x3eda5256	0.42640942
213	0x3f355297	0.7082915
214	0x3ee531ac	0.4476446
215	0x3f164625	0.5870078
216	0x3f351aab	0.7074382
217	0x3ee02eca	0.43785697
218	0xbef38af6	-0.47566956
219	0x3ea741c0	0.3266735
220	0x3e84bd17	0.25925514
221	0x3eff7352	0.4989267
222	0xbd7ffe9a	-0.062498666
223	0x3f07a82d	0.5299099
224	0xbe569462	-0.20955041
225	0x3e42c527	0.1902052
226	0x3eedd316	0.46450108
227	0x3ea341e8	0.3188622
228	0x3de97a2a	0.11400254
229	0xbdc2b254	-0.0950667
230	0x3ed0a076	0.40747422
231	0x3f6886ef	0.9083089
232	0xbf447dd1	-0.7675448
233	0x3f699a60	0.9125118
234	0x3f110b92	0.5665828
235	0x3de704e9	0.112802334
236	0x3e96ae15	0.2942969
237	0x3e9baf9f	0.30407426
238	0x3f21a0ef	0.6313619
239	0xbdf6472b	-0.12025293
240	0x3deb2c9d	0.11483119
241	0xbe174884	-0.14773756
242	0x3dd4a012	0.103820935
243	0x3e3fbf81	0.18725397
244	0xbed6a398	-0.41921687
245	0x3db76cfe	0.089563355
246	0xbda065dd	-0.07831929
247	0x3d9a6acc	0.07539901
248	0xbe8fad34	-0.2806183
249	0xbda71590	-0.081584096
250	0x3e21f8c9	0.1581756
251	0x3d4d0a82	0.05005885
252	0x3e20e344	0.15711695
253	0xbd2a5531	-0.04158515
254	0x3e59703f	0.21234225
255	0x3e374d54	0.17900592

model.channel_expansion.bn.weight f4 [16]
0	0x3fa62b59	1.2981979
1	0x3fa918e8	1.3210726
2	0x3fec74af	1.8473109
3	0x3f9ae437	1.2100896
4	0x3fa01353	1.2505897
5	0x3fc0d12f	1.5063838
6	0x3f8c7371	1.097273
7	0x3f951a4d	1.1648651
8	0x3d6a05d6	0.05713447
9	0x3fa333ba	1.2750161
10	0x3f97cf90	1.1860218
11	0x3fc85204	1.5650029
12	0x3fbf75a8	1.4957781
13	0x3f9b52fc	1.21347
14	0x3fa417d5	1.2819773
15	0x3f9878a6	1.1911819

model.channel_expansion.bn.bias f4 [16]
0	0x3e3150f3	0.17316036
1	0xbd0eefed	-0.03489678
2	0x3ef750f8	0.48303962
3	0x3b73e857	0.0037217343
4	0x3e1a27ee	0.15054294
5	0x3f4feee2	0.8122388
6	0x3ddaab40	0.106771946
7	0x3cc63db4	0.024199344
8	0x3f7344e0	0.9502697
9	0x3ec40412	0.38284355
10	0x3e47b064	0.19500881
11	0x3f84e0c2	1.0381091
12	0x3f0485bf	0.5176658
13	0x3e2a6e66	0.16643676
14	0x3e084532	0.13307646
15	0xbd1a848d	-0.037724067

model.channel_expansion.bn.running_mean f4 [16]
0	0x3f997c1f	1.1991004
1	0xbd9b01ee	-0.075687274
2	0x40a0a939	5.020657
3	0xbe2eb1b5	-0.17059977
4	0x3fcda4a3	1.6065868
5	0x40f68594	7.703806
6	0x3f815358	1.010356
7	0x3f2fe1d0	0.6870394
8	0x4123973c	10.224422
9	0x403e5fdf	2.9746015
10	0x40104fac	2.2548628
11	0x40d24fab	6.572225
12	0x4091bc16	4.5542097
13	0x4014d6bb	2.325606
14	0x3fc15d29	1.5106555
15	0xbde9e095	-0.11419789

model.channel_expansion.bn.running_var f4 [16]
0	0x4122fa64	10.186131
1	0x40f16b1e	7.544326
2	0x418379da	16.434498
3	0x402c0f06	2.688417
4	0x4045c541	3.0901644
5	0x421f65c6	39.84939
6	0x3f9aed67	1.21037
7	0x3fc4b06e	1.5366342
8	0x41cc8051	25.562654
9	0x41203f83	10.015506
10	0x401f6857	2.4907434
11	0x42013253	32.299145
12	0x41a74f05	20.913584
13	0x40627654	3.5384722
14	0x406bd406	3.684816
15	0x40008ab8	2.0084667

model.fe.conv1.weight f4 [16, 1, 1, 15]
0	0x3e13de4c	0.14440268
1	0xbea71929	-0.32636383
2	0xbed580e6	-0.41699904
3	0xbef7959b	-0.48356327
4	0xbd8e7641	-0.06956149
5	0xbdea8151	-0.114504464
6	0xbe609776	-0.21932778
7	0xbef26915	-0.47345796
8	0xbde181ef	-0.11011111
9	0xbe99af81	-0.3001671
10	0xbee69964	-0.45038903
11	0xbe63f197	-0.22260128
12	0xbea85237	-0.32875225
13	0xbd89375b	-0.06700011
14	0xbf0b39ef	-0.54385275
15	0xbefe1789	-0.4962733
16	0xbeb9b29e	-0.36269087
17	0xbdcda179	-0.10040564
18	0x3ef5fe25	0.4804546
19	0x3be2d17f	0.0069219465
20	0xbec39d96	-0.38206166
21	0x3de2fed0	0.11083758
22	0x3efc9e9e	0.49339765
23	0x3c526c0c	0.012843143
24	0xbe83417b	-0.25635895
25	0xbe72cba2	-0.23710492
26	0x3ee4b052	0.44665772
27	0xbe7d2736	-0.24721989
28	0xbe9ada0b	-0.3024448
29	0xbd6f636e	-0.058444433
30	0x3e69ef18	0.22845113
31	0xbdb87313	-0.09006324
32	0xbf12d28c	-0.5735252
33	0xbd823d4e	-0.06359349
34	0x3e8e2a1c	0.27766502
35	0x3e881cfc	0.26584613
36	0xbf01cffe	-0.50707996
37	0x3cf03d4a	0.0293261
38	0x3e8a5f1a	0.27025682
39	0x3dd00338	0.10156864
40	0xbece217a	-0.40259916
41	0xbea87eda	-0.3290928
42	0x3e20d092	0.15704563
43	0x3e4e68fb	0.20157234
44	0xbe00ace7	-0.12565957
45	0x3f0c78ea	0.54872
46	0x3ebe868b	0.37212023
47	0x3e952347	0.29128477
48	0x3eb014f0	0.34390974
49	0x3e95e308	0.29274774
50	0x3ea6d411	0.3258367
51	0x3e87c86a	0.2652009
52	0x3eb7c50d	0.35892525
53	0x3c920be9	0.017827945
54	0x3e93be84	0.2885629
55	0x3e108610	0.14113641
56	0x3d884128	0.066530526
57	0x3e14b585	0.14522369
58	0x3edc898d	0.43073693
59	0x3ee2ba7c	0.442829
60	0x3c8f067b	0.017459145
61	0x3ed931bf	0.42420766
62	0x3ee1d34d	0.44106522
63	0x3e1f0e55	0.15532811
64	0x3dcba30a	0.099432066
65	0x3ec55d8a	0.38547927
66	0x3e9dc971	0.3081775
67	0x3dbb3b4c	0.09142169
68	0x3c169537	0.009190849
69	0x3e2dcc6f	0.16972516
70	0x3ea93196	0.33045644
71	0x3e7a38f4	0.24435788
72	0x3e2cc68d	0.16872616
73	0x3e0602a0	0.13086939
74	0xba4007bd	-0.0007325372
75	0x3e37ed42	0.179616
76	0x3dec504e	0.115387544
77	0xbee50bc4	-0.4473554
78	0xbef59e39	-0.47972277
79	0x3e730843	0.2373362
80	0xbe71986d	-0.23593302
81	0xbf2ba77e	-0.6705245
82	0xbf126bad	-0.5719555
83	0x3e721200	0.23639679
84	0xbd82adae	-0.06380783
85	0xbf02b00f	-0.51049894
86	0xbf52c3e3	-0.8233015
87	0xbe036091	-0.12829806
88	0x3eaa782a	0.33294803
89	0xbeee3728	-0.46526456
90	0x3ebef589	0.37296703
91	0x3e293654	0.16524631
92	0x3d237e65	0.03991546
93	0x3e352f88	0.17693913
94	0x3e6f1576	0.2334803
95	0x3de6eb05	0.11275295
96	0x3e9490ea	0.2901681
97	0xbced82af	-0.028992979
98	0x3e70c080	0.23510933
99	0x3e7ef35d	0.24897523
100	0x3e561ec6	0.20910177
101	0x3dcbd5f2	0.09952916
102	0x3e5244cd	0.20534058
103	0xbc239058	-0.009983145
104	0xbd1a21f8	-0.03763005
105	0xbedc01e7	-0.429702
106	0xbeebcfe4	-0.46057045
107	0xbe16cc7a	-0.14726439
108	0xbd1210e7	-0.03566065
109	0xbdfc8bd1	-0.12331355
110	0xbe9e9366	-0.3097183
111	0xbeaa4103	-0.33252725
112	0xbea44f0a	-0.32091552
113	0xbe55e22d	-0.2088706
114	0xbec058a8	-0.3756764
115	0xbea22e8c	-0.31676137
116	0xbe4a33cf	-0.19746326
117	0xbed5e878	-0.41778922
118	0xbed077c5	-0.40716377
119	0xbea48b52	-0.32137543
120	0xbf0063eb	-0.5015246
121	0xbe6f194e	-0.23349497
122	0xbf1e387b	-0.6180493
123	0xbe86a9d4	-0.26301444
124	0xbeab1db9	-0.33421114
125	0xbed9dd37	-0.42551586
126	0xbf279c4c	-0.65472865
127	0xbf49c34c	-0.78813624
128	0xbf1b764f	-0.607274
129	0xbdfbc887	-0.12294107
130	0xbf1264e4	-0.57185197
131	0xbf650e54	-0.8947499
132	0xbe7b5164	-0.24542767
133	0xbeb57959	-0.35444143
134	0xbf242bbc	-0.64129233
135	0x3eb36148	0.35035157
136	0x3dfd4c8b	0.12368115
137	0xbe676f1d	-0.2260098
138	0x3eafbe41	0.3432484
139	0x3f17b977	0.5926737
140	0x3eb3aa02	0.35090643
141	0xbe7ad7ef	-0.24496435
142	0x3ca83ff8	0.020538315
143	0x3e53bfbe	0.20678613
144	0x3ec74494	0.38919508
145	0xbd88dae0	-0.06682372
146	0x3c221577	0.009892813
147	0x3ebcd0bf	0.3687801
148	0x3efae5f4	0.49003565
149	0x3e0842b6	0.13306698
150	0xbe165f9a	-0.14684907
151	0xbe5bf08a	-0.21478477
152	0xbe685aed	-0.22690935
153	0xbe3b2e08	-0.18279278
154	0xbe9c524c	-0.30531538
155	0x3dec8019	0.1154787
156	0xbe4966ef	-0.19668172
157	0x3cc9c8df	0.024631916
158	0xbe996616	-0.29960698
159	0xbe0446fb	-0.12917702
160	0xbbf59fd6	-0.0074958606
161	0xbe8890b7	-0.2667291
162	0xbce555a3	-0.027994936
163	0xbeb20441	-0.3476887
164	0xbe054cb2	-0.13017538
165	0xbf803fec	-1.0019507
166	0xbf52136a	-0.82060874
167	0x3eddde0a	0.43333465
168	0x3e0373ed	0.12837191
169	0xbf464e2d	-0.77463037
170	0xbf851713	-1.0397667
171	0x3b037cf6	0.0020063496
172	0x3e1943fe	0.14967343
173	0xbf028b88	-0.5099416
174	0xbf5a24b5	-0.8521226
175	0xbdf3163f	-0.118694775
176	0x3e23444b	0.1594402
177	0xbf18757c	-0.59554267
178	0xbf39ac2c	-0.7252834
179	0xbcd565af	-0.026049463
180	0xbf3d97c1	-0.74059683
181	0xbe9ec9c7	-0.3101332
182	0xbd027267	-0.031847384
183	0x3aa6aebb	0.0012716869
184	0xbeee902c	-0.4659437
185	0xbef53291	-0.47890142
186	0xbd424ccd	-0.047436524
187	0x3e007903	0.12546162
188	0xbf1a01b9	-0.6015888
189	0xbf032af3	-0.5123741
190	0x3dc8f09b	0.09811517
191	0x3e0d6894	0.13809425
192	0xbf1532b5	-0.582805
193	0xbf561308	-0.8362279
194	0xbe971853	-0.29510745
195	0xbd93eea8	-0.072232544
196	0xbedfee65	-0.43736568
197	0xbdd93b0e	-0.10606967
198	0xbd613472	-0.054981656
199	0xbe96969a	-0.29411775
200	0xbe8f8c9a	-0.28036958
201	0xbebc6cce	-0.3680176
202	0xbe510620	-0.20412493
203	0xbe7cf74c	-0.24703711
204	0xbe0217ca	-0.12704387
205	0xbd1905bf	-0.037358996
206	0xbdf3809f	-0.11889767
207	0xbea458bb	-0.32098946
208	0xbe54a930	-0.20767665
209	0xbdf59b67	-0.11992531
210	0x3ea57e52	0.32322937
211	0x3ea0a1fb	0.3137358
212	0x3debcb2d	0.11513362
213	0x3ede301f	0.43396088
214	0x3e4b1364	0.19831616
215	0x3e14f39a	0.14546052
216	0xbd8de410	-0.06928265
217	0x3d261bc8	0.040553838
218	0x3e70bd79	0.23509778
219	0x3dd64aa7	0.104634576
220	0xbc18eaca	-0.009333322
221	0x3ea29c8a	0.31760055
222	0x3e684cb5	0.22685511
223	0x3e99d40f	0.300446
224	0x3eb92e94	0.3616835
225	0xbf054d53	-0.5207111
226	0xbf0cd57f	-0.5501327
227	0xbea76e66	-0.32701415
228	0xbe1bb075	-0.15204032
229	0xbeb585fd	-0.35453787
230	0xbea3453c	-0.3188876
231	0xbe4d9275	-0.200754
232	0xbcc32328	-0.023820475
233	0x3c3ce812	0.011529939
234	0xbd484528	-0.048894078
235	0xbe184ead	-0.14873762
236	0xbe0df9c1	-0.13864805
237	0xbe1a1155	-0.15045674
238	0xbea146d4	-0.3149935
239	0xbe9c88e7	-0.30573198

model.fe.conv2.weight f4 [16, 16, 1, 1]
0	0x3e83de5b	0.2575558
1	0xbe82a30f	-0.2551503
2	0xbe5eec44	-0.21769816
3	0xbec5ba2f	-0.3861861
4	0xbd7ab51f	-0.061207887
5	0xbe7517e3	-0.23934893
6	0xbed620c6	-0.4182188
7	0x3ef2f66d	0.47453633
8	0x3e7e3c59	0.24827708
9	0xbed05918	-0.40692973
10	0xbe0f015b	-0.13965361
11	0x3f2c6e61	0.67355925
12	0xbe777ec8	-0.24169457
13	0x3e7a1088	0.24420369
14	0xbeb62583	-0.35575494
15	0x3ef6e2a0	0.48219776
16	0x3eca1453	0.3946863
17	0xbef5c125	-0.4799892
18	0x3f01350e	0.5047158
19	0x3ea21a76	0.31660813
20	0xbe5430ef	-0.20721792
21	0x3ef684e5	0.48148265
22	0xbd9266b9	-0.07148499
23	0xbe32837d	-0.17432971
24	0x3e5a1c04	0.2129975
25	0xbed204a8	-0.41019177
26	0x3e9be8b0	0.30450964
27	0x3e1e097d	0.15433307
28	0x3e6345ce	0.22194597
29	0xbe8e7708	-0.2782519
30	0x3bb8658d	0.00562734
31	0xbeb9aa65	-0.36262813
32	0xbe75cfaa	-0.24004999
33	0x3f0fda87	0.5619282
34	0x3ea9366c	0.33049333
35	0xbf283f3f	-0.65721506
36	0x3e2707eb	0.16311614
37	0x3f0e406c	0.5556705
38	0xbe183785	-0.14864929
39	0x3d975ed0	0.07391131
40	0x3e33e5e7	0.1756817
41	0x3da93218	0.08261508
42	0xbd9b1222	-0.07571818
43	0xbcfacfc5	-0.03061665
44	0x3ece5a0f	0.40303084
45	0x3ed653fb	0.41860947
46	0xbed00894	-0.40631545
47	0x3f20da54	0.6283314
48	0x3ee8e273	0.45485267
49	0xbee9db63	-0.4567519
50	0x3ee6b67b	0.45061097
51	0x3e8ef27c	0.27919376
52	0xbe8418ad	-0.25800076
53	0x3ef2c6d8	0.4741733
54	0x3d570992	0.05249936
55	0xbdbf4347	-0.09339004
56	0x3dfb2da1	0.122645624
57	0xbeaa8812	-0.33306938
58	0x3ea9bc4a	0.33151466
59	0x3ec63f2b	0.38720068
60	0x3f0bdf35	0.5463746
61	0xbd8ac716	-0.06776254
62	0x3e728f2d	0.2368743
63	0xbe8a5453	-0.2701746
64	0x3e42bc85	0.19017227
65	0xbde08a94	-0.10963932
66	0xbd400c6a	-0.04688684
67	0xbf09bfef	-0.5380849
68	0x3d5d8d61	0.054089908
69	0xbe5eaa46	-0.21744642
70	0xbe40050e	-0.18751928
71	0x3d530a07	0.051523235
72	0x3eb5829c	0.3545121
73	0xbeb6d0fb	-0.35706314
74	0xbd72162f	-0.059103187
75	0x3f189c9e	0.5961398
76	0xbe9a2a29	-0.3011029
77	0x3ecbedb1	0.39829782
78	0xbf0a4380	-0.54009247
79	0x3ecc875c	0.3994702
80	0x3db86967	0.09004479
81	0x3e96cd7b	0.29453644
82	0x3f19fe25	0.6015342
83	0xbf1a57fa	-0.6029049
84	0x3de8f52c	0.11374888
85	0x3e512cf1	0.204273
86	0xbed361e9	-0.41285637
87	0x3f2bf113	0.67164725
88	0x3ecbb865	0.3978912
89	0x3abcee51	0.0014414286
90	0xbe1b3bff	-0.15159605
91	0xbe156708	-0.14590085
92	0x3e9954ee	0.2994761
93	0x3e81911c	0.25306022
94	0xbef57b67	-0.4794571
95	0x3ed18944	0.40925038
96	0x3ef31d0c	0.47483099
97	0xbe17ca7d	-0.14823337
98	0x3f0f33ea	0.5593859
99	0x3e7d5cea	0.24742475
100	0xbed133c0	-0.40859795
101	0x3f1dfbf6	0.61712587
102	0x3dae31ff	0.0850563
103	0xbe517b76	-0.20457253
104	0x3ca2f912	0.019894157
105	0xbe91547f	-0.28384778
106	0x3ecf5d89	0.4050105
107	0x3ec0d75f	0.37664315
108	0x3e7c1611	0.24617793
109	0xbd931081	-0.07180882
110	0x3db4bc5e	0.08824991
111	0xbe933c26	-0.28756827
112	0x3ee25a33	0.44209442
113	0xbf129a7f	-0.5726699
114	0x3f3903ee	0.7227162
115	0x3e967b14	0.29390776
116	0xbe8fa4a6	-0.28055304
117	0x3e96db66	0.29464263
118	0x3ce1666c	0.027514659
119	0xbeb2ae9e	-0.34898847
120	0x3ea8b383	0.32949457
121	0xbf09e990	-0.53872013
122	0x3e45137e	0.19245717
123	0x3e550dd1	0.20806052
124	0x3f00103d	0.5002478
125	0x3c0bf481	0.008542181
126	0x3e984e8d	0.2974743
127	0xbe8b7b9e	-0.2724275
128	0x3eb74898	0.35797572
129	0xbe906dec	-0.28208864
130	0x3f154e9c	0.58323073
131	0x3e834583	0.2563897
132	0xbeeaacd9	-0.45834997
133	0x3ec4b68f	0.3842053
134	0xbd485a9b	-0.048914533
135	0xbe995305	-0.2994615
136	0x3e80aa71	0.25130036
137	0xbe5b7c6f	-0.21434186
138	0x3e3357fb	0.1751403
139	0x3ed34023	0.4125987
140	0x3ef998b7	0.48749325
141	0xbc95a474	-0.018266894
142	0x3ddbb348	0.107275546
143	0xbeeaa855	-0.45831552
144	0xbe78dabe	-0.24302194
145	0x3f601dbb	0.87545365
146	0x3ec291ab	0.3800176
147	0xbf256968	-0.6461396
148	0x3e7b39a4	0.24533707
149	0x3f68544c	0.90753627
150	0xbdfa98d5	-0.12236182
151	0x3ea06cee	0.31333107
152	0x3e92c3db	0.2866505
153	0xbd859a0d	-0.065235235
154	0xbdea7848	-0.11448723
155	0xbe6451c0	-0.2229681
156	0x3f1f4f12	0.62230027
157	0x3e51d6c2	0.2049208
158	0xbef92d7c	-0.48667514
159	0x3ec8a5a0	0.39188862
160	0x3d64c49a	0.055851556
161	0xbe66e8f8	-0.22549808
162	0xbd9334e7	-0.07187825
163	0xbe1c565d	-0.1526732
164	0x3e2b2b97	0.16715847
165	0xbe5df900	-0.21677017
166	0xbe868ae9	-0.26277855
167	0x3ebdf19a	0.3709839
168	0x3edeb490	0.43497133
169	0xbe6597ce	-0.2242119
170	0xbd1ef9ea	-0.038812555
171	0x3ec852f2	0.39125782
172	0xbe21b1b5	-0.15790446
173	0x3ebbefe8	0.3670647
174	0xbf05c3d9	-0.52251965
175	0x3f0eee8e	0.55832756
176	0x3f0026e8	0.50059366
177	0xbed222b5	-0.41042104
178	0x3f01881f	0.5059833
179	0x3ea25c9f	0.3171129
180	0xbdf1cef5	-0.11807052
181	0x3eedd2c6	0.4644987
182	0x3db9a061	0.09063793
183	0xbe780f07	-0.24224482
184	0x3e4e442e	0.20143196
185	0xbea9d101	-0.3316727
186	0x3e9bfc21	0.30465797
187	0x3e75e6de	0.2401385
188	0x3ea82632	0.3284164
189	0xbe1f32a0	-0.15546656
190	0x3e4038dd	0.18771692
191	0xbe80ffec	-0.25195253
192	0x3eafb679	0.34318903
193	0xbea8f8c5	-0.33002296
194	0x3eb6fb21	0.3573847
195	0x3e3231ae	0.17401764
196	0xbeb4b514	-0.35294402
197	0x3e66cbb1	0.2253864
198	0x3d8a2d4c	0.06746921
199	0xbe748dab	-0.23882167
200	0x3de575b3	0.1120409
201	0xbe85968c	-0.2609142
202	0x3e601208	0.21881878
203	0x3e1d09e8	0.1533581
204	0x3e931fab	0.28735098
205	0xbd86c34d	-0.065802194
206	0x3e45f6fb	0.19332497
207	0xbdbd4d24	-0.09243229
208	0x3e0e2469	0.13881077
209	0xbeccb3ab	-0.39980826
210	0x3ed996c0	0.42497826
211	0x3e4d5618	0.20052373
212	0xbe6d345e	-0.23164508
213	0x3ec47d88	0.38377023
214	0x3e4b0c82	0.1982899
215	0xbe12987a	-0.14315978
216	0x3e773b2c	0.24143666
217	0xbe5c1d0a	-0.21495453
218	0x3d75f6fc	0.060049996
219	0x3eca9e26	0.39573783
220	0x3eef2aa2	0.46712214
221	0xbe651e74	-0.22374898
222	0x3e0efaf9	0.13962926
223	0xbeaef389	-0.34170178
224	0xbe431d45	-0.19054134
225	0x3f5ac664	0.8545897
226	0x3ee444ea	0.44583827
227	0xbf04b266	-0.51834714
228	0x3e40d127	0.18829785
229	0x3f4a393d	0.7899359
230	0xbdf89ea7	-0.121396355
231	0x3ed0e976	0.40803117
232	0x3edbc1c7	0.42921278
233	0x3e356cb2	0.17717245
234	0xbe93a4a3	-0.28836545
235	0xbdfd20be	-0.12359761
236	0x3efa3bcd	0.4887375
237	0x3e02097e	0.12698933
238	0xbe92b44e	-0.28653187
239	0x3ee607a6	0.4492771
240	0x3c532a31	0.012888477
241	0x3f63ee4d	0.89035493
242	0x3edb58f9	0.42841318
243	0xbe6c8d2d	-0.2310073
244	0x3e215c69	0.15757908
245	0x3f3dc506	0.7412876
246	0xbe164faf	-0.14678834
247	0x3e82e325	0.25563923
248	0x3dbfa6a6	0.093579575
249	0x3e78e978	0.24307811
250	0xbe4977cf	-0.1967461
251	0x3d7f45f4	0.062322572
252	0x3f0e9b79	0.5570598
253	0x3e9052fa	0.28188306
254	0xbf17d703	-0.59312457
255	0x3f366302	0.71244824

model.fe.bn.weight f4 [16]
0	0x3f95b209	1.1694957
1	0x3f972369	1.1807681
2	0x3f9249f4	1.1428819
3	0x3f87fe41	1.0624467
4	0x3f8e4d4b	1.1117338
5	0x3f8effb2	1.1171782
6	0x3f925884	1.1433263
7	0x3f9e25cc	1.2355285
8	0x3f88cc8e	1.0687425
9	0x3f9a079d	1.2033573
10	0x3f8a2902	1.0793765
11	0x3f8df384	1.108994
12	0x3f8fa77a	1.1222985
13	0x3f8e9dc5	1.1141897
14	0x3f91a2ff	1.1377867
15	0x3f8ca7cd	1.0988709

model.fe.bn.bias f4 [16]
0	0xbe89db5c	-0.2692517
1	0xbe6b6ec4	-0.22991472
2	0xbe7c57a6	-0.2464281
3	0xbe3f6eba	-0.18694583
4	0xbe7057ba	-0.23470965
5	0xbe5a8b74	-0.2134226
6	0xbe4e3962	-0.20139077
7	0xbe76eac4	-0.24112993
8	0xbe33c1e4	-0.17554432
9	0xbe91e51a	-0.28495103
10	0xbe5026e1	-0.20327331
11	0xbe521f51	-0.20519759
12	0xbe3fb43a	-0.18721095
13	0xbe532183	-0.20618252
14	0xbe8067c9	-0.25079182
15	0xbe752c61	-0.2394271

model.fe.bn.running_mean f4 [16]
0	0xc0dff17d	-6.9982285
1	0xc0aa158b	-5.3151298
2	0xc0a9e7f5	-5.309565
3	0xc0e59ddf	-7.1755214
4	0xc0dd5a3d	-6.9172654
5	0xc0ba535e	-5.8226767
6	0xc0c7a5d9	-6.238995
7	0xc0dc71ec	-6.8889065
8	0xc0f25c97	-7.5738025
9	0xc0d5f62a	-6.6862993
10	0xc0c4f2ef	-6.154655
11	0xc0bb7ecb	-5.8592277
12	0xc07f7a57	-3.991842
13	0xc0d05189	-6.509953
14	0xc0dde6f3	-6.934442
15	0xc0cb7cad	-6.358969

model.fe.bn.running_var f4 [16]
0	0x41cdf866	25.746288
1	0x417d0783	15.814334
2	0x4180098e	16.004665
3	0x41adbad0	21.716217
4	0x41987df7	19.061506
5	0x41568c9c	13.409328
6	0x41a3a44e	20.455227
7	0x41afb950	21.965485
8	0x41ad26d9	21.643969
9	0x4209e3f2	34.472603
10	0x41288e5d	10.534757
11	0x4187ab24	16.958565
12	0x4103673a	8.212702
13	0x41862b19	16.771044
14	0x41e37f84	28.437263
15	0x41bf0610	23.87796

model.classifier.weight f4 [1, 16]
0	0xbecf4670	-0.40483427
1	0x3e85df79	0.2614706
2	0xbe9a4d5d	-0.30137148
3	0x3e55d8c9	0.20883478
4	0xbed2b49e	-0.41153425
5	0xbe771d6a	-0.24132314
6	0x3e4d86de	0.20070979
7	0x3e827345	0.2547857
8	0x3e618562	0.22023538
9	0xbeb09363	-0.34487447
10	0xbea86775	-0.3289143
11	0x3e8724b1	0.2639518
12	0x3e6ba79d	0.23013158
13	0x3e84435e	0.25832647
14	0xbebcf665	-0.36906734
15	0xbe9501b8	-0.29102874
