ckpts/finetuning/subject_01-session_09.ckpt (torch, 64013 bytes, 50 tensors)

model.input_block.temp_cov.weight f4 [40, 1, 1, 25]
00000000: d356 1d3f 3bdf 53bd 2b86 22bf 569b 28bf
00000010: e45f 0abf b24e e9bd c7eb aa3e 2238 193f
00000020: ce88 de3e 1c56 e93e fb23 e03d 0288 82be
00000030: 8384 0fbf a6fe 12bf ff9b 12bf 00f4 cebe
00000040: 419f f13d 41fb ee3e 55f3 a83e f405 cd3e
00000050: 3bdb db3e 1046 913d b216 f5be 3fc0 e6be
00000060: f2b5 27bf fa32 5cbf 9a79 7cbd 51e8 9e3e
00000070: 4953 113f 0639 1b3f dcb7 e13e 5b96 903e
00000080: 762e 01bf 243f edbe 859f ebbe 9534 cfbe
00000090: 36a6 8b3d e52c 2d3f 5d6d 0c3f 26a4 0a3f
000000a0: b6a3 ea3e 8518 ec3c d7d1 64be 5f8c 04bf
000000b0: 6cb7 f9be 5dc8 adbe 8251 003f b023 343f
000000c0: b828 093f fa30 133f 4e8f 353f 0117 3a3f
000000d0: 0b38 0d3f 90f1 dd3e a9b0 c13e 2092 adbe
000000e0: ed3d adbe 49ca 11bf 6e62 12bf c92f 09bf
000000f0: d037 93be fd6b 52be 9bf5 a2be 63e3 c1bd
00000100: b6d1 9abd 70b5 8bbe defc 8abe e956 1cbe
00000110: 9a4c 333e 6df4 023f 7493 b53e 1a9e 113f
00000120: 61ea 4e3f 9366 6d3f ad84 593f d185 07bd
00000130: 6d19 92be e07f febe 9ba8 91be b29f c7be
00000140: debc a5be d48d ac3e 26f6 cb3e b2dc f53c
00000150: 407a 353e a66f 0ebe 37a9 a8be 359b d2be
00000160: 70e9 30be 9adf 2bbe 2eed 533e 91f9 973e
00000170: 4d2e a93e 5823 253e 69c3 d3be 862e e2be
00000180: 472c 7dbe 9578 89be 13d7 cabe 76f2 7dbe
00000190: 1f74 603e a35b 0dbd 666f e6be c914 f2be
000001a0: 338f 15bf 0d86 bcbe 8e29 fbbe ccf6 e9be
000001b0: c05b 4ebe e0b3 d93d a38e ce3d 8fa0 943e
000001c0: fabf 393c 4935 8e3e cb52 663e 02a9 15bd
000001d0: f310 233e 0475 9d3e 559c d13e 04bd 003f
000001e0: dafa df3e 6017 5dbc d3c1 c6be c781 b5be
000001f0: a251 47bf 310b 813e c2b6 5cbe fbd2 00bf
00000200: 2de4 0dbf 30d6 25bf c6fd e7be dc6b dabd
00000210: 007d 103e b8dc d63e 2f9c fa3e 70a1 a93d
00000220: ce8a 6bbe 1269 ebbe af9c eabe d712 9cbe
00000230: 5023 10bc 59c6 2b3e cd4d c73e bf8e 8e3e
00000240: e259 20bb a506 95be 8b5b 77be c887 eebe
00000250: f5fc 18bf 5d86 1abf 5358 683e aabf 113f
00000260: c0c7 583f 65f0 7e3f 6a01 693f b0d0 fc3e
00000270: f0c6 2f3f ae3d 863e 38f4 1a3e e179 34be
00000280: ae0c a2be a87a e0be 7670 2cbf 7245 3dbf
00000290: 3c36 25bf 5514 20bf 8cd9 2ebf 6c68 bcbe
000002a0: 9019 c2be b0b9 193e c4e5 173f 6572 f63e
000002b0: 85d0 5a3f b349 593f 7e35 2e3f 92f2 f63d
000002c0: 572c 6fbd 8329 00be d9fb 0a3e 7da5 46be
000002d0: a4da 15bd 794f b0bd 9ed7 b83d f81d a0ba
000002e0: 4147 523d a872 433d 91d4 73bd 3f18 7ebd
000002f0: cfb3 40be e4c3 913d 13e8 f73d 85b4 ff3d
00000300: a890 10be b5c4 87bc 0b71 04be 9697 62bd
00000310: 4bfc 16bd 4d47 0f3e a7b6 babd 3857 1cbc
00000320: 1f66 853f 8ec9 5d3f 6a13 29bd e191 0cbf
00000330: eea8 1fbf f106 b2be 67bb cfbe ad19 863e
00000340: cca7 cc3e 7bae b93e 7592 a63e 0fbc 6a3e
00000350: 59b9 86bd 5336 acbe b125 b1be 8143 bbbe
00000360: 5236 1abf ac5a 62be 1c6c ea3e f990 813e
00000370: 6c07 dd3e 74fd 023f a422 06be 1b6a 31bf
00000380: ea2e 8dbf b7c1 20be 0f34 32bf 92e4 2abf
00000390: 22b9 24bf 6113 febe 433b acbd 1b5e 013f
000003a0: f150 df3e 4f9b e63e 88e7 623d de99 36bf
000003b0: 1f3b 12bf f188 46bf 2fe3 1cbf 0ea0 4abe
000003c0: 819e 573e 988e e63e b665 8f3e 6199 8d3e
000003d0: aa43 a4bc e537 3bbf 0811 e4be b95f 39bf
000003e0: 0e18 dcbe 7cc2 1bbe ec50 dbbe 959f 27bf
000003f0: 6607 2dbf ad53 68bf ff5a 5fbf ec40 2cbf
0.6146061 -0.05172656 -0.63485974 -0.65862024 -0.5405257 -0.11391963 0.3338301 0.59851277
0.4346375 0.4557351 0.10944363 -0.2549439 -0.5606157 -0.5741981 -0.5726928 -0.40420532
0.117979534 0.46676067 0.32998148 0.40043604 0.42940697 0.070934415 -0.47868878 -0.45068547
-0.65512 -0.86015284 -0.061639406 0.31036618 0.5676771 0.60633886 0.44085586 0.28239712
-0.5046152 -0.46337235 -0.4602014 -0.40469804 0.068188116 0.6764663 0.54854375 0.5415672
0.45828027 0.028820286 -0.22345673 -0.5177669 -0.48772752 -0.33941928 0.5012437 0.70366955
0.53577757 0.5749661 0.7092179 0.7269135 0.5516364 0.4334836 0.37830094 -0.33900547
-0.33836308 -0.5694929 -0.5718144 -0.5358854 -0.2875352 -0.20549007 -0.31828007 -0.09467199
-0.075595304 -0.27286863 -0.27146047 -0.15267529 0.1750969 0.51154214 0.3546406 0.5688187
0.80826384 0.9273464 0.8496807 -0.0330866 -0.28535023 -0.49706936 -0.28448948 -0.38989025
-0.32370657 0.33701956 0.39836234 0.030012462 0.17722416 -0.13909778 -0.329416 -0.4113404
-0.1727655 -0.16784516 0.20695946 0.29682592 0.33043137 0.16126764 -0.41360024 -0.4417612
-0.24723922 -0.2684981 -0.39617214 -0.24799523 0.21919297 -0.03451122 -0.45006865 -0.47281483
-0.5842163 -0.36821023 -0.4905514 -0.45696104 -0.20152187 0.106300116 0.100857995 0.29028746
0.011337275 0.27775028 0.2249252 -0.03653813 0.15924434 0.30753338 0.40939584 0.50288415
0.43746072 -0.013494343 -0.3881975 -0.35450575 -0.77858937 0.2520385 -0.21554092 -0.5032193
-0.55426294 -0.6477995 -0.453108 -0.10665104 0.14110184 0.4196527 0.48947284 0.08282745
-0.23002169 -0.459786 -0.45822665 -0.30483124 -0.008797482 0.16774882 0.38926545 0.27843282
-0.0024467637 -0.29106632 -0.24156015 -0.46587968 -0.5976098 -0.6036127 0.22689943 0.5693308
0.84679794 0.9958556 0.9101778 0.49377966 0.6866293 0.26218933 0.15132225 -0.17624618
-0.316503 -0.4384358 -0.673591 -0.7393409 -0.6453588 -0.62531024 -0.683007 -0.36798418
-0.37910128 0.1501224 0.5933497 0.4813415 0.85474426 0.8487808 0.6805037 0.12057985
-0.058391895 -0.12515835 0.13572635 -0.19399066 -0.036585465 -0.08608908 0.09025501 -0.0012215963
0.051337484 0.047716767 -0.05952889 -0.06203484 -0.18818592 0.07117441 0.121048115 0.12485603
-0.14117682 -0.01657329 -0.12933747 -0.055320345 -0.0368617 0.13992043 -0.091168694 -0.009542279
1.042179 0.86635673 -0.04127828 -0.54910094 -0.6236714 -0.3477092 -0.40572664 0.26191464
0.3997177 0.3626593 0.32533613 0.22923301 -0.06578321 -0.33635196 -0.3459907 -0.3657494
-0.60239136 -0.22104901 0.45785606 0.25305918 0.43169725 0.5116799 -0.13099152 -0.6930253
-1.1029942 -0.15698896 -0.69610685 -0.6675502 -0.6434499 -0.4962416 -0.08409741 0.5053422
0.4361644 0.45040366 0.055396587 -0.7132853 -0.5712146 -0.77552706 -0.61284155 -0.19787619
0.21056558 0.45030665 0.28007287 0.2765608 -0.020051796 -0.73132163 -0.44544244 -0.72411686
-0.42987102 -0.15210909 -0.42835176 -0.6547788 -0.67589414 -0.9075268 -0.87248224 -0.6728656

model.input_block.bn1.weight f4 [40]
00000000: e849 c83f 65bb c63f a8b7 d03f 0210 aa3f
00000010: 2e43 b53f 5afc b43f bbba e83f 6e20 413f
00000020: 2a6d d23f 0404 cc3f a85a e73f 3be8 0340
00000030: 1e3f ab3f 4b4b 1b3f 44e3 433f 2441 dd3f
00000040: b80d 953f a865 9b3f d285 c33f 19bb ad3f
00000050: e094 bf3f 1e4a bd3f 5df7 bf3f 7315 1c3f
00000060: 869b a93f 3bd2 a43f be1e bb3f a66f ae3f
00000070: b6dd ad3f 7210 cd3f 4619 b33f 5304 cc3f
00000080: 4c20 9f3b 05f2 c23f d90b 693f 6f02 9b3f
00000090: 8582 c73f a879 c33f 9e5a a83f a40e d33f
1.5647554 1.5525938 1.6306047 1.3286135 1.4161127 1.4139512 1.8181986 0.7544011
1.6439564 1.5938725 1.8074541 2.0610492 1.3378637 0.6066176 0.76518655 1.7285504
1.1644812 1.2140398 1.5275214 1.3572723 1.4967308 1.4788244 1.4997364 0.6097023
1.3250587 1.2876657 1.4618757 1.3627822 1.3583286 1.6020644 1.3992088 1.593882
0.004856145 1.5230108 0.91033703 1.2110118 1.5586706 1.5271502 1.3152654 1.6488843

model.input_block.bn1.bias f4 [40]
00000000: 8a61 68be 1d4d 15be fbad aabb 539b 103d
00000010: 99c7 a23d 16bd 5c3e 94e0 17bf 4c26 dabf
00000020: 5c34 5abe 0dda 36be 6c31 c83d 6ccc df3e
00000030: 53a8 b73e e92c 23c0 3736 f13f 7b9b aebe
00000040: 8b40 de3f 3c80 85bf a32d 0abe 5869 af3d
00000050: 87ff c5bd a01a 853c 4b73 b13d 998e 0bc0
00000060: 3a8f 713c 37d6 233e 5c97 4e3e 7bbd e9bd
00000070: c708 45be 3c42 dc3e 16d8 2bbe 0f61 bcbe
00000080: ef5a 3d40 9604 503f 8290 ebbf a28e 47be
00000090: 8760 82bb 92e2 c03d 6c69 a13d 2c64 f4be
-0.22693458 -0.14580198 -0.0052087284 0.03530438 0.079482265 0.21556506 -0.59327054 -1.7042937
-0.21309036 -0.17856617 0.097750515 0.4371065 0.3587061 -2.549616 1.884467 -0.34102997
1.7363447 -1.0429759 -0.13493972 0.085650146 -0.096678786 0.016248047 0.086645685 -2.1805785
0.0147436205 0.15999685 0.20174927 -0.11413094 -0.1924163 0.43019283 -0.16781649 -0.367928
2.9586751 0.81257 -1.8403475 -0.19488004 -0.003978792 0.09418215 0.07881436 -0.47732675

model.input_block.bn1.running_mean f4 [40]
00000000: 2067 c633 d051 e2b5 d3ce c436 41c0 56b6
00000010: 0f41 70b6 02cf 28b6 392e 4037 cbe1 90b4
00000020: 662b bf36 1f64 aab6 575d 1cb7 4f80 08b7
00000030: 6751 0db6 636c 8b34 4db1 ad35 7893 1c37
00000040: 4c09 c634 bea5 b8b5 ac4d efb4 31a6 9435
00000050: b38f 9036 ce86 d736 c482 9fb6 3d87 7133
00000060: 6d08 aab6 8e89 6bb6 749e 88b5 f8b8 5fb5
00000070: 593c c9b5 fcb7 0c37 a9e1 e9b5 93e2 15b7
00000080: 7404 a5b4 eda3 a0b6 8009 8630 9d99 7b35
00000090: b6dd 7836 94eb 36b6 307a a4b6 534d f335
9.238852e-08 -1.6862123e-06 5.8653327e-06 -3.2000391e-06 -3.5800656e-06 -2.5154445e-06 1.1454854e-05 -2.6986376e-07
5.697296e-06 -5.0780504e-06 -9.320057e-06 -8.136106e-06 -2.105802e-06 2.596963e-07 1.2941106e-06 9.33266e-06
3.6887138e-07 -1.3757306e-06 -4.4573733e-07 1.1075227e-06 4.308263e-06 6.4231926e-06 -4.7537924e-06 5.6235184e-08
-5.0673757e-06 -3.5097796e-06 -1.0178906e-06 -8.334314e-07 -1.499323e-06 8.3874875e-06 -1.7425529e-06 -8.9338455e-06
-3.0736885e-07 -4.787455e-06 9.752483e-10 9.3728323e-07 3.7083933e-06 -2.7257238e-06 -4.9018054e-06 1.8127415e-06

model.input_block.bn1.running_var f4 [40]
00000000: d7c2 8d3d f541 993d 060c 003e 2039 e93c
00000010: b025 663d 249b 533d bda4 553e 6fa0 f039
00000020: f02d 863d 798c a13d 13d5 213e a880 343e
00000030: fde1 903c 8e09 1d39 ba63 0b3b 05a5 233e
00000040: b957 ad3b 9464 393c 7023 8c3d cc4d ec3c
00000050: ec4c 613d c565 b73d ecfb 5e3d 3adf 1c38
00000060: 9198 3d3d b2e5 c73c 3383 0e3d 29ae cd3c
00000070: dd64 1e3d eb25 df3d ed74 003d bd1d fc3d
00000080: 58c4 2639 d7ab 853d 0865 7039 fc8d 6c3c
00000090: 1eec a33d 2cae 873d 957c 213d 03d7 e53d
0.069219284 0.074832834 0.12504587 0.028469622 0.056188285 0.051661626 0.20863624 0.000458959
0.06551731 0.07888121 0.15803938 0.17627203 0.017685885 0.00014976246 0.0021269158 0.15980919
0.0052899984 0.011315484 0.06842697 0.02884569 0.055005 0.08954958 0.05443947 3.7401194e-05
0.046288077 0.02440152 0.03479309 0.02510746 0.03867041 0.10895904 0.03136151 0.123103596
0.00015904137 0.065269165 0.0002292582 0.014438149 0.0800402 0.066250175 0.03942545 0.11222651

model.input_block.spat_conv.weight f4 [40, 1, 24, 1]
00000000: 6e8a fcbd 3a95 e4bd aea4 233e df64 a1bd
00000010: a3cc 5b3e e2f8 603f 14a9 13bf 2c36 9abe
00000020: 6646 03be bb03 2b3c 8ca9 763b 271e 293e
00000030: ef19 4fbc 540d 6fbe f65b 68bf c4c2 ad3d
00000040: 1dd1 82bd f41c febd e2b4 a1be df97 323d
00000050: 3e56 3bbc 363e 19be 7cc0 97be 3ac1 ea3d
00000060: 8665 2f3e bac2 513d 66d5 7a3d 3b1b f33d
00000070: 3d55 b63e a552 e73e 7488 313e 4d25 3e3f
00000080: 9abe 493e fe05 1e3e 7369 c2bc 614b a73d
00000090: 63fa 21bd 5ed4 12bf a9a1 7bbf 9256 ef3d
000000a0: 79f4 1a3e 0e2c 1d3e 2eca 27bd adf4 34bc
000000b0: 8e37 ad3d 8f5a fd3c 2c2f 763e d294 563e
000000c0: 0911 d73e 5b91 a03e f64d b7bd 5df3 68bd
000000d0: 91c6 463e c31b 683e d881 bc3e 670a e33e
000000e0: daba d73e f374 72bc b999 b5bd 44f5 57be
000000f0: 3090 1c3e d484 c93e f78e 433f c64c 6c3e
00000100: 793b 00be 5b9d 21bf 85e7 3bbf 3bd2 46bf
00000110: 5001 8d3e ad36 263e 3422 593e 9ff0 993e
00000120: 9aff d03d 2aae 233d f92d c33e 3e02 7f3e
00000130: 0976 0f3e 928a 85bd fd7c 2d3e 99e3 d43d
00000140: 69a3 473e 96ab f8be ca2e 3abf 60f7 403e
00000150: 9114 923d 018f 4f3d 0f82 1dbe 57fd ab3d
00000160: 8174 863d 8070 93be 97b9 aebe ec73 523e
00000170: 493e 90bd 7fa8 9d3d a588 65be 99ca 01be
00000180: e6e0 9b3e dd4e 2f3e 8985 f93d 3561 f33e
00000190: 5507 ae3e 49bf 72be ef76 9fbe 878a 063e
000001a0: be24 233d 6dee d5bd 6c2f 6fbf 0cfb 583e
000001b0: e687 893e 31e1 d2bd c797 913d 0cc4 34bd
000001c0: e017 593e 9a80 813d 59c8 8cbe 4443 b3bd
000001d0: 717e ea3c c323 02bf a25f 3e3c 5dcb c3bd
000001e0: 7506 31be 31be 27be 4f8d 4bbd 7993 fcbd
000001f0: 931d 513c fcb3 143f 8826 8fbe c4a2 a2be
00000200: e014 a8bd 9177 e4bd 8348 623d 7bad eabd
00000210: 6b07 41bd aec7 9d3e 0a50 8fbf 6aaf b4bd
00000220: 4023 0a3d b50e 27bd 084d 673e cb47 8a3d
00000230: 2687 66be 70d9 00be a9e9 85be 428f efbc
00000240: e180 913c 57da 44be 9fdd 0dbf f9fe 7ebf
00000250: 9658 dabd c4ce 233f d520 253e b1a8 b6be
00000260: 82af cabd 1eb5 973e d8db b13d 0db1 15bf
00000270: 15cf b3bc 16fe 903e 2ec0 6fbf 5457 97be
00000280: 4d9e c1be 174e 22be efdc 8c3e 0ab3 74bc
00000290: fd99 49be 48cb 0cbf 51ee 17bf d0cc 80be
000002a0: 996a a2bf ff9e a8bf 4ff0 b3bf 99a2 87bf
000002b0: bee6 a7bf c0a5 aebf c2ce 9cbf 60f3 a0bf
000002c0: 54b1 91bf 5d82 b1bf 7a04 d9bf 0293 babf
000002d0: 6920 98bf 079e b2bf fa0d 76bf bb38 a0bf
000002e0: 5c95 bcbf 8fe1 9dbf 36f1 c4bf 90c1 89bf
000002f0: d869 5fbf 7ce2 b5bf 606a 8fbf 2fb7 a8bf
00000300: 9120 5f3e e7b6 073e ccce 4f3e 7638 013e
00000310: ce23 da3e 8bdb 4f3f f2f4 f9bd 22c4 1c3f
00000320: be43 273e 04d3 083e ad95 073e 772c 1c3e
00000330: 2651 8f3d db1a 15be bb58 9ebf 7037 3e3c
00000340: ed83 603d 2cf5 79bd e907 8bbd ffc4 093d
00000350: ef6b e43b d607 f53a 6c07 87bd 9fc0 9c3e
00000360: 2a2d 2c3d 8401 afbd 122d 13bd 4b8c a0bd
00000370: 6f22 55be 3476 3cbf 40ee ee3e aa97 bb3e
00000380: bce0 f13d 78e5 2c3e d64f 5b3e c74b 933b
00000390: fda7 093d d8e2 d4be a70b 8f3f 7365 813d
000003a0: 42da c63d d848 9a3e c7aa 143e 5a2a a4bd
000003b0: 3eb2 c83d 575a 293e cb01 c73e 50f5 873d
000003c0: 3162 c1be d55a 72be 4894 9d3d 2854 b3bc
000003d0: 039a 24bf 964e 59bf bfae 3dbe b5d3 d3bd
000003e0: 4632 52be 7cc7 153e 6450 493f 527d 48be
000003f0: 3238 b2be 0d3c a5be d71c 823f e8e7 e33d
-0.12331091 -0.11161275 0.15980789 -0.07880568 0.21464781 0.87879765 -0.5767987 -0.30119455
-0.12819824 0.010437901 0.003763768 0.16515408 -0.01264046 -0.23344928 -0.9076532 0.08484414
-0.063875414 -0.12407866 -0.31583315 0.043601867 -0.011434136 -0.14965138 -0.2963904 0.11462636
0.17128572 0.051211096 0.06123867 0.11870428 0.35611907 0.4518024 0.17337209 0.74275666
0.19701615 0.15431973 -0.023731923 0.08168674 -0.039545428 -0.57355297 -0.9829355 0.11686434
0.15132321 0.15348837 -0.040964298 -0.011044663 0.08457862 0.03092697 0.24041432 0.20955208
0.42005184 0.31360897 -0.08950417 -0.056872714 0.19411685 0.2266684 0.36817813 0.44343874
0.42134744 -0.014798391 -0.08867211 -0.21089655 0.15289378 0.39359152 0.7639002 0.23076162
-0.12522687 -0.6313073 -0.73400146 -0.77664536 0.27540064 0.16231795 0.21204454 0.30066392
0.10205002 0.039961018 0.38121012 0.24903199 0.1400987 -0.06520571 0.1694221 0.10394973
0.1949593 -0.4856841 -0.72727644 0.18844366 0.07132829 0.05067349 -0.15381645 0.0839793
0.0656519 -0.28796768 -0.3412597 0.20552033 -0.0704313 0.07698154 -0.22415407 -0.12674941
0.3044502 0.17119928 0.12183673 0.475351 0.3398997 -0.23705782 -0.31145427 0.13138781
0.039829962 -0.10445867 -0.93431735 0.21189517 0.26861495 -0.10296858 0.07109027 -0.044132277
0.21200514 0.06323357 -0.27496603 -0.08753064 0.028624745 -0.5083582 0.01161948 -0.09560273
-0.1728762 -0.16381146 -0.04969531 -0.12332816 0.012763399 0.58087134 -0.27959085 -0.31764805
-0.082071066 -0.11155618 0.055244934 -0.1145887 -0.047126215 0.30816406 -1.1196301 -0.0882252
0.033725023 -0.04078551 0.22587979 0.06751975 -0.22512493 -0.12582946 -0.2615483 -0.029243115
0.01776165 -0.19223915 -0.5541629 -0.9960781 -0.10661428 0.63987374 0.16125806 -0.35675576
-0.09896757 0.2963037 0.0868451 -0.58473283 -0.02194933 0.28318852 -0.9365262 -0.29558814
-0.37816086 -0.15850101 0.2751231 -0.014935264 -0.19687648 -0.5499768 -0.59348017 -0.2515626
-1.2688781 -1.3173522 -1.4057711 -1.0596496 -1.3117292 -1.3644333 -1.2250597 -1.2574272
-1.1382241 -1.3867909 -1.6954491 -1.4576113 -1.1884891 -1.3954476 -0.96115077 -1.2517313
-1.4733081 -1.233446 -1.5386112 -1.0762196 -0.8727088 -1.4209743 -1.1204338 -1.3180903
0.21789767 0.13253365 0.2029373 0.12619194 0.42605442 0.8119437 -0.12204923 0.61236775
0.16334435 0.13361746 0.1324069 0.15251337 0.069979 -0.14561026 -1.2370828 0.011609897
0.054813314 -0.06102483 -0.06788618 0.033635136 0.0069708745 0.0018694352 -0.065932125 0.30615708
0.04203526 -0.08545211 -0.035931654 -0.07839259 -0.20813917 -0.73617864 0.46666145 0.36639148
0.11810443 0.1688441 0.21417174 0.0044951173 0.03360747 -0.41579318 1.1175431 0.06318178
0.09709598 0.301337 0.14518271 -0.080158904 0.09799622 0.16538368 0.38868555 0.066385865
-0.37770227 -0.23667462 0.07694298 -0.021890715 -0.64297503 -0.8488554 -0.18523692 -0.10343114
-0.2052699 0.14626878 0.7863829 -0.19579056 -0.348085 -0.32272378 1.0165051 0.11128217

model.input_block.bn2.weight f4 [40]
00000000: a2cb c73f 22e1 c63f f8a0 d03f 2514 aa3f
00000010: 5658 b53f 3d16 b53f 7972 e83f c017 633f
00000020: d7e0 d23f 003c cc3f f223 e73f dace 0340
00000030: 2f94 aa3f 96a0 543f e06d 713f 9b2b dd3f
00000040: dc27 9d3f 48d2 9f3f e4e5 c33f 21c3 ad3f
00000050: d5b3 bf3f 115c bd3f c2fb bf3f 72c2 613f
00000060: 6b95 a93f 5df1 a43f f352 bb3f cd82 ae3f
00000070: 9221 ae3f f822 cc3f 4257 b33f 96f0 cb3f
00000080: 14f0 0640 ca99 c33f d69b 813f ad76 9a3f
00000090: a0a8 c73f 5aab c33f b191 a83f db46 d23f
1.5609019 1.5537455 1.6299124 1.3287398 1.4167583 1.4147412 1.8159934 0.88708115
1.6474866 1.595581 1.8057845 2.0595002 1.3326472 0.83057535 0.9430828 1.7278932
1.2277789 1.2486048 1.5304532 1.3575174 1.4976755 1.4793721 1.4998705 0.88187325
1.3248724 1.2886158 1.4634689 1.3633667 1.3603995 1.5948172 1.4011004 1.5932796
2.1084032 1.5281308 1.0125682 1.2067467 1.5598335 1.5286667 1.3169461 1.6427873

model.input_block.bn2.bias f4 [40]
00000000: 859f 473e 9e8e 05be cefa 973a abed 09bd
00000010: 8554 b3bd 4e88 7dbe 8eb2 103f ea16 a93f
00000020: 06fb 96be 91c7 37be 21e5 183e b288 003f
00000030: d45d a73e 7123 0c40 eba3 c83f 31cb b73e
00000040: 633a b73f 10be 6c3f 7dc0 6cbd f265 a5bd
00000050: a61a d0bd 4cdd f1bc 7e9a ab3d 5da2 0340
00000060: 3c21 18be f847 2ebe 0276 03be f047 16be
00000070: 5c3a 40be 3465 bd3e 095f 4dbe a7a0 d03e
00000080: 73db b2bf f2d0 403f 4fb2 b03f 8b34 5bbe
00000090: 4518 713d 45e3 febc a1c5 09be 51d1 d73e
0.19494446 -0.13042685 0.0011595131 -0.033673923 -0.08756355 -0.24759027 0.5652245 1.3210118
-0.2948839 -0.17947222 0.14931156 0.5020858 0.32688773 2.1896632 1.5675024 0.3589721
1.4314693 0.9247751 -0.05780076 -0.08076085 -0.10161333 -0.029524468 0.083790764 2.0567849
-0.14856428 -0.17019641 -0.12837985 -0.1467588 -0.18772262 0.36991274 -0.20055784 0.40747568
-1.397322 0.75318825 1.3804415 -0.21406762 0.058861036 -0.03111423 -0.13454296 0.42151883

model.input_block.bn2.running_mean f4 [40]
00000000: 467b cc3e 0be1 8bbe db40 3ebc 0195 54bc
00000010: 1d9b a5bc 936a e4be 15e3 2b40 7c8c 5142
00000020: 130e cfbe e5a7 cabe 7939 b9bb 10c9 eb3f
00000030: c627 c33f 9a97 df42 e194 8e42 f6b5 283f
00000040: 64fe 5042 5204 a641 8ab8 aabe 531a 3bbd
00000050: 2a3a 1bbe 7ad3 d73b c1d7 abbd c6ec bf42
00000060: 929e a03c c724 7abd ad2f a4be 5eec 33be
00000070: b0f0 d7be d8df f93f 51a0 39be 404d 343f
00000080: 0a1f 25c3 4232 ab40 f91a 6c42 aaec 25bf
00000090: f5eb a2bb 1ca4 d7bd 9544 943c f3a1 1740
0.399378 -0.27320132 -0.011612142 -0.012974978 -0.020215565 -0.4461256 2.685735 52.38719
-0.40440425 -0.39581218 -0.005652603 1.8420734 1.5246513 111.7961 71.29078 0.6590265
52.24843 20.75211 -0.33343917 -0.0456794 -0.15158907 0.0065864893 -0.08390761 95.96245
0.019606862 -0.06107023 -0.32067624 -0.17570636 -0.42175817 1.9521437 -0.18127562 0.70430374
-165.12125 5.349885 59.02634 -0.64814246 -0.004971976 -0.10529348 0.018099109 2.3692596

model.input_block.bn2.running_var f4 [40]
00000000: f114 fa40 a26c de40 e359 3a41 f36f 2c40
00000010: 45bc 8e40 0ce8 9d40 5ade 5541 b38e 7a41
00000020: de33 2241 0119 0741 1dfe 5841 546b e441
00000030: 6a53 5640 4724 9841 1175 f041 9070 0441
00000040: 0721 6442 963f 9f41 cb9b e240 7875 7e40
00000050: 70b5 dd40 8c74 ad40 8c2a c040 784d 8241
00000060: 750c 4a40 7fbc 1340 7d90 a140 5f9c 8e40
00000070: ae94 9640 0cae 0041 3d42 4f40 c17f e940
00000080: a611 463b e470 4f41 db8b 0342 a163 4640
00000090: 7015 f040 d547 ca40 fa95 4a40 794b 1341
7.8150563 6.950761 11.646945 2.6943328 4.460482 4.934576 13.366785 15.659839
10.137663 8.443604 13.562039 28.552406 3.3488412 19.017714 30.057161 8.277481
57.032253 19.906048 7.0815177 3.9759197 6.928398 5.420477 6.0051937 16.287827
3.1570103 2.30838 5.0488877 4.4565883 4.7056494 8.042492 3.2384179 7.296845
0.0030222922 12.965061 32.886578 3.0998309 7.502617 6.3212686 3.1654038 9.205926

model.channel_expansion.conv.weight f4 [16, 40, 1, 1]
00000000: 9252 e33e 63c0 ae3e 8b77 ee3d df7b 603e
00000010: 7395 2c3e d6db dc3e bfbc 23be 5bf6 ef3d
00000020: 99c1 f33e f401 ecbd fcd7 b8bf 2017 1f3e
00000030: b88e 5d3e 3a86 173e 0358 443e 0a7f 1fbf
00000040: 6936 973e 39ef 963e c4f6 c93e dd58 8dbd
00000050: 913a b43d e129 6fbf 7dc3 bc3e f978 563e
00000060: b531 14be 3177 513d 53ea 803d 6a4f 2cbe
00000070: 5a78 02be d70d ed3e eff2 96be ad11 1a3e
00000080: c37a 4fbe f926 313e bf50 033e 2b36 b33d
00000090: a09a 683e d9e0 cb3e 1333 903d f2e7 bf3e
000000a0: 1cb2 e1bd 697c fdbe 2071 48be e683 be3e
000000b0: 67ec d33e 9c0c 35be cd8e 68bd e650 883d
000000c0: e77c 7cbe 1ff6 eebe 41bc a4bf d55b 34be
000000d0: 6703 24be ca12 3e3d e3cc 9e3d f30e 13bf
000000e0: 3b4f 173d 75d5 ac3d 44ab 9fbe 8b48 a73e
000000f0: 544d 21bd 2e96 16bf 2c87 5fbd e7f6 2abd
00000100: a3f2 db3e fa28 f43e a8f0 d23e 683d 7bbd
00000110: 2118 ae3e 3017 d53e 3d29 b43e dbf3 7c3e
00000120: f632 cbbc f3b0 3bbd d494 0cbc 1aca 123f
00000130: 87e8 84be 419f 56be 4e4d c23e aa6b 06bd
00000140: 5c8c d83e 8b98 ff3e e581 e13e 8032 433f
00000150: cfb2 513f 348b 06bf d06c 9f3f d505 013f
00000160: 39e8 e03d 99ad 7a3e c590 3a3b 39ad 08be
00000170: 3d60 113f 3b5a 073f e7bc d63e 9111 b53e
00000180: 3183 493f 14ed fa3e 73d7 1b3d 9987 b83e
00000190: b296 213f d944 9f3e bcc5 ea3a 40a3 0c3f
000001a0: c386 febe 70ac d83e 252a 5f3e bf6d 2e3f
000001b0: 8764 14be e69c a83e 7936 b13e b801 a83f
000001c0: 3c27 81bf b6d4 b53f c125 243f bc51 a83d
000001d0: 5977 083f 8448 143f f2bb 393f d8c6 c9be
000001e0: cadb edbd acf2 6abe 2224 45be 1c4b 713e
000001f0: a397 9c3d 6aff 46be 4789 18bd a8f4 a83d
00000200: 7c70 e3be c2cb 96be 2654 30be 0ae3 51be
00000210: cf6b da3d b1cc 1dbe 2b25 2abd a98a aebd
00000220: de64 013d 9a68 e73c 5dbb 96be c143 9d3e
00000230: 83e4 b3be d7e2 17be 3ed7 c9bd c88c 2bbd
00000240: 7831 8b3e 6141 8e3e 3935 5b3e 2ae1 98bd
00000250: 8acd aa3e 4ba4 213d 4058 6d3e 5f1c 15bd
00000260: 340c b53c bace 1c3e a8cb 433d 93a6 b93d
00000270: 59c0 6cbe c654 6fbe b49b 253e 6bf6 0e3c
00000280: 43dc 473e 6510 f03e 7f30 a7bf 29b7 473d
00000290: a3ae bd3c 6e88 8f3e cb9e 903e 94f2 863e
000002a0: 4015 343f d452 863e a921 24bd e5c1 863d
000002b0: 53dd 403d 3d7b 4e3e f5d3 843d ed62 d73d
000002c0: 059f 603e e8a9 033d 325f c63e d2e7 8a3c
000002d0: a76a 273e 2568 a73e 3f72 173e 1c11 463d
000002e0: ebb5 92be dc8c 253d 2ed5 483d 190e fabd
000002f0: 745f 34be a0ef 663d 0a65 66bc 58f7 883e
00000300: 97d9 1bbe c47c 163e 6b4b f83d 3231 98bc
00000310: 60b9 9b3e d167 b63d 98eb da3d 0fc3 043e
00000320: 3e73 783f cb20 2e3f 5ebb 483e 7f09 573f
00000330: 987c a43f 1eb4 91bf 367e 923f d205 833f
00000340: 5a55 c03e 3d3f 5e3f 729f 003f 57d3 dabe
00000350: efdb 4d3f d108 863f 5755 593f 5e24 5f3f
00000360: ef5e 8e3f e324 573f 5e0f 99be ed60 fe3e
00000370: 78f2 323f 14e5 373f ab0b 4cbd a229 653f
00000380: 41c9 53be 3170 d13e 94e2 0b3f 1dcb f83e
00000390: bc77 813e 7c95 44bd 25a2 e53e ada1 c93f
000003a0: 7893 a5bf 55f3 b53f 3f75 763f 433e 1d3e
000003b0: 5acf 2d3f b130 643f 01a2 713f b6f7 42be
000003c0: 4b8a 4b3d 0776 2dbe b05d a0bb 5a81 473e
000003d0: d92b 40bf 2246 3fbd 5477 a1bd 7430 933d
000003e0: 9cc5 9abe ecd8 0bbe 3e77 333e 81a8 fa3d
000003f0: 96d4 e83d c423 4fbd f902 443e 5d60 553e
0.44398934 0.34131154 0.11643895 0.21922253 0.16853885 0.43136472 -0.1598997 0.117169105
0.4760864 -0.1152381 -1.4440913 0.15536165 0.21636474 0.14797297 0.19174199 -0.6230322
0.295337 0.29479387 0.3944608 -0.06901715 0.08800233 -0.9342328 0.36867896 0.20944585
-0.14472087 0.05113906 0.06294694 -0.16827169 -0.12741223 0.4629962 -0.2948222 0.15045805
-0.20261674 0.17300023 0.12823771 0.08750566 0.22715235 0.39819983 0.07040992 0.37481648
-0.110203 -0.4950898 -0.19574404 0.37210006 0.41391298 -0.17680591 -0.05677681 0.06656055
-0.24657021 -0.4667215 -1.286995 -0.17613156 -0.16016923 0.046404637 0.07753923 -0.57444686
0.036940794 0.08439151 -0.31185353 0.32672533 -0.039380386 -0.58822906 -0.05457227 -0.04173937
0.42958555 0.47687513 0.4119923 -0.06133786 0.34002784 0.41619253 0.35187712 0.24702398
-0.024804574 -0.04582305 -0.008580405 0.5733963 -0.25958654 -0.20959188 0.37949604 -0.03281752
0.42294586 0.4992107 0.44044414 0.7624893 0.81913465 -0.5255616 1.2455082 0.50399524
0.10981793 0.24480285 0.0028467637 -0.13347329 0.5678747 0.52872056 0.41940996 0.35364965
0.7871581 0.49009 0.038047265 0.36040953 0.6312057 0.31107214 0.0017911713 0.549366
-0.4971219 0.4231906 0.2179342 0.6813621 -0.14491473 0.32932204 0.34611872 1.3125525
-1.0090098 1.4205539 0.6412011 0.082187146 0.5330711 0.5792315 0.72552407 -0.39409518
-0.11614187 -0.22944134 -0.19252065 0.23563808 0.0764611 -0.1943337 -0.037240293 0.082497895
-0.44421756 -0.2945233 -0.172196 -0.20496765 0.10665094 -0.15410115 -0.041539352 -0.08522541
0.031590335 0.02824812 -0.29439822 0.30715755 -0.35135278 -0.14832626 -0.09855507 -0.041882306
0.2718618 0.27784255 0.21407022 -0.07464822 0.3335994 0.039463323 0.23178196 -0.03640401
0.022100545 0.15313235 0.047801644 0.09064975 -0.2312025 -0.23372182 0.16172677 0.008725743
0.19517617 0.46887508 -1.3061675 0.04875866 0.023154562 0.28033775 0.2824615 0.26356947
0.70344925 0.26235068 -0.040071163 0.06579951 0.04708607 0.20164199 0.0648574 0.105169155
0.21935661 0.032144457 0.38744503 0.016956244 0.16349278 0.32696643 0.14789675 0.04835616
-0.28654417 0.040417537 0.04903143 -0.1220972 -0.17614537 0.056380868 -0.0140621755 0.26751208
-0.15219723 0.14696032 0.1212376 -0.018578146 0.30414867 0.0890652 0.10689467 0.12965034
0.97050846 0.6801879 0.19602725 0.83998865 1.2850523 -1.1383092 1.1444767 1.0236151
0.37565118 0.86815244 0.50243294 -0.42739365 0.8041372 1.047144 0.84895843 0.87164867
1.1122721 0.8404066 -0.29894537 0.49683324 0.6990123 0.7183392 -0.049815815 0.8951665
-0.20682241 0.40905908 0.54642606 0.48592463 0.25286663 -0.047994122 0.4485027 1.5752465
-1.2935629 1.4214884 0.96272653 0.15355782 0.6789452 0.891368 0.94387823 -0.19039807
0.049692433 -0.16939555 -0.004893981 0.19482937 -0.75066906 -0.046697743 -0.07884088 0.07186976
-0.3022889 -0.13656968 0.17525956 0.12239171 0.113686725 -0.050571218 0.19141759 0.20837541

model.channel_expansion.bn.weight f4 [16]
00000000: 6258 bb3f d9fc d53f 0a3d 1040 50af a13f
00000010: 195b a93f 2385 ac3f c32a 9a3f 2e8b a13f
00000020: c5be b0be 3638 a43f 6ace a83f e47a af3f
00000030: 3e8f d23f f478 a73f f7f0 ad3f 8493 a13f
1.4636347 1.6717788 2.2537255 1.2631626 1.3230926 1.347813 1.20443 1.2620599
-0.34520546 1.2829654 1.3187993 1.3709378 1.6449964 1.3083787 1.3589162 1.2623143

model.channel_expansion.bn.bias f4 [16]
00000000: c3b0 8c3e 23a9 51bd d150 633f c963 c7bc
00000010: 43f5 563e 9567 b53f 9731 b93d 8b9d 28bc
00000020: f208 873f 9d67 0b3f bf60 753e c38a ca3f
00000030: 37d0 433f 0c81 153e 499b f03d 2000 7dbd
0.27478608 -0.051186692 0.8879519 -0.024339573 0.20991997 1.4172236 0.09042662 -0.010291467
1.0549605 0.54454976 0.23962687 1.5823597 0.76489586 0.14600009 0.11748368 -0.061767697

model.channel_expansion.bn.running_mean f4 [16]
00000000: 00a1 2540 3218 3dbf 7775 3b41 404b 3dbf
00000010: 2fc7 2a40 9c21 8c41 a9b6 773f e93d de3e
00000020: 1695 3f41 0b68 bd40 c979 5640 3571 6441
00000030: f5ee 0a41 391f 3740 b5fa e93f 606e 52bf
2.5879517 -0.73865044 11.716178 -0.7394295 2.6684072 17.51641 0.9676309 0.4340661
11.973898 5.9189506 3.3511832 14.277638 8.683339 2.8612807 1.8279635 -0.8219967

model.channel_expansion.bn.running_var f4 [16]
00000000: c86e bf41 e828 9c41 b40d 5f42 ffff 5b40
00000010: 8a85 0041 23c5 c742 fe6e 1d40 9944 1240
00000020: dc56 ff41 0ef0 9341 05ac ab40 40ac 9542
00000030: a521 3242 d6f7 8640 d780 8340 b0a9 4940
23.929092 19.519974 55.763382 3.4374998 8.032602 99.88503 2.4598994 2.2854369
31.917412 18.492214 5.3647485 74.836426 44.532856 4.2177534 4.1094775 3.150982

model.fe.conv1.weight f4 [16, 1, 1, 15]
00000000: 6adb c1bc f54c a3be aa72 07bf fb01 38bf
00000010: 6dec 3ebe 372c 0dbe 47ae b7be 3cfb 21bf
00000020: f195 15be bfc9 c5be db1e 28bf cbf4 a7be
00000030: 57d5 88be 9745 4ebe d83c 5dbf c4f7 15bf
00000040: a70e 33bf 7440 29be a1c1 283f e380 893c
00000050: 93ce 09bf 7383 1b3e 007a 253f 45c0 68bd
00000060: 265d a8be 1a36 a5bd 51e0 063f 032c 07bf
00000070: 6bcc ddbe 5113 283e d0f4 ae3e a845 7c3b
00000080: 2b30 51bf 3e4c 0dbe c5e3 b43e 6d07 9e3e
00000090: c96f 41bf c827 f9bc 624a ba3e 2dad 193e
000000a0: 474c 25bf 4b7b cfbe 650e 953e 530c 8f3e
000000b0: 61df a4be d120 4e3f 4790 0e3f 8de3 ba3e
000000c0: 269d c63e a607 a83e fef9 a83e 4bd6 6e3e
000000d0: f924 a33e 2c39 f43b e5af 8f3e 8ebd db3d
000000e0: 4c67 6a3d 5860 6a3e 8fd3 0d3f bdaf 053f
000000f0: 228f dd3d 2c02 0b3f e599 0f3f 180a 3e3e
00000100: 3083 e43d 2b1f da3e 4eb3 bf3e fbc3 dd3d
00000110: 5897 36bc 9dea 2e3e 8ff9 c53e d01e 9c3e
00000120: c3d5 353e d485 103e 4c85 b13d 1f31 97bd
00000130: 979b a53e e346 2abf 86b3 68bf a9c7 e43c
00000140: 2c99 b5be ce82 87bf 4452 53bf 192e 673e
00000150: d4f1 b4be 0078 80bf d7c4 76bf 9ae3 413d
00000160: 4a8c f3bc eb62 7ebf 8885 083f d0df a83e
00000170: e8b3 2a3e b3d8 953e 8593 ab3e d820 5b3e
00000180: 587f bb3e cb14 2e3d 5ab0 a43e 6dd9 af3e
00000190: 9ba5 973e d894 4b3e 03f0 a63e 012e 033e
000001a0: 1be3 0e3e 2a13 46bf 8bb0 36bf fdfd adbe
000001b0: 9cb0 52be a9bd 73be 4a95 bfbe d53a cfbe
000001c0: 8b49 c7be 4dc7 8bbe d3ea e0be 6ba5 c9be
000001d0: 3530 98be a683 17bf 6c80 1fbf 9847 0cbf
000001e0: 28eb 1bbf 318c afbe efc2 3abf 692c bfbe
000001f0: 5d15 e3be 573c 09bf ce8d 44bf 3c55 66bf
00000200: 61d6 37bf eb06 6fbe a72e 2fbf 9dc9 80bf
00000210: ef48 b6be 44f7 edbe 667c 40bf 7331 c33e
00000220: 47a9 bd3e 3f4b 92bc 484a 7f3e b2f5 1f3f
00000230: 67d7 f53e 4b03 2bbe 1283 ad3d 4a42 a83e
00000240: 0ac0 cd3e 4d02 45be a3e6 4c3e d9cc 203f
00000250: 774b f23e d23a 1cbe 3d27 a9be 8d48 d2be
00000260: 2225 ccbe 4815 92be 5948 bdbe df7f 1d3d
00000270: cc84 8cbe 0ebb f9bc bc91 a8be ec46 2ebe
00000280: f5a4 96bd dc31 adbe 9e15 c2bd 22af ddbe
00000290: db56 85be 1b76 88bf 7bce bcbf 964c f43d
000002a0: b341 963e a891 70bf ee77 c0bf 2a59 4ebe
000002b0: 61c1 4b3d 3c5b 6bbf c22e 89bf 4bdb bbbd
000002c0: 153b dfbd cf63 9ebf fb1d 57bf a86b 5b3e
000002d0: cf4f 41bf 386f 39bf 0945 adbe 15dd a93d
000002e0: 80c0 18bf 1d73 2bbf 24e7 b6bd 17c4 1ebd
000002f0: d28d 62bf c8ee 1bbf c8bb 9a3e d93d febd
00000300: fae6 77bf e52d 64bf c0e0 4abb 0900 7ebe
00000310: a347 0dbf b910 41be ed9d 3abe 7dd6 c1be
00000320: 40c9 a0be b9e6 d6be e310 97be d7ca a1be
00000330: 0808 29be 8602 b7bd e59d 60be e31f e1be
00000340: b32d a5be 7dda 6abe b480 003f ede7 d73e
00000350: b120 2a3e 6962 063f 053e 843e a7c0 173e
00000360: d6e3 8cbd 20c4 ae3d 2bc8 893e ca01 e23d
00000370: 79a3 2dbc 928c bd3e a5a1 a13e 74f7 ca3e
00000380: a19b db3e d47f 59bf 2b31 51bf bf84 f9be
00000390: 8c61 74be 84b7 d6be 8029 bebe cdc6 6dbe
000003a0: f0e0 97bc 96e6 d23b 4ddf a7bd 4490 41be
000003b0: 173f 3abe 5e97 89be df1a ffbe eebd 04bf
-0.023664195 -0.3189465 -0.5290934 -0.7187802 -0.18644877 -0.13786398 -0.3587515 -0.6327398
-0.1460798 -0.38630483 -0.6567208 -0.3280395 -0.26725265 -0.20143734 -0.86420965 -0.58581185
-0.6994423 -0.16528493 0.65920454 0.01678509 -0.5383083 0.15186863 0.6463928 -0.056823988
-0.32883567 -0.0806696 0.5268603 -0.5280153 -0.4332002 0.16413619 0.34171152 0.0038493667
-0.81714123 -0.13798615 0.35330024 0.3086504 -0.75561196 -0.030414477 0.36384875 0.15007468
-0.64569515 -0.40523753 0.29112545 0.2793909 -0.32201675 0.80518824 0.556889 0.36501732
0.3879177 0.32818335 0.3300323 0.23323934 0.31864145 0.0074531045 0.28063884 0.10729514
0.057227418 0.22888315 0.5540094 0.5222128 0.10818316 0.5430019 0.560942 0.18558538
0.111578345 0.42601904 0.37441486 0.10828396 -0.011144482 0.17081685 0.3866696 0.30492258
0.17757325 0.14113551 0.086680025 -0.07382416 0.32345268 -0.66514415 -0.9089893 0.027927237
-0.35468423 -1.0586793 -0.825474 0.22576179 -0.3534075 -1.0036621 -0.96394104 0.0473362
-0.029729981 -0.99369687 0.5332875 0.32983255 0.16670191 0.2926689 0.33510986 0.21399248
0.36620593 0.0425003 0.32165796 0.3434557 0.29618534 0.19880998 0.3260499 0.12810518
0.13953821 -0.7737299 -0.71363133 -0.3398284 -0.20575184 -0.23802818 -0.37418586 -0.40474573
-0.38923296 -0.27300492 -0.43929157 -0.39384016 -0.2972428 -0.59185255 -0.6230533 -0.54796743
-0.60905695 -0.34286645 -0.72953695 -0.3733857 -0.44352236 -0.53607696 -0.76778877 -0.8997381
-0.7181149 -0.23342483 -0.6843056 -1.0061527 -0.3560252 -0.4647771 -0.75189817 0.38123664
0.3704321 -0.017858146 0.2493068 0.62484276 0.480159 -0.16700475 0.08472265 0.32863075
0.40185577 -0.19239159 0.20009856 0.6281257 0.473232 -0.15256813 -0.3303775 -0.41070977
-0.3987208 -0.2853186 -0.3696926 0.038452026 -0.27445066 -0.030484702 -0.32923687 -0.17019242
-0.07355682 -0.33827102 -0.094767794 -0.43297678 -0.26042828 -1.0661043 -1.4750513 0.1192867
0.29347 -0.93972254 -1.50366 -0.20151201 0.049744967 -0.9193609 -1.0717394 -0.09172686
-0.10899941 -1.2374209 -0.8403012 0.21427786 -0.75512403 -0.7243533 -0.33841732 0.08294121
-0.5966873 -0.66972524 -0.08930805 -0.038761225 -0.8849765 -0.60911226 0.3022139 -0.1241414
-0.9683682 -0.8913253 -0.0030956715 -0.24804701 -0.55187434 -0.18854035 -0.18224306 -0.37858954
-0.31403542 -0.41972902 -0.2950507 -0.31600067 -0.1650697 -0.08936028 -0.21935232 -0.4396964
-0.32261428 -0.22934909 0.50196385 0.42169133 0.16614033 0.5249391 0.25828567 0.14819585
-0.06879394 0.085335016 0.2691053 0.110354975 -0.010598057 0.3702131 0.31568637 0.39641917
0.42892173 -0.84960675 -0.8171565 -0.4873409 -0.23865336 -0.41936886 -0.37141037 -0.23220368
-0.018539876 0.0064361794 -0.08196888 -0.18902689 -0.1818813 -0.26873296 -0.4982519 -0.5185231

model.fe.conv2.weight f4 [16, 16, 1, 1]
00000000: 7e3b 833e e35a aabe 731f 4fbe 2cd5 fbbe
00000010: 3024 06bd 3aa6 77be 4727 f8be f7e8 163f
00000020: d817 813e 115f b0be ac4e 76be 8326 2a3f
00000030: 3818 8cbe 2911 9c3e 7278 ddbe 2e05 1f3f
00000040: 951a 093f bc02 3dbf a57c 7d3f 8954 c83e
00000050: 58bf 96be 7575 163f f4ba 883d d849 c4be
00000060: 2638 a73e 470a fabe 34b6 cd3e 13b1 833e
00000070: e41f a73e 1ccc dfbe 3b36 033e d0ed 01bf
00000080: 5432 98be ebea 513f 32ca cc3e 14ce 3cbf
00000090: 743f 403e b4f3 123f 6f00 8fbe 5204 533e
000000a0: b506 4a3e 110c af3d d747 2bbe 1025 0cbc
000000b0: 016f d23e b5b5 f83e ea5a f2be 15cd 513f
000000c0: 35b3 183f b2ee 3fbf e13a 883f 3e2d cf3e
000000d0: d98f b9be 1200 133f c89e 673e edae bbbe
000000e0: 63f2 6d3e 5595 d5be d4fe e83e 5d3f fa3e
000000f0: 80cc 263f df23 86be a53e c83e 2536 f5be
00000100: 4731 493e 1ccc 43be 31cb 39bd 81e8 1cbf
00000110: 57cc 893d 7740 66be cfd8 8bbe ba13 2c3e
00000120: b7cc b43e 919d 9bbe 1089 09be 5924 163f
00000130: 5df2 a3be bc29 e43e 4f8a 17bf d9c7 0a3f
00000140: 8a0e 343d dc6c 0c3f 4a81 143f 2913 29bf
00000150: bd82 d83d 3ae8 673e a9a0 0abf c3c4 4e3f
00000160: 3a81 d23e 2da1 92bc 4166 43be f93c eebd
00000170: 6423 9e3e 8326 ac3e 090a 0fbf 0862 173f
00000180: 13c4 213f 2c0a e7be 5b67 8d3f f1fa bc3e
00000190: 8df9 04bf 1598 3a3f 6726 733e 269f f1be
000001a0: 4ad2 113e aecf c3be 1d01 093f 077d fc3e
000001b0: a08b bc3e 36d4 84be 441e 783e 0341 fabe
000001c0: d8a0 173f b008 53bf c3b8 993f a1ad b23e
000001d0: 7de9 c2be 4b80 d23e f9ea 1f3e 6725 0abf
000001e0: 1cfa e53e e9c0 1fbf 3958 9e3e 8671 a13e
000001f0: ed6c 1b3f f0ac 11be 6a27 ce3e 6860 cfbe
00000200: a524 023f 758d 10bf 670f 943f 6e63 b53e
00000210: b4d4 10bf 1ff8 fb3e b2d1 ca3d c156 09bf
00000220: 2d5e bb3e a054 9dbe a6e4 9f3e 48ae 043f
00000230: 8b3c 193f 87ed 45be 97eb 793e f959 21bf
00000240: acf1 a1be e60e 923f 12bc d83e af94 44bf
00000250: cc56 983e 193e 6c3f 3c1d 8ebe 5da2 f53e
00000260: 9ee7 9e3e bc8f 5abd e6bc 80be f0e9 4dbe
00000270: a70b 1f3f f64b 953e 7b25 13bf a645 203f
00000280: fe4b 8f3d c180 aebe 1d1f 17bd 05de 58be
00000290: 8564 173e f3be 53be 63b2 adbe c8e2 e53e
000002a0: 7121 df3e 99eb 4bbe 38fb 90bd a616 ca3e
000002b0: cacc 28be f7a5 d33e 4f66 12bf 2cd2 243f
000002c0: 50af 233f 7ac8 2cbf a33d 823f 314f c93e
000002d0: fcf2 53be 184c 113f c6a7 6b3e 8727 e9be
000002e0: 935c a03e c9f4 cfbe 5459 cf3e 171e ad3e
000002f0: 5009 db3e e8b1 a2be 8440 9e3e 7866 cfbe
00000300: 6604 003f 15af 13bf 9a86 613f c39c 753e
00000310: 921b eabe 18f5 b03e 2239 403e e0ca e1be
00000320: d221 763e 67fa b6be a0c5 b03e ee0c 8a3e
00000330: a266 d03e cc37 5bbe 632e 9a3e c8a2 73be
00000340: 9507 903e b336 29bf 9c0e 763f 24cd 8e3e
00000350: 61e7 a5be eba6 f73e 07d7 ab3e 0310 b4be
00000360: 8579 b03e fb83 95be 79b4 383e 5d72 f93e
00000370: 7900 103f 2fee c5be b132 863e 2448 fcbe
00000380: 2e6d 82be 44de 8c3f 2dfd e33e 3d32 17bf
00000390: 3e98 5b3e 596e 4d3f 5ef5 87be 70ba 083f
000003a0: f00b e43e 5ebb 313e cd33 c0be 589c cdbd
000003b0: d843 fc3e b142 533e 3320 b7be b2fc 1f3f
000003c0: ebe7 89bd 807e 9e3f 76b0 e03e 1d9e c6be
000003d0: 3b59 6a3e 709d 3f3f 8de3 95be 6016 de3e
000003e0: a84f f23d c744 893e e78c b2be 6f66 983d
000003f0: a115 0b3f baeb b73e 4aaa 2ebf cfbd 763f
0.25631326 -0.33272466 -0.2022684 -0.49186075 -0.032749355 -0.24184504 -0.48467466 0.58949226
0.25213504 -0.3444753 -0.24053448 0.66465014 -0.27362227 0.30481842 -0.43255955 0.6211728
0.53556186 -0.738323 0.9901832 0.39126995 -0.2944286 0.58772975 0.066762835 -0.38337588
0.32660025 -0.48835966 0.40178072 0.25721034 0.32641518 -0.4371041 0.12813656 -0.507535
-0.29725897 0.8199908 0.39998013 -0.7375195 0.18774205 0.5740311 -0.27930018 0.20607117
0.19729121 0.08547223 -0.16726623 -0.008553758 0.41100314 0.4857613 -0.47334987 0.81953555
0.5964845 -0.74973595 1.0642968 0.40464205 -0.3624256 0.5742198 0.22619164 -0.36656895
0.23236994 -0.41715494 0.45506918 0.48876467 0.6515579 -0.26199242 0.39110294 -0.47892871
0.19647704 -0.1912083 -0.045359794 -0.6129227 0.06728428 -0.22485529 -0.2731385 0.168044
0.35312435 -0.3039365 -0.13431191 0.5864921 -0.32020846 0.4456309 -0.5919542 0.54211193
0.043959178 0.54853606 0.5800978 -0.6604486 0.10571811 0.22647181 -0.541514 0.80768985
0.41114217 -0.01789912 -0.19081976 -0.11632723 0.30886376 0.33623132 -0.5587469 0.5913396
0.6318981 -0.45124948 1.1047167 0.36910203 -0.51943284 0.7288831 0.23745118 -0.47191733
0.14240375 -0.38244385 0.53517324 0.49314138 0.36825275 -0.25943154 0.24230295 -0.48877725
0.59229803 -0.8243513 1.200951 0.34898093 -0.38068762 0.41113505 0.15616979 -0.5396332
0.4491738 -0.6240373 0.30926684 0.31531924 0.6071308 -0.14226127 0.40264446 -0.4050324
0.50837165 -0.56465846 1.15672 0.3542742 -0.5657456 0.4921274 0.099032775 -0.53648
0.36595288 -0.30728626 0.31229132 0.5182843 0.59858006 -0.1932889 0.24406277 -0.6302791
-0.31629694 1.1410797 0.42330986 -0.76789373 0.2975372 0.92282254 -0.2775668 0.47975436
0.31036085 -0.053359732 -0.25144118 -0.20108771 0.62127155 0.29159516 -0.57479066 0.62606275
0.06996916 -0.34082606 -0.036894906 -0.21178444 0.14784439 -0.2067831 -0.3392516 0.44899583
0.435802 -0.19914092 -0.07079166 0.39470404 -0.16484371 0.4133756 -0.5718736 0.64383197
0.6393938 -0.674934 1.017506 0.3931823 -0.2069816 0.56756735 0.23013219 -0.4553797
0.3132063 -0.40616444 0.4049784 0.3381202 0.42780542 -0.31776357 0.30908597 -0.40507865
0.5000671 -0.5768903 0.8809601 0.23985581 -0.4572416 0.34561992 0.18771794 -0.44100094
0.24036339 -0.35737917 0.34525776 0.2696299 0.40703303 -0.21408004 0.30113515 -0.23792565
0.28130785 -0.6609909 0.9611604 0.27890885 -0.3240309 0.48369536 0.3356249 -0.35168466
0.34467712 -0.29202256 0.18037595 0.48720065 0.5625072 -0.38658282 0.2621055 -0.4927379
-0.25473922 1.100533 0.44529095 -0.5906103 0.21444795 0.802465 -0.26554388 0.5340948
0.44540358 0.17356631 -0.3753952 -0.10039586 0.4927051 0.2063091 -0.35766754 0.6249496
-0.06733688 1.2382355 0.4388463 -0.38792506 0.22885601 0.74849606 -0.2927517 0.43376446
0.118315995 0.26810285 -0.34873125 0.07441413 0.5432988 0.35922033 -0.6822859 0.96383375

model.fe.bn.weight f4 [16]
00000000: 7313 a33f 3f05 aa3f 7d20 a13f 0544 9c3f
00000010: 8000 9c3f 42bf 9b3f 5728 a33f 3458 b03f
00000020: 54a1 9c3f 3d30 a73f 9f76 973f 6032 a23f
00000030: 5a00 a33f e4d3 a23f e97c 9e3f 4fc0 9b3f
1.274031 1.3282851 1.258804 1.2208258 1.2187653 1.2167742 1.2746686 1.3776917
1.2236733 1.3061596 1.1833075 1.2671623 1.2734482 1.2720914 1.238187 1.2168063

model.fe.bn.bias f4 [16]
00000000: 7007 8abe 3207 b0be c65d 87be 91dc 97be
00000010: 94c4 6bbe 6f94 65be f6d3 a5be 42e1 b8be
00000020: 0ca6 94be 47fd 9bbe d61d 4ebe 215f a2be
00000030: 440b a2be 0498 9ebe 6dd6 86be ef5d 85be
-0.269588 -0.3438049 -0.2643873 -0.29660466 -0.23024207 -0.22419904 -0.32388276 -0.36109358
-0.29032934 -0.30466673 -0.20128569 -0.31713203 -0.3164922 -0.30975354 -0.2633547 -0.26048228

model.fe.bn.running_mean f4 [16]
00000000: d5e3 3ec1 b03b 81c1 e477 3fc1 c39d a1c1
00000010: b979 35c1 9ec1 2bc1 e2ef 9ec1 34d4 94c1
00000020: 4058 a5c1 2138 70c1 b625 1ec1 ae94 8ac1
00000030: 480e 5bc1 5963 91c1 9255 6ec1 aa51 70c1
-11.930623 -16.154144 -11.96677 -20.202032 -11.342217 -10.73477 -19.86713 -18.603615
-20.66809 -15.013703 -9.884207 -17.322598 -13.690987 -18.17351 -14.895891 -15.0199375

model.fe.bn.running_var f4 [16]
00000000: e03e f841 f69c ba42 39fd 0e42 afe1 fd42
00000010: 9223 ac41 fc80 fd41 d70c f342 2009 ee42
00000020: 7142 f342 da3e 7f42 11be 6e41 6efe c642
00000030: aac4 8842 e3a9 bb42 a78f 4e42 4b35 5342
31.0307 93.306564 35.747288 126.94079 21.517368 31.68798 121.52508 119.01782
121.62977 63.81138 14.921403 99.49693 68.38411 93.83181 51.640285 52.802044

model.classifier.weight f4 [1, 16]
00000000: 602e 2dbf e83d 0d3f 2cfa 03bf 494a f13e
00000010: 500c 32bf 4384 d9be 8197 e03e 25b0 0d3f
00000020: a117 fb3e 8bc0 11bf 8f85 0fbf 5c82 0d3f
00000030: 7721 083f d96e 0b3f 87cf 1dbf 717c 04bf
-0.6764889 0.55172586 -0.51553607 0.47126988 -0.6955004 -0.4248372 0.43865588 0.553469
0.49041465 -0.5693442 -0.5606317 0.5527704 0.53176063 0.54466015 -0.61644787 -0.5175238

exp_avg f4 [40, 1, 1, 25]
00000000: d0d8 0db9 0c6e 0e37 1ceb 0039 288c 3b39
00000010: 51df 3539 fb35 0339 6183 7a38 ff37 87b5
00000020: ffc1 3ab8 64ff 8bb8 9892 8cb8 581d 3eb8
00000030: 8f69 84b6 06e8 4a38 127c c938 6136 fb38
00000040: ff82 de38 a507 7138 5285 a9b6 42a3 4db8
00000050: 6cc1 46b8 d915 9436 66dc a838 8177 0b39
00000060: d1d2 f038 47fa cf39 bd67 9339 eb18 4839
00000070: 2f3e 1b39 edb5 0439 8c21 aa38 e1b8 49b7
00000080: 53ad 0bb9 ab88 70b9 f080 81b9 c6f5 30b9
00000090: 0375 01b8 4cd4 c138 4317 0639 c711 3d38
000000a0: b766 03b9 a732 a0b9 5b4d d7b9 f554 cdb9
000000b0: 2cb7 87b9 cde5 94b8 c1e6 d238 cbe5 5d39
000000c0: 972c 8b39 8507 9f39 47b6 b4b8 3685 2334
000000d0: 768e 6f38 0b4f 9f38 853c 8938 7388 3e38
000000e0: 777d 1a38 a534 5838 db63 b838 f0b9 0a39
000000f0: 5f61 2f39 f786 3c39 fd53 2e39 69be 0a39
00000100: a467 b738 18e3 2838 4c9c b3b6 5d89 51b8
00000110: b6c1 c7b8 f9f0 13b9 fe00 40b9 d990 60b9
00000120: 007c 6eb9 938e 66b9 4e13 4ab9 8526 0e39
00000130: ccdc a939 c354 e539 645f e839 f37c b639
00000140: 94c6 4d39 4329 5138 153d 1fb8 d7db 3eb8
00000150: 2291 2637 91a6 a938 bb2f ec38 8d34 9138
00000160: fdd1 47b8 9d2a 50b9 0266 a8b9 8a8d bbb9
00000170: 76d9 92b9 2116 dab8 e434 f238 48ec 9f39
00000180: 7079 d239 3041 c539 4ec5 8039 e3e2 8438
00000190: 9db2 0c39 d014 2c39 b1ce 4339 4b5e 5739
000001a0: cd73 6539 92f4 6839 f159 5b39 1f43 3839
000001b0: 9a6e ff38 54b6 6038 17c8 a2b7 6fcc b6b8
000001c0: 7c89 15b9 f208 40b9 b5d4 5cb9 5831 6fb9
000001d0: 64c8 78b9 9dc7 77b9 61ff 66b9 6cd8 40b9
000001e0: 6f30 02b9 ac78 34b8 14a1 5a38 4e56 1d39
000001f0: 283a 7a39 aacc a7b9 bc50 70b9 d70f 3bb9
00000200: 25bc 2bb9 e279 22b9 c305 fbb8 0eea 47b8
00000210: 85f0 3538 bd2a fb38 7fc1 2339 af9e 1f39
00000220: 1dfd 0b39 e722 0d39 1eda 3639 c867 7e39
00000230: c309 9e39 be1b a139 26d9 7939 773e e938
00000240: a23c d5b7 473a f4b8 025e 0ab9 a42c b6b8
00000250: 851e 10b8 f34c 19b8 37a7 4bb8 f1af a3b8
00000260: ef5a b5b8 7183 a2b8 716b 76b8 b527 20b8
00000270: f227 aeb7 0db4 fcb6 1dc2 6236 3e30 6d37
00000280: ad46 d737 3eda 1938 c207 3a38 cebc 4038
00000290: d895 2938 8b45 f537 a7aa 8437 6750 8a36
000002a0: 809a 5bb6 2515 d7b6 92bd 07b7 9747 52b7
000002b0: 02e4 c1b7 b6a0 28b8 e637 7cb8 2dbe ab39
000002c0: b75c ac39 811f 9c39 4c0c 6739 bdc2 d238
000002d0: 3dfb 3fb8 611b 4fb9 a330 b0b9 4475 eab9
000002e0: 6289 08ba b1a1 0fba b0c2 08ba eebb e7b9
000002f0: a930 a7b9 3956 35b9 de14 f7b7 95ef be38
00000300: 713b 3d39 fa2f 7f39 4230 9939 afe5 af39
00000310: 9950 c239 999f c939 7cb7 bd39 2b3b 9b39
00000320: 9b9c a2b8 f6a6 3c38 34b6 f938 daf1 af38
00000330: 5bb6 07b8 3244 14b9 b797 24b9 d3bc 6bb8
00000340: 762b d638 f8d4 5e39 81f8 4739 f77e ed37
00000350: c3e1 4db9 2933 bdb9 f0b8 bfb9 5ad3 4cb9
00000360: 80a0 9438 5f78 9e39 d833 cc39 2b9e 9f39
00000370: 8eb2 ea38 f549 97b8 2dc7 21b9 c49a 00b9
00000380: 2875 65b8 adf8 eab8 d48e 55b8 d179 9db8
00000390: 97ae 06b9 0ecf 10b9 4032 76b8 a9ff d138
000003a0: f5e3 9239 67d0 d439 1b79 de39 a2d8 ad39
000003b0: 2fe8 3439 a8e4 8337 1670 a8b8 02f0 c3b8
000003c0: 2538 2fb8 c591 0938 d57f bb38 a042 df38
000003d0: 0818 af38 8d2f fa37 9e5c 4db8 b595 23b9
000003e0: dc0c 9ab9 81a5 ebb9 91e1 b7b8 93ab 1bb8
000003f0: c671 3536 2d3a ee37 7b53 3738 b525 6738
-0.00013527577 8.489482e-06 0.00012294616 0.00017885922 0.00017344697 0.00012513243 5.9727e-05 -1.0074581e-06
-4.452653e-05 -6.675607e-05 -6.7030254e-05 -4.532686e-05 -3.946195e-06 4.837664e-05 9.607537e-05 0.000119787415
0.00010610185 5.7465997e-05 -5.052113e-06 -4.9027854e-05 -4.7387017e-05 4.413287e-06 8.051917e-05 0.00013300592
0.000114833594 0.00039668588 0.00028115316 0.00019082769 0.00014805117 0.00012656274 8.11248e-05 -1.2023579e-05
-0.00013320641 -0.00022939096 -0.00024700863 -0.00016876226 -3.0864972e-05 9.2425005e-05 0.00012787902 4.5077668e-05
-0.00012531398 -0.00030555317 -0.0004106563 -0.00039163945 -0.0002588568 -7.099994e-05 0.000100565616 0.00021161807
0.00026545368 0.00030332446 -8.617021e-05 1.522902e-07 5.7114717e-05 7.596434e-05 6.543942e-05 4.542661e-05
3.683331e-05 5.1547442e-05 8.792403e-05 0.00013229973 0.00016725574 0.00017979355 0.00016625221 0.00013231639
8.7454246e-05 4.026582e-05 -5.352811e-06 -4.9957413e-05 -9.525141e-05 -0.00014108782 -0.00018310916 -0.00021416265
-0.00022743642 -0.00021987622 -0.00019271413 0.00013556525 0.00032398698 0.00043741436 0.0004432156 0.0003480684
0.000196243 4.986791e-05 -3.796544e-05 -4.5504272e-05 9.928162e-06 8.0895734e-05 0.000112622474 6.923927e-05
-4.7640864e-05 -0.000198523 -0.0003211946 -0.00035772874 -0.0002800931 -0.00010399172 0.00011549311 0.00030502887
0.000401448 0.00037623337 0.00024561066 6.3365114e-05 0.00013417979 0.00016410952 0.00018673648 0.00020539125
0.00021882281 0.00022216354 0.00020918973 0.00017572612 0.00012179949 5.3575568e-05 -1.9405079e-05 -8.716515e-05
-0.00014260964 -0.00018313879 -0.00021060075 -0.00022811198 -0.00023725774 -0.00023630117 -0.00022029645 -0.0001839117
-0.00012415809 -4.302773e-05 5.2125266e-05 0.00015004838 0.00023863523 -0.0003200521 -0.0002291826 -0.0001783961
-0.0001637792 -0.00015494929 -0.00011969686 -4.7663278e-05 4.3377764e-05 0.00011976573 0.00015616974 0.00015222536
0.00013350365 0.0001345981 0.00017438128 0.00024261989 0.0003014338 0.00030728983 0.00023827385 0.00011121941
-2.5419813e-05 -0.00011645682 -0.00013195726 -8.686751e-05 -3.43607e-05 -3.6549707e-05 -4.8554703e-05 -7.805217e-05
-8.64769e-05 -7.749245e-05 -5.8751033e-05 -3.8183953e-05 -2.0761017e-05 -7.531146e-06 3.3789613e-06 1.4137533e-05
2.5662908e-05 3.6681296e-05 4.435308e-05 4.5952205e-05 4.0432293e-05 2.923866e-05 1.5815092e-05 4.1220806e-06
-3.2723474e-06 -6.409961e-06 -8.090765e-06 -1.2533644e-05 -2.3113567e-05 -4.0203995e-05 -6.013354e-05 0.00032757354
0.00032875474 0.0002977811 0.00022034458 0.00010049853 -4.5771932e-05 -0.00019751258 -0.00033605573 -0.00044719328
-0.000520846 -0.0005479111 -0.0005216999 -0.00044199772 -0.00031888977 -0.00017293626 -2.9454412e-05 9.104532e-05
0.00018046588 0.00024336568 0.0002921839 0.0003354973 0.00037062613 0.00038456617 0.00036185596 0.00029607987
-7.753932e-05 4.4978187e-05 0.00011907183 8.3896986e-05 -3.235634e-05 -0.00014139785 -0.00015696777 -5.6204222e-05
0.000102124104 0.00021250907 0.00019070694 2.8311724e-05 -0.00019634426 -0.00036087006 -0.00036568148 -0.0001953369
7.0870854e-05 0.00030225792 0.0003894854 0.00030444688 0.00011191248 -7.214017e-05 -0.00015428355 -0.00012264686
-5.4706965e-05 -0.00011204309 -5.0916176e-05 -7.5090335e-05 -0.00012844276 -0.00013810044 -5.869777e-05 0.00010013517
0.0002801713 0.00040591063 0.0004243337 0.00033158535 0.00017252633 1.5722893e-05 -8.031742e-05 -9.3430295e-05
-4.177554e-05 3.2799104e-05 8.9406654e-05 0.000106458785 8.3491264e-05 2.9824465e-05 -4.8962065e-05 -0.00015600662
-0.0002938275 -0.00044946003 -8.768135e-05 -3.711467e-05 2.7037327e-06 2.8398901e-05 4.3708347e-05 5.510981e-05
