ckpts/finetuning/subject_01-session_05.ckpt (torch, 64013 bytes, 50 tensors)

model.input_block.temp_cov.weight f4 [40, 1, 1, 25]
000000 f0 49 d4 3e 1a f3 70 3d 7e e5 d6 be 25 d6 df be
       0.4146266 0.05882559 -0.41971964 -0.43718067
000010 3d d6 b3 be 1c e8 96 bd db 67 2d 3e a7 3e cf 3e
       -0.35124388 -0.0736849 0.16934149 0.40477487
000020 47 82 6c 3e f5 af 70 3e d2 1c e8 bd d5 ca 78 be
       0.23096572 0.23504622 -0.11333622 -0.24296124
000030 39 a3 e0 be b8 d7 cd be e8 f2 b0 be f7 5b c7 bd
       -0.4387453 -0.40203643 -0.34560323 -0.09734338
000040 9b 46 98 3e 73 d7 e0 3e 96 20 60 3e af 6d 80 3e
       0.29741368 0.43914375 0.2188743 0.25083682
000050 b9 bc 99 3e 3c 19 1f 3e 59 e2 6b be e2 76 17 be
       0.30026796 0.1553697 -0.23035564 -0.14791444
000060 6d 43 b9 be bc 7d 0a bf 62 47 ef 3d 78 ba 80 3e
       -0.36184254 -0.54098105 0.11683537 0.25142264
000070 86 80 ed 3e 10 7f 04 3f cf 09 c5 3e 54 60 97 3e
       0.46387118 0.5175638 0.38484046 0.2956568
000080 a6 9a de be 2f bf dc be 49 63 e9 be 11 71 e0 be
       -0.43477362 -0.43114612 -0.4558356 -0.43836263
000090 f5 d9 5a bd 18 22 1a 3f 31 5f 03 3f 4c 00 05 3f
       -0.053430516 0.6020827 0.51317126 0.5195358
0000a0 fd a9 df 3e 3f a6 20 bb 46 c5 72 be 4b 54 08 bf
       0.43684378 -0.0024513153 -0.23708066 -0.5325362
0000b0 ec 8e 04 bf 62 4b dd be 81 cb 8e 3e 3b c3 0b 3f
       -0.5178058 -0.43221575 0.27889636 0.54594773
0000c0 c3 90 d7 3e 70 23 06 3f a6 11 0f 3f db 87 1f 3f
       0.42102632 0.52397823 0.55886304 0.62316674
0000d0 6c 9f f9 3e a6 28 d2 3e 69 c6 d5 3e 6c 1e 6a be
       0.48754442 0.41046637 0.41752937 -0.22863168
0000e0 8d 3f 70 be 94 49 ec be 44 4b e3 be a9 02 c2 be
       -0.23461743 -0.46149886 -0.4439336 -0.37892655
0000f0 cd cd d1 bd 09 d5 09 bc 7a f5 07 be 07 91 5c 3d
       -0.102443315 -0.008412608 -0.13277236 0.053849246
000100 ae c5 ef 3c 0e d0 4e be c4 7b 68 be 66 74 18 be
       0.029269066 -0.20196554 -0.22703463 -0.14888152
000110 08 40 12 3e d6 0b e5 3e 02 71 84 3e 50 24 df 3e
       0.14282238 0.44735593 0.25867468 0.43582392
000120 c6 a5 21 3f 27 47 32 3f 74 05 0f 3f 3d a2 6e bd
       0.63143575 0.6963982 0.55867696 -0.05826019
000130 37 82 88 be 98 fa e9 be 21 b3 70 be 5e cf ae be
       -0.26661846 -0.45699 -0.23505832 -0.34142584
000140 70 05 9a be c6 22 90 3e 03 6e ad 3e b9 ce 60 bc
       -0.30082273 0.2815153 0.33872995 -0.0137211615
000150 59 f6 2d 3e 43 bd a9 bd 65 0a 5d be 01 6b 97 be
       0.16988505 -0.08288052 -0.21585996 -0.29573825
000160 70 ec d4 bd c6 7a 32 be 33 be 21 3e f8 36 74 3e
       -0.103966594 -0.17429647 0.15795211 0.23849094
000170 3e 73 90 3e 0c 02 1f 3e 36 e7 90 be 5a 97 ac be
       0.28212923 0.15528125 -0.283014 -0.33709222
000180 01 66 36 be 10 dd 70 be aa ae cf be 74 1d a0 be
       -0.17812349 -0.23521829 -0.40562946 -0.3127247
000190 6c 69 a7 3e 1c 6e 58 3d ef 77 bd be e6 45 c7 be
       0.32697618 0.052839383 -0.37005565 -0.38920516
0001a0 35 19 fd be 95 ec 89 be f6 72 c2 be fd e5 a7 be
       -0.49433294 -0.2693831 -0.37978333 -0.32792655
0001b0 db 6a 71 bd f3 64 0e 3e b5 ed 9f 3d da 9b 7e 3e
       -0.058939796 0.13905697 0.07809011 0.2486414
0001c0 f0 bb 10 bd 8f 43 66 3e 18 37 22 3e aa c5 00 be
       -0.03533548 0.22486709 0.15841329 -0.12575403
0001d0 b7 3f 4e 3d 42 05 39 3e 74 68 88 3e cf be ac 3e
       0.050353732 0.18068412 0.2664219 0.33739325
0001e0 cc 54 90 3e 32 2f e6 bc f8 40 b4 be 76 bc 98 be
       0.28189695 -0.028098676 -0.35205817 -0.29831284
0001f0 d4 ac 34 bf 7e 1f 3f be 8b 0c ad be 90 b1 f1 be
       -0.70576215 -0.18664357 -0.33798632 -0.47205782
000200 d0 1e ec be d5 79 08 bf de 17 b0 be b4 b0 96 bd
       -0.46117258 -0.533109 -0.3439321 -0.07357922
000210 b6 41 64 3d 10 b0 ab 3e ca 82 e2 3e 97 a0 07 3e
       0.05572673 0.33532763 0.4424041 0.13244854
000220 ed 1f c5 3a 8b af 05 be 49 cc ce bd 86 8f 01 3d
       0.0015039422 -0.13055246 -0.10097558 0.031631015
000230 0f 68 3e 3e e5 65 63 3e df 5e bc 3e 16 bf 57 3e
       0.18594383 0.22206838 0.3679113 0.21068987
000240 a9 5c ad bd 62 00 8d be 27 4d 27 be 41 a2 bf be
       -0.08464939 -0.27539355 -0.16338025 -0.37428477
000250 d3 32 05 bf 29 28 17 bf 99 4b b0 3d 15 ea 9c 3e
       -0.52030677 -0.59045655 0.08608169 0.3064734
000260 8d 59 08 3f a1 61 2f 3f 01 85 25 3f 63 79 9b 3e
       0.53261644 0.68508345 0.6465607 0.30366048
000270 38 3d 14 3f 77 e4 6c 3e 33 ea 31 3e 91 8d d4 bd
       0.5790591 0.23134027 0.17374496 -0.10378564
000280 4a 8c 50 be d5 38 92 be 31 ca f8 be 00 b6 06 bf
       -0.20366016 -0.28558984 -0.4859176 -0.5262146
000290 fa a3 d6 be 90 1a d4 be b1 09 07 bf e8 e4 a9 be
       -0.4192198 -0.41426516 -0.5274916 -0.33182454
0002a0 bd 92 ed be fe 33 93 bc 83 c2 c1 3e 6e 95 73 3e
       -0.46401015 -0.017969128 0.37843713 0.23787472
0002b0 81 84 17 3f a5 d4 12 3f 3d 49 cd 3e 70 31 80 3e
       0.5918656 0.5735572 0.4009494 0.25037718
0002c0 0e 9b 3a 3d 99 8e 8a bd 47 c2 12 3e 8a ab 66 be
       0.045558028 -0.067654796 0.14331923 -0.22526374
0002d0 b6 f2 a3 bd 24 76 ee bd 59 8e a0 3d fa 3e 47 bb
       -0.08005278 -0.11643627 0.07839651 -0.0030402527
0002e0 de 0e 39 3d 14 14 05 3d 6e fc aa bd 7b be a7 bd
       0.045180194 0.03248985 -0.083489284 -0.08190628
0002f0 70 77 49 be 92 63 a3 3d 0f e4 10 3e 4b 77 13 3e
       -0.19674468 0.07977976 0.14149497 0.14400975
000300 30 85 08 be b8 28 e8 bc c2 93 2e be b2 33 e8 bd
       -0.13332057 -0.028339729 -0.17048553 -0.11337985
000310 fc 2c c4 bd fe 8d c6 3d c3 96 e6 bd ef 52 49 bc
       -0.095788926 0.096950516 -0.11259224 -0.012287839
000320 1e c8 56 3f 2a 15 2a 3f 51 54 1b be eb 73 03 bf
       0.83899105 0.66438544 -0.15168883 -0.5134875
000330 45 e5 10 bf 38 34 95 be 7c a4 b3 be f2 36 a2 3e
       -0.5659984 -0.29141402 -0.3508643 0.31682545
000340 4b 54 ce 3e 7d 02 b7 3e f8 81 9f 3e 01 bb 45 3e
       0.40298685 0.35744086 0.31153846 0.19309618
000350 b8 a5 1c be 4b ef bc be d1 62 b2 be ac f2 ab be
       -0.15297592 -0.36901316 -0.34841016 -0.3358358
000360 01 7e 02 bf 7c 27 f6 bd ec 0c ef 3e e5 8f 5d 3e
       -0.50973517 -0.1201925 0.46689546 0.21636923
000370 3b bb b7 3e 80 ac d8 3e 7c 1f bf bd a4 8c 12 bf
       0.35885033 0.42319107 -0.09332177 -0.5724585
000380 36 91 73 bf fc 8c 77 be 53 7e 20 bf 46 ed 0f bf
       -0.9514345 -0.24174875 -0.62692755 -0.56221426
000390 36 92 0b bf 91 83 e3 be 91 07 44 be 3e 8d ca 3e
       -0.54519975 -0.44436315 -0.19143511 0.39560884
0003a0 a2 e5 be 3e b3 c6 e8 3e 1f b4 5a 3e 2e ff 9e be
       0.3728457 0.45464095 0.21357773 -0.31054062
0003b0 51 3d 84 be 1f bc 03 bf 8d 20 ba be 1b 5c ad b9
       -0.2582803 -0.51458925 -0.3635296 -0.00033065755
0003c0 94 e9 5b 3e 76 81 c6 3e f9 e8 44 3e b7 31 36 3e
       0.21475822 0.38770646 0.19229497 0.17792402
0003d0 40 66 b8 bd 87 21 2e bf e6 b0 c2 be f3 90 2e bf
       -0.09003878 -0.6801991 -0.38025588 -0.68189925
0003e0 79 4f e9 be 1a 03 b1 be 92 9b 0b bf 18 f4 19 bf
       -0.45568445 -0.3457268 -0.54534256 -0.6013808
0003f0 a3 21 0b bf 41 ac 40 bf d8 52 37 bf 61 2d 02 bf
       -0.543482 -0.7526284 -0.71610785 -0.5085049

model.input_block.bn1.weight f4 [40]
000000 b9 1b ad 3f 6a 57 be 3f c0 b1 bd 3f 3a 5e a3 3f
       1.3524085 1.4870427 1.481987 1.2763131
000010 90 36 a9 3f a8 4e aa 3f 10 63 c3 3f 53 85 79 3f
       1.3219776 1.3305254 1.5264606 0.9746906
000020 c6 41 c7 3f 4b 36 bf 3f 7b 16 d7 3f ab bc e9 3f
       1.5566947 1.4938444 1.6803735 1.8260702
000030 39 af a0 3f 90 39 4f 3f a4 16 87 3f 31 fc c4 3f
       1.2553474 0.8094721 1.0553784 1.5389463
000040 e4 a4 93 3f 10 b7 a1 3f 48 a7 b5 3f 22 bf a6 3f
       1.1534696 1.2633991 1.4191675 1.3027079
000050 97 7b b3 3f 5a 23 b3 3f b9 61 b5 3f 56 18 71 3f
       1.4022092 1.3995163 1.4170448 0.9417776
000060 38 bb a0 3f 94 3f a1 3f 83 33 b2 3f 0f 78 a8 3f
       1.2557135 1.2597528 1.392197 1.3161639
000070 73 10 a9 3f 19 0c c6 3f b1 13 ad 3f 57 d3 b7 3f
       1.3208145 1.5472442 1.3521634 1.4361371
000080 ff 2c 92 3c e9 1c b7 3f 87 52 79 3f 8a 6c 96 3f
       0.017843721 1.4305698 0.9739155 1.1751873
000090 3a 02 ba 3f 9c d0 a9 3f cc d0 a3 3f a8 ca b5 3f
       1.453193 1.3266788 1.2798095 1.4202471

model.input_block.bn1.bias f4 [40]
000000 91 3e 87 be 63 8c 79 bd a9 50 07 3d da 6a f1 3b
       -0.26414922 -0.0609249 0.033035908 0.007367474
000010 87 61 a0 3d ff 40 16 3e 3a 80 ba be e3 0c ba bf
       0.07831102 0.14673232 -0.36425954 -1.4535183
000020 32 9c c8 bd 07 ca a2 bd 28 a4 bf 3d 6b b3 a9 3e
       -0.09795417 -0.0794869 0.09357482 0.33144698
000030 1e 88 96 3e 17 3b 10 c0 35 a8 bf 3f ce 04 3b be
       0.29400724 -2.2536066 1.4973208 -0.18263552
000040 ed 3f b5 3f 18 0d 40 bf c3 b8 28 bd d6 de 19 3d
       1.4160134 -0.7501998 -0.041191828 0.03756603
000050 17 1f a1 bc 9e 3d 27 3c 9f d5 3f 3d f9 bd f1 bf
       -0.019668145 0.010207562 0.046834584 -1.88861
000060 b8 3b d5 3b 34 12 e5 3d 9a f7 eb 3d 9e ab b2 bd
       0.006507363 0.111851126 0.115218356 -0.0872414
000070 20 72 14 be 12 0d cd 3e 85 40 af bd 3c 18 08 be
       -0.1449666 0.40049034 -0.08557228 -0.13290495
000080 1a 47 31 40 e8 82 08 3f fe 05 ce bf 04 1d 39 be
       2.7699647 0.5332475 -1.6095579 -0.18077475
000090 1f 7c 85 3d 33 c8 9e 3c d7 1c a6 3d 8a 6d b3 be
       0.06517815 0.019382572 0.081109695 -0.3504451

model.input_block.bn1.running_mean f4 [40]
000000 eb e2 24 b5 c0 c8 29 33 e3 5f 17 37 fc 72 9e b6
       -6.142497e-07 3.953096e-08 9.022627e-06 -4.722153e-06
000010 14 e2 e0 b6 f0 22 2b b7 09 a8 9f 37 9c c2 2e 35
       -6.702039e-06 -1.0200529e-05 1.9032525e-05 6.5103245e-07
000020 06 50 a4 36 67 77 01 b7 cd 92 91 b7 73 4b 36 b7
       4.896897e-06 -7.7168e-06 -1.7353706e-05 -1.0865612e-05
000030 74 05 d8 b5 eb a9 b5 34 69 cd 6b 36 6d 43 90 37
       -1.6094841e-06 3.383751e-07 3.5137293e-06 1.7197535e-05
000040 05 64 39 36 cf 94 90 34 5a 8f 88 36 e2 e4 95 35
       2.7625367e-06 2.6930363e-07 4.069804e-06 1.1167979e-06
000050 55 01 7f 36 f0 31 4e 37 97 53 2e b7 8a 6a 12 b5
       3.7998736e-06 1.2290184e-05 -1.03906705e-05 -5.4544273e-07
000060 e4 94 1e b7 e3 5c a1 b6 c2 f0 ad b5 34 83 c9 b5
       -9.4522e-06 -4.8089873e-06 -1.2959574e-06 -1.5013852e-06
000070 32 99 0b b6 eb 7e 9b 37 ba d0 f0 b5 a3 bb 74 b7
       -2.0801785e-06 1.853654e-05 -1.7942141e-06 -1.4587221e-05
000080 20 b8 a8 b5 3e 62 19 b7 7e 95 0b 35 11 eb b2 35
       -1.2570563e-06 -9.142384e-06 5.1999075e-07 1.3330447e-06
000090 77 97 9b 36 74 bc 4a b5 94 1a 12 b7 88 33 b7 35
       4.636993e-06 -7.55251e-07 -8.708466e-06 1.364956e-06

model.input_block.bn1.running_var f4 [40]
000000 35 01 f0 3c ff 39 7f 3d 07 eb 90 3d e0 f2 ac 3c
       0.02929745 0.06231117 0.07076078 0.021111906
000010 46 5f 04 3d fe 98 38 3d 34 61 c5 3d ce 4f a2 3a
       0.032317422 0.04506778 0.09637681 0.0012383403
000020 0b f7 52 3d 0e 19 7c 3d 18 6e eb 3d 30 51 97 3d
       0.05150513 0.06154733 0.11495608 0.07388532
000030 7d 84 32 3c 3c 21 a5 39 ae 90 10 3c bc 4e bf 3d
       0.0108958455 0.00031496014 0.008823557 0.09341189
000040 ef 78 be 3b bb bf 76 3c 6c b5 4c 3d f6 d4 b3 3c
       0.0058127563 0.015060361 0.049977705 0.021952134
000050 70 7f 12 3d a0 e4 84 3d 95 65 2a 3d ee 88 b6 38
       0.035766065 0.06488919 0.041600782 8.7039414e-05
000060 1d 0c ef 3c f2 38 9a 3c 03 37 d9 3c 11 52 9d 3c
       0.02918058 0.018825982 0.02651549 0.019204171
000070 7c 7e 06 3d 4e 72 be 3d 1c 60 c2 3c 98 62 80 3d
       0.03283547 0.09299146 0.02372747 0.06268805
000080 8f a1 48 39 22 26 2e 3d a0 6a 47 3a 23 27 1b 3c
       0.00019133672 0.042516835 0.0007607136 0.00946978
000090 a0 d7 6c 3d 96 c4 d3 3c 6f 53 fb 3c 4c b6 53 3d
       0.057822824 0.025850575 0.030679433 0.051687524

model.input_block.spat_conv.weight f4 [40, 1, 24, 1]
000000 6c 48 5a be bc 8d 2c be f0 05 37 3c 06 c9 d4 bd
       -0.21316689 -0.16850942 0.011170849 -0.10389905
000010 9a e2 8b 3c 7d 5d a8 3e 49 aa e9 be 83 dc 91 be
       0.017075825 0.32883826 -0.4563773 -0.2848855
000020 70 41 92 bd 3b 3f 35 bd 53 37 ee bb 65 bf 0c 3e
       -0.071413875 -0.044249754 -0.0072697788 0.13744886
000030 fa 21 52 bd 78 f8 d2 be f5 8a 3e bf 4b c9 c8 bc
       -0.051301934 -0.41205192 -0.7443078 -0.024510046
000040 c0 6c e9 bd 66 36 1a be 64 20 a1 be af fd 13 bd
       -0.113976955 -0.15059814 -0.31470025 -0.036130603
000050 79 be 9e 3d 96 f8 82 be de f4 c7 be 1c 5f 6d 3d
       0.077511735 -0.2558028 -0.39054006 0.05795203
000060 6d bb e4 3d 21 d5 73 3d 12 9d cc 3d c8 d3 9f 3d
       0.11168561 0.059529427 0.09990896 0.07804066
000070 73 9d a0 3e 3c 1c 65 3e d6 55 e4 3d d8 ed eb 3e
       0.31370124 0.22374052 0.111491844 0.46079898
000080 97 02 a3 3d 8b c4 fc 3d 8e af 66 bd 8b 15 e1 3d
       0.07959478 0.12342175 -0.056319766 0.10990437
000090 a0 5f aa 3b 38 cb 26 bf 3f 59 65 bf 33 55 24 3e
       0.0051993877 -0.6515384 -0.89589304 0.16048126
0000a0 2b 0a e6 3d b8 51 55 3e 0f 6f 5c bd 25 ea e3 3c
       0.11232408 0.20831954 -0.05381685 0.02782161
0000b0 06 bb 3f 3c 7a 78 53 3d c4 4d 4a 3e 92 2a 63 3e
       0.011702305 0.051628567 0.19756228 0.22184208
0000c0 59 6c 7a 3e 43 f1 87 3e 06 4c b1 bd 1f ee a1 bd
       0.24455394 0.26551256 -0.086570784 -0.07906746
0000d0 34 9f 00 3d d7 e4 87 3d f5 91 0b 3e 25 d6 85 3d
       0.031401828 0.066354446 0.13629897 0.065349855
0000e0 5e 1f 6a 3e 9a 21 1f be 10 ba b9 be 0b 8e b0 bc
       0.22863528 -0.15540162 -0.36274767 -0.021552106
0000f0 9e eb 2f bc 17 c6 13 3f e8 ed 62 3f d4 d1 83 3d
       -0.010737328 0.57724136 0.88644266 0.06436506
000100 6f 8b e7 bd 53 3c e3 be 96 c8 e5 be 16 97 d1 be
       -0.11305892 -0.4438196 -0.44879597 -0.40935582
000110 6b 5b de 3d 7a 27 2f 3e 40 2e 97 3d ce ea b2 3d
       0.1085728 0.17104903 0.07381868 0.08736192
000120 63 69 91 3d 92 ae a7 3d a1 98 cb 3e a2 5f d0 3d
       0.07100179 0.081875935 0.39764884 0.101744905
000130 38 e6 38 bd 41 2e c6 bd d4 eb 4d 3c a6 ff 20 3e
       -0.04514143 -0.09676791 0.012568433 0.15722522
000140 dd 47 49 3e df e7 c4 be 7e ca 19 bf 59 0e 20 3e
       0.1965632 -0.38458154 -0.60074604 0.15630473
000150 58 d4 93 3d 02 0b 4c bd d1 08 3c bd 52 31 d6 3d
       0.07218236 -0.049815185 -0.045906845 0.10458626
000160 0a f7 b7 3d a8 e9 83 be a4 f7 f7 be 57 f5 88 3e
       0.08982666 -0.25764203 -0.48431122 0.2674968
000170 49 96 0c be 0d 05 85 3d fd 31 c0 bd 47 a1 57 be
       -0.13729204 0.06495104 -0.093845345 -0.21057616
000180 ee 98 45 3e 7e 0a e6 3d 61 b8 92 3e df 20 b9 3e
       0.1929662 0.1123247 0.28656295 0.3615789
000190 60 bc 1f 3e 9e ca 29 be a3 a4 47 be 69 e8 f6 3c
       0.15599203 -0.16581199 -0.19496398 0.030140119
0001a0 cc c2 df bc da 22 01 be 09 3e 59 bf 15 4a 5e 3d
       -0.027314566 -0.12610951 -0.84860283 0.05426987
0001b0 70 93 2c 3e e9 6c f5 bd 0a ab 62 bb 0b a9 19 bd
       0.16853118 -0.119836636 -0.003458681 -0.037514728
0001c0 39 01 e0 3d 4a af ac 3d 61 2e e6 be bf 34 20 be
       0.10937733 0.08431871 -0.4495726 -0.15645121
0001d0 aa 6f 17 3d 54 6f 8d be 30 2c a4 3d 85 28 a8 bd
       0.036971726 -0.27624 0.080162406 -0.082108535
0001e0 89 26 5e be d6 2c 39 be 97 d0 81 bd 58 c4 08 be
       -0.21694387 -0.1808351 -0.063386135 -0.13356149
0001f0 3c d7 81 3d 61 3d d4 3e 43 72 58 bc 93 37 07 be
       0.06339881 0.41453078 -0.013210836 -0.13204794
000200 e9 67 59 3d e5 be 0d be 7f 18 2a 3e c4 c0 df bd
       0.053077612 -0.13842352 0.16610907 -0.10925439
000210 5d e3 63 3c 7e 90 98 3e 6d 46 64 bf 4f e6 2a be
       0.013909188 0.2979774 -0.8916996 -0.16689418
000220 40 a3 bc 3d 3b 1b 19 bb 85 29 a2 3e ac fe 09 3a
       0.09210825 -0.0023362178 0.31672302 0.00052640843
000230 20 b5 1c be 38 71 cf bd a6 ad 13 bf ad 1d 1b 3d
       -0.15303469 -0.10129017 -0.5768684 0.037870098
000240 fa 08 11 3d e2 f8 0e be 84 c7 a7 be e2 32 24 bf
       0.03540895 -0.13962129 -0.32769406 -0.6414014
000250 30 28 cd bc 1f c3 a2 3e 26 17 67 3e a7 9e bf be
       -0.025043577 0.3178949 0.22567424 -0.3742573
000260 34 7d 6c be 57 8d 27 3e e6 bc 35 ba 22 1a 20 bf
       -0.23094636 0.1636251 -0.000693275 -0.62539876
000270 6c 92 43 bd f6 10 d7 3e 23 81 42 bf 40 38 4b be
       -0.04774706 0.42005128 -0.75978297 -0.19845676
000280 fb d3 9d be 0a f1 c6 bd aa 25 8e 3e d5 a1 b6 3d
       -0.3082579 -0.09713943 0.2776311 0.08917586
000290 18 ac f3 bd eb f5 c3 be cd b3 0f bf ff cc 2d be
       -0.11898059 -0.38273558 -0.5613373 -0.16972731
0002a0 5c d1 82 bf 3f 66 8a bf 04 dc 94 bf 10 61 52 bf
       -1.0220141 -1.0812453 -1.1629643 -0.82179356
0002b0 10 66 8b bf ab 7f 8d bf 36 d4 80 bf 14 c3 81 bf
       -1.0890522 -1.1054586 -1.0064762 -1.0137658
0002c0 e3 b2 63 bf ea 07 93 bf 1f 78 b7 bf 3d 07 9a bf
       -0.88944834 -1.148679 -1.4333533 -1.2033459
0002d0 55 f6 73 bf ad ca 92 bf 88 16 38 bf bc 7f 82 bf
       -0.9529775 -1.1468102 -0.7190938 -1.0195231
0002e0 05 4d 9c bf 70 a1 80 bf 87 2e a4 bf e6 9b 55 bf
       -1.2211004 -1.0049267 -1.2826699 -0.8344101
0002f0 7f 77 22 bf 79 be 96 bf ff cf 5f bf 59 8a 87 bf
       -0.63463587 -1.1776878 -0.8742675 -1.0589095
000300 30 fa ec 3d b1 c0 a9 3d 76 85 3b 3e 85 1c 7e 3d
       0.11571157 0.08288706 0.1831263 0.062038917
000310 30 c7 c3 3e 27 d7 08 3f 51 cb 3e bd dc 54 cb 3e
       0.38237906 0.53453296 -0.046580616 0.3971318
000320 37 49 ff 3d a3 20 19 3e 1f 8c 1e 3e 40 ed c3 3d
       0.124651365 0.14953856 0.1548314 0.09566736
000330 ab 90 fd 3d e2 e9 a2 be 77 34 92 bf f1 22 b1 3c
       0.12381109 -0.31819063 -1.1422261 0.021623107
000340 9b 88 5d bc c9 95 24 ba 8f e2 ce bc a6 34 6d 3d
       -0.013521339 -0.0006278423 -0.025254516 0.057911538
000350 1d 52 bf bb 33 e5 28 bd 8f 2b d1 be 33 82 72 3e
       -0.005838646 -0.041234206 -0.40853545 0.2368248
000360 2e 40 3b 3d 4b 82 85 bd d2 e7 ff bb a6 06 c9 bd
       0.045715503 -0.06518992 -0.0078096176 -0.09815721
000370 08 34 42 be 97 24 18 bf 4b df a5 3d 4b ce 12 3e
       -0.18965161 -0.5943083 0.080992304 0.14336507
000380 7c 94 de 3d eb 71 21 3e bd 1a 47 3e 8e 5f c1 bc
       0.10868165 0.15766113 0.19443794 -0.023605134
000390 0c fb c8 bd 6c 43 0a bf f9 d4 65 3f 8d fd 6a 3e
       -0.098135084 -0.5400913 0.89778095 0.22948284
0003a0 89 97 13 3d cd 24 40 3e 18 af 00 3e e0 14 23 3d
       0.036033187 0.18764038 0.12566793 0.03981483
0003b0 ab 69 12 3d d5 0c 0d 3e 5e 11 0b 3f 65 3f b2 bd
       0.035745304 0.13774426 0.54323375 -0.08703498
0003c0 1f 68 8a be 02 c9 25 be 9b 95 21 bd 2f fc 75 bd
       -0.27032563 -0.1618996 -0.039449316 -0.060054954
0003d0 de 3d dd be e8 7d 31 bf 85 50 58 be 3d 82 81 bd
       -0.43211263 -0.6933274 -0.21124466 -0.06323669
0003e0 13 37 67 bc 7a 54 4a 3e f7 27 3c 3f 86 94 24 be
       -0.014112252 0.19758788 0.7349848 -0.16072282
0003f0 f3 35 88 be 38 ec d3 be 02 0c 62 3f a5 c3 59 3e
       -0.2660366 -0.41391158 0.8829957 0.21266039

model.input_block.bn2.weight f4 [40]
000000 0d 7c ac 3f 44 56 be 3f 28 95 bd 3f f4 4d a3 3f
       1.3475357 1.4870076 1.4811144 1.2758164
000010 64 38 a9 3f b2 55 aa 3f fa 2c c3 3f 2c 6b 87 3f
       1.3220334 1.3307402 1.5248101 1.0579581
000020 1d 84 c7 3f 95 47 bf 3f 90 dd d6 3f ba 8b e9 3f
       1.5587193 1.494372 1.6786366 1.8245766
000030 6f 3f a0 3f 86 80 7e 3f 2e 51 94 3f 6f e3 c4 3f
       1.2519358 0.9941486 1.1587274 1.5381907
000040 12 67 99 3f b2 9a a2 3f c7 e3 b5 3f 08 b5 a6 3f
       1.198458 1.2703459 1.4210137 1.3023996
000050 84 75 b3 3f b8 2b b3 3f a5 58 b5 3f c1 68 94 3f
       1.4020238 1.3997717 1.4167677 1.1594468
000060 2d aa a0 3f 5b 4b a1 3f 31 4d b2 3f 0f 7f a8 3f
       1.2551934 1.2601122 1.3929807 1.3163775
000070 ac 41 a9 3f 2a 36 c5 3f 5d 38 ad 3f 03 ab b7 3f
       1.3223166 1.5407155 1.3532826 1.4349064
000080 a5 32 f6 3f 8b 7c b7 3f a3 3e 87 3f c7 ee 95 3f
       1.9234205 1.4334882 1.056599 1.1713494
000090 a8 0c ba 3f 55 db a9 3f 7c f2 a3 3f 2d 3d b5 3f
       1.4535112 1.327006 1.2808375 1.4159294

model.input_block.bn2.bias f4 [40]
000000 72 a8 6e 3e 84 4b 40 bd d6 69 1b 3d ff 9c 8d bb
       0.23306444 -0.046947017 0.03794273 -0.004321694
000010 f2 4d ad bd bb 34 37 be 76 31 ac 3e dd 2b 89 3f
       -0.084621325 -0.17891209 0.33631486 1.0716511
000020 f8 aa 3b be 4b d1 a7 bd a6 4c 05 3e 72 ab cb 3e
       -0.18326938 -0.08194216 0.1301752 0.3977924
000030 0f 30 86 3e b7 f8 f2 3f 31 70 97 3f f1 cb 4f 3e
       0.2620854 1.8982152 1.1831113 0.20292641
000040 f3 56 8e 3f a7 fe 21 3f 88 55 0b 3d f7 7e 08 bd
       1.1120285 0.63279194 0.034017116 -0.033324208
000050 1e 53 d3 bc 91 fb 98 bc 21 73 fb 3d ca 93 e2 3f
       -0.02579647 -0.018674644 0.122778185 1.7701352
000060 88 eb 1f be 46 d5 f0 bd 55 bb 32 bd 6e 22 f5 bd
       -0.15617192 -0.11759429 -0.043635685 -0.119694576
000070 61 b4 0f be bf d9 ad 3e f4 9e f4 bd 62 cb 46 3e
       -0.14033653 0.3395519 -0.119443804 0.19413522
000080 53 13 9b bf 36 2d f3 3e 67 12 93 3f 37 58 4c be
       -1.2115272 0.4749543 1.1489991 -0.19955526
000090 d1 e4 02 3e 87 da 68 3d cf 3b a6 bd e0 05 97 3e
       0.12782599 0.05684903 -0.08116876 0.2949667

model.input_block.bn2.running_mean f4 [40]
000000 ef 57 59 3f 79 97 8a bd a3 ea e8 3c b8 08 95 bb
       0.848998 -0.06767172 0.028432196 -0.0045481585
000010 3e a7 82 bd 6d 2c 56 be 98 45 a2 3f 7e ca 10 42
       -0.06379555 -0.20915385 1.2677488 36.197746
000020 74 83 90 bd 0f e7 cc bd d9 0a 7e 3d 2e 95 88 3f
       -0.07056323 -0.100050084 0.062022064 1.0670526
000030 c2 3d 70 3f e1 0f a6 42 a0 b0 2c 42 6f 70 77 3e
       0.93844235 83.03101 43.172485 0.24163984
000040 79 cf 00 42 18 5e 20 41 1c c7 60 bd ff 54 ba bb
       32.20261 10.022972 -0.054877385 -0.005686402
000050 0b 8c 9e bc 2c cc f0 bb 03 77 3d bc bd 49 8c 42
       -0.019353887 -0.007348558 -0.011564019 70.14402
000060 26 92 13 3a a9 ee 41 bd e0 2c 9f bd ac ad b3 bd
       0.0005629383 -0.047346745 -0.07772231 -0.0877336
000070 de f5 64 be 84 12 e7 3f 74 98 12 bd 49 70 cc 3c
       -0.22359416 1.8052526 -0.035789922 0.024955885
000080 46 0b 0e c3 b0 86 1e 40 74 09 2b 42 b3 dd 07 bf
       -142.04404 2.4769707 42.75923 -0.5307266
000090 d1 da bb 3d a3 3c a3 3b 0b ee 1a bd aa f4 95 3f
       0.09172595 0.0049815937 -0.03782467 1.171529

model.input_block.bn2.running_var f4 [40]
000000 d1 29 55 40 2b 8e a7 40 82 84 a4 40 2c 19 09 40
       3.3306773 5.2361045 5.1411753 2.1421614
000010 82 b9 34 40 92 69 4d 40 4b 2c c5 40 a0 72 94 41
       2.8238225 3.2095685 6.161657 18.55597
000020 1e 10 e8 40 b2 68 a4 40 ae a0 1b 41 1c e3 43 41
       7.2519674 5.13778 9.726728 12.242947
000030 73 48 0f 40 63 75 e9 41 b8 93 00 42 94 67 98 40
       2.238797 29.182318 32.144257 4.762644
000040 5b f2 0a 42 3d 83 28 41 ff 62 91 40 22 95 4d 40
       34.736675 10.532041 4.5433345 3.2122273
000050 a1 30 9b 40 1c a4 71 40 55 b4 7c 40 f0 8b 26 42
       4.849686 3.7756414 3.9485066 41.636658
000060 1b e7 d4 3f ea 0a f2 3f 94 2a 88 40 e9 81 58 40
       1.6633028 1.8909581 4.2551975 3.382929
000070 1e fc 64 40 f9 65 ca 40 a1 be 3f 40 2f 7f 87 40
       3.577888 6.324948 2.99601 4.2342753
000080 2f 0d 2f 3d dc 84 d8 40 a8 84 c7 41 61 b8 0f 40
       0.042737182 6.766218 24.939774 2.2456286
000090 7a 00 a2 40 4e 9a 1f 40 00 fd 14 40 1b 9d 6c 40
       5.062558 2.493793 2.327942 3.697089

model.channel_expansion.conv.weight f4 [16, 40, 1, 1]
000000 9e f3 aa 3e af 86 88 3e e7 9f 8c bc 48 49 59 3e
       0.3338899 0.26665255 -0.017166091 0.21219361
000010 49 32 2e 3e 50 65 89 3e a8 2d 45 be 1c c8 c6 3d
       0.1701137 0.26835108 -0.19255698 0.097061366
000020 37 45 ba 3e f4 e2 8c be ba 19 86 bf cb a7 2b 3e
       0.36380932 -0.27516901 -1.0476601 0.16763227
000030 73 50 46 3e e2 78 02 3e 94 0c 34 3e 13 35 ef be
       0.19366626 0.12741426 0.17582923 -0.4672018
000040 bf 03 8c 3e f1 4c 8c 3e 92 61 90 3e 7b 2e 70 bd
       0.27346608 0.27402452 0.2819944 -0.058638077
000050 ef 6e 03 3e a8 9f 34 bf 81 7c 97 3e ac 5f 45 3e
       0.12835287 -0.70556116 0.29587176 0.19274777
000060 0a da 32 bd ad 1a 07 3d 97 c3 e8 3d 57 8f 32 be
       -0.04366497 0.032984424 0.11365431 -0.17437492
000070 93 33 ca bd 42 b1 e1 3e 29 e0 53 be 7f 40 c2 3d
       -0.09873118 0.4408055 -0.20690979 0.09484958
000080 f5 99 41 be e5 53 14 3e a0 51 f5 3d 21 4d 3c 3e
       -0.18906386 0.14485128 0.11978459 0.18388797
000090 2a 3a 6d 3e 3b 0c 70 3e 7e b8 c0 3d 6a 8c a8 3e
       0.23166719 0.23442166 0.09410189 0.32919627
0000a0 49 5c be bd 57 0f bc be 68 4e e1 bb 0d b0 94 3e
       -0.09294946 -0.36730453 -0.006875802 0.29040566
0000b0 1a 8b 8f 3e 9d 2f 2a be c9 96 02 bd 73 33 13 3d
       0.28035814 -0.16619726 -0.03188208 0.035937738
0000c0 86 b2 92 be 11 99 99 be bf 6e 68 bf 63 98 31 be
       -0.28651828 -0.29999593 -0.90793985 -0.17343287
0000d0 26 e1 18 be a7 19 c6 bb 39 30 42 3d d1 dc c0 be
       -0.14929637 -0.0060455385 0.04740927 -0.3766847
0000e0 86 40 c0 bc f1 9a 91 3d 26 c2 7f be 19 f4 75 3e
       -0.023468267 0.07109631 -0.24976406 0.24018897
0000f0 c1 98 8d bd be 8d b8 be 8b 46 08 3d 09 ca d0 bd
       -0.06913901 -0.3604564 0.0332704 -0.10194785
000100 6a 24 bf 3e 48 39 d5 3e a3 b1 ad 3e 48 02 32 3d
       0.3733247 0.41645265 0.3392459 0.043459207
000110 2e b1 75 3e 16 e3 58 3e f9 25 8f 3e 0a d6 7d 3e
       0.2399337 0.21180376 0.27958658 0.2478868
000120 a4 89 bf 3a 80 fa 9d bc 66 86 79 bd 05 a6 ee 3e
       0.0014613164 -0.019284487 -0.060919188 0.46611038
000130 76 f2 83 be f5 d4 27 be 18 68 ac 3e d7 6d 0c be
       -0.2577092 -0.1638983 0.33673167 -0.13713776
000140 ce 2e 32 3e e7 b8 c8 3e 56 e4 dd 3e 50 21 1a 3f
       0.17400667 0.3920357 0.4333827 0.6020708
000150 dc 10 1f 3f 56 5c c4 be 92 0f 66 3f df af b7 3e
       0.621351 -0.38351697 0.8986751 0.35876366
000160 fb e7 2b 3b 62 95 58 3e 55 84 58 3d 6a 57 b3 bd
       0.00262308 0.21150735 0.052860577 -0.08756907
000170 96 38 cc 3e 73 1a ee 3e 59 f6 aa 3e 86 17 9f 3e
       0.39886922 0.46504554 0.33391073 0.31072634
000180 15 66 16 3f 0b d5 bf 3e 92 37 36 bd c0 be c4 3e
       0.58749515 0.37467226 -0.04448659 0.3842678
000190 bd d2 d9 3e 36 57 aa 3e a5 fc 5d 3b 4a 38 f4 3e
       0.42543593 0.33269662 0.0033872512 0.47699195
0001a0 df d2 c0 be 37 2c a6 3e a4 98 39 3e 28 e8 12 3f
       -0.37660882 0.32455608 0.18124634 0.5738549
0001b0 88 29 65 be 6a 08 83 3e 90 f8 89 3e 1c 71 66 3f
       -0.22379124 0.25592357 0.2694745 0.9001634
0001c0 79 26 59 bf 53 1f 89 3f ff a6 0a 3f f9 f1 2f 3e
       -0.8482433 1.0712684 0.54161066 0.17182149
0001d0 cb 4c c1 3e 5c d4 78 3e 96 03 26 3f 55 f7 b6 be
       0.377539 0.24299759 0.6484922 -0.35735574
0001e0 5b 6c a8 bd b5 76 8e be 10 57 61 be 8c f7 6a 3e
       -0.08223792 -0.2782494 -0.22005868 0.22945994
0001f0 a5 30 3f 3d 77 d3 c9 bd 42 88 17 bd d8 72 8e 3d
       0.04667725 -0.09854787 -0.03699518 0.069554985
000200 10 c7 cf be a5 b9 85 be 9a de 4f be 63 d1 5e be
       -0.4058156 -0.26118198 -0.2029976 -0.21759562
000210 f9 58 cf 3d 86 30 27 be b7 ef 64 bd 32 1d b4 bd
       0.10124392 -0.16327104 -0.055892672 -0.08794631
000220 be 8a c1 3c fb 41 c8 3c 2c a0 7a be 2b 8b 89 3e
       0.023625728 0.024445524 -0.24475163 0.2686399
000230 d2 a6 9b be e1 91 b4 bd d9 e0 f9 bd 67 cf 68 bd
       -0.3040071 -0.08816887 -0.122010894 -0.05683842
000240 5d ba 50 3e 79 d6 97 3e ca 9b 33 3e 53 56 30 3c
       0.20383592 0.29655817 0.17539898 0.010762769
000250 4f e9 a0 3e 62 1d 2b 3c 2e 9e 5e 3e 80 5c 4f bc
       0.31428 0.010444017 0.21740028 -0.012656331
000260 48 77 57 3d 6e 55 11 3e d6 e8 de 3c 18 a7 aa 3d
       0.05260399 0.14192745 0.027210634 0.08332652
000270 7e 65 5d be 3f aa 24 be 50 25 4b 3e 8d 99 0b bb
       -0.21620747 -0.16080569 0.19838452 -0.002130124
000280 0b b8 28 3e 34 53 f4 3e 09 5e 6d bf e1 90 4e 3d
       0.16476457 0.4771973 -0.9272161 0.050431136
000290 19 0e 57 3d a3 7c 60 3e 5b da 89 3e 48 40 8c 3e
       0.05250368 0.21922545 0.26924405 0.27392793
0002a0 f0 27 27 3f a0 d0 3b 3e dc af c1 3c f5 66 cc 3d
       0.65295315 0.18341303 0.023643427 0.09980575
0002b0 fc 59 29 3d 11 37 54 3e d2 69 8e 3d 4e 08 1a 3e
       0.04134558 0.20724131 0.069537774 0.1504223
0002c0 7b 0a 6e 3e 0e a0 f3 3c 78 ff bb 3e bb e3 8b bb
       0.23246185 0.029739406 0.36718345 -0.004269091
0002d0 b5 c6 02 3e f5 b1 ad 3e 84 7d fa 3d 91 73 5b 3d
       0.12771113 0.33924833 0.122309715 0.05357701
0002e0 06 6c 31 be 7d 52 a1 bc 27 3e 8b 3d 57 c7 f0 bd
       -0.17326364 -0.019692654 0.06798964 -0.11756771
0002f0 89 85 5b be b6 9b 95 3d 5d ac db bb cc 97 72 3e
       -0.21437658 0.0730509 -0.006703897 0.23690718
000300 42 e4 2a be 78 cb 05 3e b6 fa 10 3e fd 7b 53 bc
       -0.16688636 0.13065898 0.14158139 -0.012907979
000310 b5 06 ad 3e 85 59 cf 3c bf ff 9e 3d bc cf 1b 3e
       0.3379418 0.02531124 0.077636234 0.15215963
000320 8c 1f 18 3f 6b 36 f2 3e 0e 1a 4a 3e 69 2d 2b 3f
       0.59423137 0.47307143 0.19736502 0.66866165
000330 5e 76 89 3f c3 41 70 bf 52 5b 5b 3f 85 c8 3c 3f
       1.0739248 -0.93850344 0.8568622 0.7374347
000340 49 13 2b 3e 68 d3 22 3f 13 29 c9 3e 1b 2a ee be
       0.16706575 0.6360383 0.3928915 -0.465165
000350 7c 41 19 3f 2f c1 58 3f 54 33 1a 3f 86 bf 29 3f
       0.59865546 0.84669775 0.6023457 0.66307867
000360 ed 0c 58 3f a8 5b 15 3f 64 07 d4 be e0 93 d3 3e
       0.84394723 0.5834298 -0.4141189 0.41323757
000370 45 bd ea 3e 1e 30 06 3f 3b 2a 39 3d dc a8 2b 3f
       0.45847526 0.5241717 0.04520629 0.67054534
000380 8e 06 2d be 38 6f ba 3e 96 fe 10 3f f6 19 02 3f
       -0.16897032 0.36412978 0.5663847 0.50820863
000390 ac af 46 3e 42 72 7b bd 7f ae f5 3e 6b ad 8f 3f
       0.19402951 -0.06138826 0.47984692 1.1224798
0003a0 6e 8f 74 bf dc 93 8c 3f 18 5f 32 3f 17 e7 6d 3e
       -0.95531356 1.0982623 0.6967635 0.23232685
0003b0 b4 10 eb 3e ad 2d f3 3e 9d aa 4f 3f db a6 23 be
       0.4591118 0.47495785 0.8111971 -0.15981619
0003c0 cc 5c ac 3d 63 99 69 be 7b f6 99 3d 32 d4 40 3e
       0.08416137 -0.22812419 0.075177155 0.18830946
0003d0 3d 9c dd be 34 10 89 3d 4f 82 c2 bd 26 55 52 3d
       -0.43283263 0.066925436 -0.09497511 0.051350735
0003e0 bb 4a b5 be 60 6c 08 be 33 50 13 3e 7e 67 7a 3d
       -0.35408577 -0.13322592 0.14386062 0.061133854
0003f0 4a 94 e5 3d 99 cd 86 bd 56 3a 3a 3e 6b a3 26 3e
       0.112099245 -0.065821834 0.18186316 0.16273277

model.channel_expansion.bn.weight f4 [16]
000000 32 c2 af 3f c6 ba b5 3f 2c 02 04 40 96 d4 9c 3f
       1.3731139 1.4197624 2.0626326 1.2252376
000010 3a 83 a5 3f 55 7a c4 3f ce 0d 92 3f 36 9e 9a 3f
       1.2930672 1.5349833 1.1410463 1.2079532
000020 16 b3 9c 3d 32 95 a3 3f 86 93 a0 3f 9e dd c5 3f
       0.076513454 1.2779906 1.254502 1.5458257
000030 44 b1 c3 3f f3 91 a3 3f 52 bf a9 3f 38 4b 9b 3f
       1.5288472 1.2778915 1.3261511 1.213233

model.channel_expansion.bn.bias f4 [16]
000000 f9 b7 72 3e 63 6a 96 bd 2e a6 2c 3f 38 8e 12 bd
       0.23702992 -0.073445104 0.6744107 -0.03578016
000010 eb 66 4f 3e 67 48 83 3f 47 0e 9c 3d c2 3f 6f bc
       0.20254104 1.025647 0.07619911 -0.014602603
000020 8f 61 75 3f 51 cf ed 3e f1 67 76 3e 25 3c 9f 3f
       0.9585199 0.46447232 0.24063088 1.244023
000030 b6 4f 21 3f 08 1d 08 3e 51 61 c9 3d d4 0d 99 bd
       0.63012254 0.13292325 0.09833015 -0.07473341

model.channel_expansion.bn.running_mean f4 [16]
000000 c5 a7 04 40 55 b2 57 bf d0 8b f0 40 b8 40 54 bf
       2.0727398 -0.8425649 7.517067 -0.8291125
000010 04 04 1e 40 95 9c 2b 41 ed 53 21 3f 70 22 24 3e
       2.468995 10.725728 0.63018686 0.16028762
000020 4a e4 31 41 93 3b 88 40 10 68 45 40 c7 ad 10 41
       11.118235 4.2572722 3.0844765 9.042426
000030 fb ac c7 40 4b 28 04 40 58 a8 8d 3f 07 41 58 bf
       6.239866 2.0649593 1.1067 -0.84474224

model.channel_expansion.bn.running_var f4 [16]
000000 89 6a 5f 41 96 bb 17 41 cd 87 d6 41 d3 40 3d 40
       13.96351 9.483297 26.816309 2.9570816
000010 6a 78 8a 40 5d 3b 51 42 6c 3c a4 3f 9b 12 d0 3f
       4.327199 52.307972 1.2830939 1.6255678
000020 01 02 e2 41 93 de 44 41 58 06 6e 40 dc 8c 2a 42
       28.250978 12.304339 3.7191372 42.637558
000030 2e 37 ca 41 9c 40 6b 40 e1 b1 6a 40 46 11 1a 40
       25.276943 3.6758184 3.6671069 2.4073043

model.fe.conv1.weight f4 [16, 1, 1, 15]
000000 8e 2e 58 3d db 42 b0 be 91 fc ee be 26 22 17 bf
       0.052778773 -0.34426007 -0.46677068 -0.5903648
000010 a6 22 1a be df b2 1c be 74 6b 8f be f8 2a 0c bf
       -0.1505228 -0.15302609 -0.28011668 -0.54753065
000020 c2 e9 22 be 45 f3 bb be f2 98 0a bf 6f 7a 8c be
       -0.15909484 -0.36709037 -0.54139626 -0.2743716
000030 58 44 aa be 75 4e 19 be fb fb 2d bf b8 c7 08 bf
       -0.33255267 -0.14971335 -0.67962617 -0.53429747
000040 96 d8 f8 be 49 84 fe bd b8 7a 0e 3f 0f ca aa 3c
       -0.48602742 -0.12427575 0.55656004 0.020848302
000050 2f e1 de be b7 04 f4 3d 71 f6 0e 3f 8a d1 b1 39
       -0.43531176 0.11914962 0.5584479 0.0003391619
000060 93 42 8f be 9c 00 30 be 9a 15 fd 3e 6a fd a9 be
       -0.2798048 -0.17187732 0.49430543 -0.33201152
000070 95 20 b5 be e3 fa 21 3d 44 33 8f 3e 16 83 28 bd
       -0.3537642 0.039545905 0.279688 -0.04114064
000080 e1 20 34 bf c7 81 f9 bd 30 4e 9c 3e bd dc 8f 3e
       -0.7036267 -0.12182956 0.30528402 0.28098097
000090 38 e3 24 bf c0 e8 65 bc 0b 5d 9d 3e 2d d4 e6 3d
       -0.6440921 -0.014032543 0.3073505 0.11270938
0000a0 74 58 0b bf de 46 c0 be 35 d3 5e 3e 8c bb 63 3e
       -0.54431844 -0.37554067 0.21760257 0.22239512
0000b0 94 a4 79 be 21 a9 26 3f 40 6c e9 3e a3 ee ab 3e
       -0.24379188 0.6510182 0.455904 0.33580503
0000c0 7c c5 bd 3e cd 26 a4 3e b7 c0 b1 3e 5c 18 92 3e
       0.3706473 0.32060853 0.34717342 0.2853421
0000d0 00 c7 bc 3e d9 4d 00 3d 92 e1 99 3e 14 78 14 3e
       0.36870575 0.03132424 0.3005491 0.14498931
0000e0 0f ae a1 3d aa 24 3c 3e 01 b7 f7 3e 3c 5c ed 3e
       0.07894527 0.18373361 0.48381808 0.46359432
0000f0 ae bc 84 3d 03 17 fd 3e a8 d0 03 3f 14 73 3b 3e
       0.064813 0.4943162 0.5149026 0.18305618
000100 b1 2b f3 3d 2b 34 dc 3e ea 92 bd 3e e5 68 ef 3d
       0.11873568 0.4300855 0.3702615 0.11689929
000110 27 ff 7c 3c d2 1f 4f 3e 7e 90 c7 3e 35 93 91 3e
       0.015441692 0.20226982 0.38977426 0.28432623
000120 b2 92 3c 3e 3f ed 27 3e a1 a9 87 3d 06 b4 9d 3d
       0.18415335 0.16399096 0.06624151 0.07700352
000130 72 fe 53 3e 94 aa 05 bf c2 70 25 bf fc 00 0a 3e
       0.20702532 -0.52213407 -0.6462518 0.13476938
000140 05 75 96 be 2c 84 53 bf e6 6e 27 bf 4d 1e 6a 3e
       -0.29386154 -0.82623553 -0.6540359 0.22863121
000150 f9 ef 49 be fb f6 38 bf 8b 20 5c bf f0 69 2c bd
       -0.19720449 -0.7225186 -0.85987157 -0.042093217
000160 b6 d4 2f 3e 9f 1d 33 bf 1a 3a e8 3e f3 28 7d 3e
       0.17170987 -0.69967073 0.45356828 0.24722652
000170 dc c8 c4 3d 17 33 71 3e f1 e8 96 3e 25 03 31 3e
       0.096086234 0.23554645 0.29474595 0.17286356
000180 99 d0 a8 3e 15 3c 62 3c 53 d1 95 3e a6 87 9d 3e
       0.32971647 0.01380827 0.29261264 0.30767554
000190 5b 59 80 3e 79 2f 13 3e 31 dd 87 3e 8e 95 61 3d
       0.25068173 0.14373578 0.26535943 0.055074267
0001a0 87 31 e5 3c 2b 2c 15 bf 61 7a 17 bf 08 cc 84 be
       0.027977718 -0.5827052 -0.5917111 -0.25936913
0001b0 bc 43 03 be fa 19 4e be 6e da c0 be cb c0 d4 be
       -0.12818807 -0.20127097 -0.3766665 -0.4155334
0001c0 13 4e c6 be 88 b1 87 be 90 da de be 09 9a c4 be
       -0.3873144 -0.26502633 -0.43526125 -0.3839877
0001d0 6f 8a 87 be 7f 33 00 bf a8 2e 03 bf 6d 67 d3 be
       -0.26472804 -0.50078577 -0.51243067 -0.41289845
0001e0 d7 e4 01 bf 2c 77 76 be 56 7b 20 bf 0d 0f 8b be
       -0.50739807 -0.24068898 -0.62688196 -0.2715992
0001f0 68 b0 ae be 4e 93 dd be cf 0f 2a bf ba 30 4c bf
       -0.34118962 -0.43276447 -0.6643037 -0.7976185
000200 b0 5c 1d bf 13 ed 04 be bc da 14 bf 3f 85 67 bf
       -0.61469555 -0.12981062 -0.5814626 -0.9043769
000210 41 59 81 be 14 da b8 be 5a 7a 26 bf bc 41 bd 3e
       -0.25263408 -0.3610388 -0.65030444 0.36964214
000220 be 38 79 3e d8 59 d9 bd 9e 3e ac 3e 2c e1 1d 3f
       0.24338052 -0.106128395 0.33641523 0.6167171
000230 16 f0 d4 3e 08 37 36 be 33 f4 ac 3d 04 be 8b 3e
       0.4158942 -0.1779443 0.08445015 0.27293408
000240 16 60 cf 3e 0f 80 bc bd d0 52 05 3e ed 11 fc 3e
       0.40502995 -0.09204113 0.13019872 0.49232426
000250 e9 68 fd 3e f0 c2 2f 3d 28 71 6a be dc 21 9e be
       0.49494103 0.042910516 -0.22894728 -0.30885208
000260 71 09 a2 be b7 44 79 be 60 ba b2 be 10 66 77 3d
       -0.31647828 -0.24342619 -0.34907818 0.06040007
000270 86 00 86 be 70 26 ce bc 34 c0 a9 be cd e8 2c be
       -0.26172274 -0.025164813 -0.33154452 -0.16885681
000280 65 2d 8c bd 62 49 a5 be 81 19 96 bd cc b0 cb be
       -0.06844596 -0.3228255 -0.07329083 -0.39783323
000290 ed 14 54 be 17 29 82 bf b9 df 89 bf 06 5c 8a 3e
       -0.20711108 -1.016879 -1.07714 0.27023333
0002a0 06 d2 65 3e f2 25 53 bf c8 a1 99 bf 5e 89 be bd
       0.22443399 -0.82479775 -1.2002497 -0.093035445
0002b0 9b 4b d4 3d e8 75 28 bf ca 13 6c bf a6 a7 a4 bd
       0.10365983 -0.6580491 -0.92217696 -0.08039789
0002c0 fc 3f 11 3d 40 1c 54 bf 8f 64 45 bf f7 29 fd 3d
       0.03546141 -0.82855606 -0.77106565 0.1236152
0002d0 2b 0d 3f bf 7a f9 f7 be ff 06 5d be 1b ff cd 3b
       -0.7462947 -0.48432523 -0.215847 0.0062865145
0002e0 11 11 01 bf 20 cb 0d bf 70 11 01 be fa 5d 52 bc
       -0.50416666 -0.5538807 -0.12604308 -0.012839789
0002f0 89 17 36 bf 9a 8e 0b bf 25 08 08 3e f5 c7 00 bd
       -0.7112966 -0.5451447 0.13284357 -0.031440694
000300 9b 6f 3e bf 7b e1 5a bf 42 9f 5a be 5f 39 27 be
       -0.74389046 -0.85500306 -0.21349815 -0.16330479
000310 ac 00 03 bf 88 85 2c be ec 80 00 be 3b 79 b5 be
       -0.511729 -0.16847813 -0.1254918 -0.35444054
000320 dc 98 a6 be 57 ed da be 73 e9 88 be e1 40 9a be
       -0.32538497 -0.427592 -0.26740608 -0.30127624
000330 76 22 2a be 35 ce ae bd 8a 90 3b be 85 af c7 be
       -0.16614708 -0.085354246 -0.18316856 -0.39001098
000340 91 55 88 be f0 50 2f be d4 03 cf 3e ec 5b bf 3e
       -0.26627782 -0.17120719 0.40432608 0.37374818
000350 78 68 21 3e ff 12 f7 3e 5f 11 76 3e 50 3e 2c 3e
       0.15762508 0.4825668 0.24030064 0.16820645
000360 1d 73 15 bd c3 5b a5 3d 00 0a 89 3e 50 44 fa 3d
       -0.036486734 0.08074143 0.26765442 0.12220061
000370 91 35 0a 3c 25 0d b7 3e 2f 47 8d 3e a8 7e af 3e
       0.008435623 0.35752216 0.2759337 0.3427632
000380 bf 3a c5 3e e7 98 28 bf 79 f7 2c bf dd ff d3 be
       0.38521382 -0.6585831 -0.67565113 -0.41406146
000390 2e 7e 58 be d2 52 d2 be 4a 9a bc be 64 0d 7f be
       -0.21141884 -0.41078812 -0.36836463 -0.24907452
0003a0 6f 78 72 bd 37 7d c9 bc 94 6a b6 bd 94 ac 3d be
       -0.059196886 -0.02459584 -0.08907047 -0.18522865
0003b0 e7 dc 31 be ef 9d 58 be 35 0a cf be c4 fc c4 be
       -0.17369424 -0.21153997 -0.40437475 -0.38474095

model.fe.conv2.weight f4 [16, 16, 1, 1]
000000 c9 de 64 3e 4b 09 92 be 11 94 53 be 8c de df be
       0.22350611 -0.28522715 -0.20661952 -0.43724477
000010 8f 24 c4 bc 67 d2 80 be 36 40 f2 be 0e 5c 0f 3f
       -0.023943214 -0.25160524 -0.47314614 0.5599984
000020 ce 29 62 3e 2b d1 b1 be 2e 96 55 be ff 67 23 3f
       0.2208626 -0.34729895 -0.2085807 0.6383056
000030 31 0a 87 be 8e 8f 99 3e 4a 7e cc be 86 b9 0f 3f
       -0.26374963 0.29992336 -0.399401 0.5614246
000040 72 4d f1 3e 4e c5 15 bf bc 5b 39 3f f8 ce b3 3e
       0.471294 -0.5850419 0.724056 0.35118842
000050 19 4d 89 be 12 ff 0e 3f 5d a4 56 bc 3c 9d 86 be
       -0.26816633 0.55857956 -0.013100711 -0.26291835
000060 d3 0b 8e 3e a4 71 ed be 3c 0d b9 3e 09 e7 67 3e
       0.27743396 -0.46375763 0.3614291 0.22646727
000070 af 72 92 3e d6 e3 b2 be c1 4a 56 3d 41 96 da be
       0.28603122 -0.3493945 0.052317385 -0.4269276
000080 fb cb 8f be 7d 5e 10 3f 36 1d 9b 3e 9f 67 31 bf
       -0.28085312 0.5639418 0.30295724 -0.6929874
000090 9b c9 4d 3e 30 86 08 3f ba 87 50 be 25 c1 24 3e
       0.20096438 0.53329754 -0.20364276 0.16089304
0000a0 d2 a1 1a 3e 64 7b c5 3d 78 2e 07 be 2a 52 35 bd
       0.15100792 0.096426755 -0.1320132 -0.04426781
0000b0 21 d2 bc 3e 9f 66 f2 3e 4e 2d e5 be 54 1b 38 3f
       0.36879066 0.4734392 -0.44761127 0.719167
0000c0 02 2b 08 3f 0c 1e 13 bf 5e 74 3b 3f 8d ea aa 3e
       0.53190625 -0.5746772 0.7322444 0.33382073
0000d0 31 65 a7 be 77 59 0c 3f c1 1d 02 3e 3c af 56 be
       -0.3269439 0.5482401 0.12706663 -0.20965284
0000e0 d3 d2 3e 3e c3 4e c6 be 8e 77 cc 3e d3 6d ea 3e
       0.1863511 -0.38731965 0.39934963 0.45786914
0000f0 b8 8f 1c 3f 13 e0 1d be 5a 2e 98 3e c6 7c b9 be
       0.611568 -0.15417509 0.29722863 -0.36228007
000100 07 b4 26 3e c4 1a 0c be 6d 8c 1b bd a7 a5 15 bf
       0.16279612 -0.13682085 -0.037975717 -0.5845589
000110 76 ce a9 3d 71 94 6a be 4e 58 7e be 51 34 0d 3e
       0.082913324 -0.22908188 -0.24838373 0.13789488
000120 f0 e8 a7 3e 42 a6 99 be 8f 4d f5 bd 74 fd 0f 3f
       0.32794905 -0.30009657 -0.11977684 0.56246114
000130 a1 ea a1 be d1 f8 e7 3e b1 cc 14 bf a5 37 f6 3e
       -0.3162432 0.4530702 -0.58124834 0.48089328
000140 d2 2d 5f 3d 2b 32 81 3e f0 ae 09 3f f3 eb 21 bf
       0.054487057 0.25233588 0.5378256 -0.63250655
000150 1b ea 10 3e 15 61 3d 3e 49 6a f0 be 35 01 43 3f
       0.14151804 0.18494065 -0.4695609 0.76173717
000160 90 56 bf 3e 7d 9e 22 3c 61 e3 46 be e5 8f 1f be
       0.3737073 0.009925482 -0.19422676 -0.15582235
000170 ac 24 8a 3e a5 e1 9e 3e be cf 05 bf 8f 36 00 3f
       0.26981103 0.31031528 -0.52270114 0.5008325
000180 25 3d 0e 3f 79 b4 89 be 6b 4e 4e 3f bc e2 98 3e
       0.5556205 -0.26895502 0.80588406 0.29860485
000190 23 db f3 be a4 a8 31 3f 7c 55 1a 3e 00 e5 a1 be
       -0.47628126 0.6939795 0.15071672 -0.31620026
0001a0 7c 21 b2 3d e5 1b af be 32 82 f1 3e 5e 3b e7 3e
       0.08697793 -0.3420097 0.47169644 0.4516248
0001b0 fd 01 a2 3e bf 6e 1d be 1a 02 16 3e 7e ea bf be
       0.31642142 -0.15374278 0.14649239 -0.3748359
0001c0 9a 89 05 3f 94 74 2d bf ac f4 71 3f ac 82 a5 3e
       0.5216309 -0.6775601 0.94513965 0.32326257
0001d0 0d 2d b1 be ec d5 bf 3e 2b 01 ad 3d d1 b2 de be
       -0.34604684 0.37467897 0.084474884 -0.434958
0001e0 db e7 ca 3e df ea 17 bf c1 0b 84 3e c4 a9 8f 3e
       0.39630017 -0.5934276 0.25790218 0.28059208
0001f0 5c dc 10 3f 66 6b 81 bd 4c 09 ae 3e 37 97 ab be
       0.5658624 -0.06319313 0.33991468 -0.33513805
000200 aa cc de 3e f9 06 cc be ae a6 5a 3f fc 90 9a 3e
       0.4351552 -0.3984907 0.85410583 0.3018874
000210 39 5d 06 bf 37 59 ea 3e 81 76 88 3c 26 e1 ce be
       -0.52485996 0.4577119 0.01665807 -0.4040615
000220 9a 18 a1 3e 83 8e 89 be d5 fd 79 3e 2c d4 f6 3e
       0.31464082 -0.2686654 0.24413235 0.4820875
000230 d4 5c 0d 3f 6a e7 cc bd 45 5a 27 3e 47 65 09 bf
       0.5521977 -0.10005076 0.16343029 -0.5367016
000240 ed 43 92 be e5 92 6c 3f 03 d7 b7 3e 39 9e 33 bf
       -0.28567448 0.92411643 0.35906228 -0.70163304
000250 12 ae 94 3e 40 01 63 3f 58 ff 3f be b2 94 d4 3e
       0.29039055 0.8867378 -0.1874975 0.41519696
000260 0c c7 87 3e 7e d7 4d bd 98 33 3a be 63 dc 70 be
       0.26519048 -0.050254337 -0.18183744 -0.23521571
000270 bb 6c 16 3f c4 77 88 3e e4 0c 09 bf 66 5c 00 3f
       0.5875966 0.26653874 -0.53535295 0.5014099
000280 85 15 03 3d ab bb 91 be 2b 91 0c bd 68 14 45 be
       0.032002944 -0.28463492 -0.03431813 -0.19246066
000290 54 a2 3b 3e b4 5b 5f be b9 24 a3 be 9e cb e4 3e
       0.18323642 -0.21812326 -0.31863955 0.44686598
0002a0 98 59 d2 3e b0 97 35 be 39 0f aa bd 0d 15 ba 3e
       0.4108398 -0.17733645 -0.08303685 0.36344185
0002b0 6d ca 2a be 80 43 d7 3e 0f 81 0f bf f4 29 1f 3f
       -0.16678782 0.42043686 -0.560563 0.6217339
0002c0 39 df 12 3f c4 11 05 bf 84 5a 3d 3f 30 7e b6 3e
       0.5737186 -0.51980233 0.7396624 0.35643148
0002d0 82 7a 36 be 92 84 09 3f 05 0f 1f 3e f8 e1 ac be
       -0.1782017 0.5371791 0.15533073 -0.3376615
0002e0 1d eb 86 3e 86 d0 c2 be 74 39 b9 3e 44 2b 9d 3e
       0.26351252 -0.38049716 0.36176646 0.30697072
0002f0 31 e0 c6 3e f4 58 6d be 70 39 74 3e b9 06 a6 be
       0.3884292 -0.23178464 0.23850036 -0.32427004
000300 bc 4c d8 3e 7e 18 de be 61 ee 1a 3f 86 2c 57 3e
       0.42246044 -0.4337806 0.6051999 0.21013078
000310 fe 8c d5 be ab d4 9a 3e 93 95 00 3e 7a d5 a9 be
       -0.4170913 0.30240378 0.12557058 -0.33170682
000320 bb 55 38 3e 0e 79 a2 be 0c 5e 91 3e 20 aa 67 3e
       0.18001454 -0.31732982 0.28392065 0.22623491
000330 60 bc b5 3e 5e dc 0d be a0 88 76 3e f6 ad 26 be
       0.3549528 -0.13853595 0.24075556 -0.16277298
000340 fc 93 5b 3e 4a a9 01 bf 39 b6 2d 3f 99 e7 74 3e
       0.2144317 -0.5064894 0.67856175 0.23916472
000350 04 3c 95 be 5b af e9 3e 8b c9 84 3e 8e e0 71 be
       -0.2914735 0.45641598 0.25935015 -0.23620817
000360 97 a0 9a 3e 71 c2 87 be ce f0 fb 3d e4 39 ec 3e
       0.30200645 -0.26515535 0.12301789 0.46137917
000370 c1 f5 06 3f 54 c8 99 be 2e ee 42 3e 9f bc d2 be
       0.5271874 -0.3003565 0.19036171 -0.4115953
000380 89 5d 6d be 22 89 68 3f d3 68 cf 3e 0b f2 0f bf
       -0.23180212 0.9083425 0.40509662 -0.56228703
000390 85 4f 67 3e 8a a5 44 3f f5 58 3c be 83 6b 00 3f
       0.22588928 0.7681509 -0.1839331 0.5016405
0003a0 e2 1a d0 3e 25 bb 40 3e df 23 af be c3 a6 0a be
       0.4064551 0.1882139 -0.34207055 -0.13540177
0003b0 0f d2 e9 3e f0 ee 40 3e f8 b3 a9 be 52 95 0b 3f
       0.45668074 0.18841147 -0.33145118 0.5452472
0003c0 2b a9 10 bd a1 9c 78 3f fd f8 b4 3e 7a 2b 98 be
       -0.03531758 0.97113997 0.35346213 -0.2972067
0003d0 b7 72 59 3e 79 89 36 3f 1d 23 55 be 14 ba ba 3e
       0.21235166 0.71303517 -0.20814176 0.3647009
0003e0 98 4d 92 3d 5a 38 87 3e b0 24 8c be 20 6a 36 3d
       0.07143706 0.2641018 -0.2737174 0.044534802
0003f0 a6 01 04 3f 8b 93 af 3e a5 e8 24 bf 3c 76 54 3f
       0.51565015 0.34292254 -0.6441749 0.8299291

model.fe.bn.weight f4 [16]
000000 6d 99 9f 3f 81 ff 9f 3f 03 99 9e 3f 11 3d 90 3f
       1.2468697 1.2499849 1.2390445 1.1268636
000010 dc 1e 98 3f 71 c9 9b 3f dd 47 99 3f c2 ce a6 3f
       1.1884418 1.217085 1.1975056 1.3031847
000020 a4 ca 91 3f c9 18 a4 3f 2b 63 95 3f 2b dc 97 3f
       1.1389966 1.2820064 1.1670889 1.1864065
000030 f3 e8 98 3f 3e 71 98 3f 54 da 9b 3f 90 d7 98 3f
       1.194609 1.1909559 1.2176003 1.1940784

model.fe.bn.bias f4 [16]
000000 49 2e 76 be 06 da 98 be 09 a3 61 be 49 75 82 be
       -0.24041094 -0.2985384 -0.22034849 -0.25480106
000010 ef a2 53 be c7 12 40 be f8 b3 8b be 7c c3 9f be
       -0.20667623 -0.18757163 -0.27285743 -0.3120383
000020 c0 c5 78 be b7 3c 86 be 19 a7 35 be c0 f3 8a be
       -0.24294186 -0.26218197 -0.17739524 -0.27139091
000030 0e 09 85 be e4 8d 8a be 5d f0 67 be a1 85 5d be
       -0.2598347 -0.2706138 -0.22650285 -0.21633007

model.fe.bn.running_mean f4 [16]
000000 6d 1f fd c0 a8 fd 1c c1 39 6f d2 c0 5b 6e 49 c1
       -7.910086 -9.811928 -6.576077 -12.589442
000010 9a b9 f4 c0 de 6c d2 c0 2b 0a 3c c1 4e 21 3c c1
       -7.6476564 -6.5757895 -11.752482 -11.758131
000020 46 1c 4c c1 ed ff 09 c1 9c 01 d4 c0 64 ea 27 c1
       -12.756903 -8.624982 -6.6251965 -10.494724
000030 0c 3a fe c0 2b ca 31 c1 30 10 09 c1 23 2a 07 c1
       -7.944586 -11.111857 -8.566452 -8.447787

model.fe.bn.running_var f4 [16]
000000 8e d0 b9 41 70 c5 3a 42 5b ea 98 41 b4 50 7b 42
       23.226833 46.69281 19.114431 62.82881
000010 8c 9d 85 41 d4 5a 95 41 18 ab 6d 42 56 24 78 42
       16.701927 18.66935 59.417084 62.035484
000020 c8 8c 76 42 dc 00 16 42 71 a2 2f 41 0a 15 47 42
       61.63748 37.50084 10.977159 49.770546
000030 a7 c8 f1 41 64 87 40 42 fc 07 fb 41 be e9 d8 41
       30.222975 48.132217 31.378899 27.114132

model.classifier.weight f4 [1, 16]
000000 01 bb 18 bf fe 4d dd 3e f8 48 fd be 52 2b af 3e
       -0.59660345 0.43223566 -0.49469733 0.34212738
000010 9c 7f 1b bf 9b 1a d5 be 97 d8 a5 3e 54 9d da 3e
       -0.6074159 -0.4162186 0.32391807 0.42698157
000020 96 31 b8 3e aa f4 08 bf c1 91 03 bf 6a 33 dd 3e
       0.3597533 -0.5349833 -0.5139428 0.43203288
000030 b1 89 c5 3e fc c2 dc 3e 2d 3f 10 bf bf 60 fc be
       0.38581613 0.4311751 -0.563464 -0.4929256
